model_checkpoints/tanh/checkpoints/epoch=1999-step=2000.ckpt (torch, 166570 bytes, 27 tensors)

lin1.weight f4 [64, 2]
00000000: 82c9 b73f 8360 20be e08f 88bf 7d1a b8be
00000010: dfb2 b8bf 9f87 763f db1f 93bf 5f91 f13e
00000020: 5d9b bd3f 6107 683f 0401 e0be cb0a 493f
00000030: 4e1c d2bf 1fdd cc3e 45b7 103d 1a57 2f3f
00000040: 2002 e63d 1301 5b3f ad4b 9f3f 0412 bbbe
00000050: 164a 1abf 8f7e 0abf 6b29 85be 97c1 8abf
00000060: 2e0a 02bf 8a0c 9abe 7563 633e 59b0 87bf
00000070: 3722 9a3f e23f a3be 741e b83f 465d b63e
00000080: 7c46 843b 6048 203f 58de d13b ed54 663f
00000090: 481c 90bf 2692 5abf 849a 1dbf 1d11 003f
000000a0: 7b32 f53e 0a6f 21bf 55dc 8cbd daa5 59bf
000000b0: 93d7 a7be 397f 2ebe 8459 c53f 5dca bbbe
000000c0: f0ae 95bf 41f6 b2be c14d 95be 0247 173f
000000d0: 7596 2ebf 28ea b83e 2619 21be aa65 953f
000000e0: 82a0 0ebf b9bc 603f c108 aebf 9754 963f
000000f0: cc61 673d c63b 043f da51 38bf 5d5d 2abf
00000100: 3781 39bf 7925 213f d477 203e 4fdd 1ebf
00000110: 77c9 f9be 0ded 873e 9b9a 163f 4333 493f
00000120: 515b 633f 5cee b33e 546d c4be beeb 093f
00000130: ce2d 3bbf 845c 76bf e69d 79bf 01d5 25bf
00000140: e3dd 813f c02b 9fbe b100 de3f 404f 35bf
00000150: 59fb a63f 0963 f7bd 98ef 19bf 9c74 b1be
00000160: a373 6c3e 7285 52bf 066e 6bbf 3d8c 17bf
00000170: d162 683f e74a 50bf 79d4 773f 5319 433f
00000180: e8b3 203c 1346 5f3f f94f 0fbf aafd 7b3f
00000190: 42eb 803e 1183 04bf 5fa7 523f e8b3 783f
000001a0: a51f 3b3f 0c2e 88be d824 06bf a74d 5b3e
000001b0: 26a3 8c3f c834 5f3f 7d82 c5bf 09da b8be
000001c0: 8c8a 683f 95ab 8abf 8df9 a8bf d7e6 58be
000001d0: 0c9c 983d e69f 24bf df7c 08be e5c9 8b3f
000001e0: decd 82bf 5cc9 87bf 1a0d 53bf 0b84 82be
000001f0: f92e b33e 969d 3a3f 31aa af3b eab9 2d3f
1.435837 -0.15661816 -1.0668907 -0.3595771 -1.4429587 0.9630069 -1.1494097 0.47181222
1.4813038 0.9063626 -0.43750775 0.78532094 -1.6414888 0.40012452 0.03533103 0.6849228
0.11230874 0.85548514 1.244497 -0.36537182 -0.60269296 -0.54099363 -0.26008162 -1.0840329
-0.5079678 -0.30087692 0.22205909 -1.0600692 1.2041692 -0.31884676 1.4384294 0.35618037
0.0040367227 0.62610435 0.0064046793 0.89973336 -1.1258631 -0.85379255 -0.615639 0.5002611
0.47890076 -0.6306006 -0.068779625 -0.85018694 -0.32781658 -0.17040719 1.5417943 -0.36677828
-1.1694012 -0.34953502 -0.29160884 0.59092724 -0.6819833 0.36116147 -0.1573225 1.167165
-0.55713665 0.8778797 -1.3596421 1.1744565 0.05648975 0.5165371 -0.71999896 -0.6654871
-0.7246279 0.62947804 0.15670711 -0.6205644 -0.48786518 0.26548043 0.5882966 0.78593844
0.8881121 0.3514279 -0.3836466 0.5387534 -0.7311677 -0.9623492 -0.9750656 -0.64778143
1.014584 -0.31088066 1.7343961 -0.7082405 1.3045455 -0.12079436 -0.60131216 -0.34659278
0.23090987 -0.8223487 -0.9196476 -0.5919836 0.9077578 -0.8136429 0.9680858 0.76210517
0.009808518 0.872163 -0.55981404 0.98433936 0.25179487 -0.5176249 0.8228664 0.97149515
0.7309516 -0.2659763 -0.5239997 0.21416341 1.0987289 0.8718991 -1.5430447 -0.36103848
0.90836406 -1.0833613 -1.3201157 -0.21181808 0.074516386 -0.64306486 -0.13328885 1.0920988
-1.0219076 -1.0608325 -0.82441866 -0.25491366 0.34996775 0.7289671 0.0053608646 0.6786181

lin1.bias f4 [64]
00000000: 60c3 45bf 8e5d 1d3f e0b7 663f eabd 2bbf
00000010: 06d5 72bf 8746 8f3e fcc5 783f aae1 06be
00000020: 8a11 65be ae9a 3f3f 91e5 11bf 617c 13bf
00000030: bb34 bcbd 1491 0f3f b2d7 3a3f 9131 30bf
00000040: 7d0d 52bd 24c6 3c3e d1be 55bf 12e7 6a3e
00000050: 9977 743e acc9 5e3e 7d2d 32bd ef7c 823f
00000060: 0123 36bf 557e 9bbc d2f7 683e f387 053f
00000070: c00d ccbe ff77 7dbf 03b8 dcbd 2e54 fc3e
00000080: 99d2 e1be 8746 583e a1d3 5b3e 3afe 193f
00000090: 90a3 b8be 0820 e33d 5658 103f a390 ff3e
000000a0: 3eb6 0b3f 2509 89bf 6703 533f d2ce 84be
000000b0: f45f c93e e7de 15bf 3467 0e3f 2272 243f
000000c0: 7ffd b33c f041 04bf d632 c8be 4a19 383f
000000d0: 9391 743e 2335 4b3e fdfd 37bf 1d9e 5b3f
000000e0: 25bb 353f ffd6 2d3f e546 bb3d c652 e93e
000000f0: d80d 3f3f fd66 cfbe d579 33be 829c 313e
-0.77251244 0.6147088 0.9012432 -0.6708666 -0.948563 0.27983496 0.971771 -0.13172022
-0.22369972 0.748454 -0.56990916 -0.5761166 -0.09189745 0.56080747 0.72985375 -0.6882563
-0.051282395 0.1843496 -0.8349429 0.22939709 0.23873748 0.21756619 -0.043500412 1.0194377
-0.7114716 -0.018981138 0.22750786 0.5216057 -0.3985424 -0.99011225 -0.10777285 0.49282974
-0.44105986 0.21120654 0.21467449 0.60153544 -0.36062288 0.11090094 0.5638479 0.49915037
0.54574955 -1.0705916 0.82427067 -0.2593904 0.3933102 -0.58543247 0.55626225 0.6423665
0.021971462 -0.5166311 -0.39101285 0.7191359 0.23883657 0.19844489 -0.7187193 0.85788137
0.70988685 0.67906183 0.091443814 0.45570964 0.746305 -0.4050826 -0.17526944 0.17344859

lin2.weight f4 [64, 64]
00000000: deba a13d 6846 20be f5a7 723e 4f31 143e
00000010: c2f9 683e 993a 9c3e 9e54 dbba d54e 1a3f
00000020: 8e10 8c3f 72f8 d13d 7735 12be 093f a7be
00000030: c07a 24bf 8f17 c9be 611b e8bd 91d0 233e
00000040: 59ac 223f c441 183f 53e6 46bd 3a01 963d
00000050: 4ed9 c0be 1a6e 24bf 9e6f 77be 660c a63c
00000060: adec 86bd 8fc5 e53e a2af ffbb 1124 bc3e
00000070: da22 ca3e 69a7 4b3e 9522 e23e 70a7 8fbe
00000080: 8319 553e 9dca 8cbe 49ef b23d 3c99 833e
00000090: 5e05 cc3e 1680 493e 11d3 b7be 047c bbbe
000000a0: 097f 583d 77a1 89bd 3ad6 da3c 697a babe
000000b0: 0594 ccbe 7683 a5be 13fe 3fbe 691a ba3e
000000c0: 3ee8 1c3f d09c ae3e 7d30 57bd a72b 963e
000000d0: aa51 fd3c 93cd 913c 1960 843e 5b4c edbd
000000e0: 5ae9 a4be ae72 f6bd fc1b 00bf cc27 a23e
000000f0: 6255 f5be 4847 fcbe 165a 243f 01fb e63e
00000100: eef3 443e fa2d 14be 37ef 0ebf 3d57 a23d
00000110: 3483 a93d e198 d4be f612 d5be 29a5 66be
00000120: 14e0 b6be 0614 40be 04f0 873d 1d95 3c3f
00000130: b060 8fba c423 833d abc2 80bd bc37 083e
00000140: 21d5 c9bd 0fc3 93be 9733 dc3e 18ac cbbe
00000150: 21ac dc3d 9e95 c53e 5944 e83d 6920 eabd
00000160: b8e9 563e 5bc8 02bf c91a 27be 9150 16bf
00000170: b707 6dbe 11ed 8a3d 2d94 84be 6528 013d
00000180: eae4 30be 36ba 333e 1fdf 87bd 9142 04be
00000190: f758 bc3d 4a90 03bf e903 4abd bf58 3cbd
000001a0: f32d 2bbe f448 b13e 3034 a9bd c52b 11bc
000001b0: 1e32 af3d 5fd7 923e 33e8 4a3d f20e 01bf
000001c0: 93cc a8be 4191 0ebe 46eb a0bc dc27 06bf
000001d0: 09e9 c13d 025a cd3c 797e 013e 1916 9ebe
000001e0: ca1e 8d3c f37f 81bd 4d8d 2f3e 27ee 2abf
000001f0: c4ef 1dbe 283a 953e 42e0 57bd f349 86be
00000200: a899 80be 2acf 513e dea8 a63e 07f0 80be
00000210: 037b eabe 6cd9 e13c 507e af3e 12ee 8bbe
00000220: 5007 debe b88a 3d3e 8b2c 0ebd 6eda 9cbb
00000230: 00ea 383e 4145 bd3e b865 0e3e ee64 64be
00000240: 8f71 86be dd8f ccbe 7e82 a8bd 773d 4bbc
00000250: 9801 853d 296f 0f3f 5bc6 a73d 1d29 743e
00000260: 4fc4 303d 54c8 abbe 589c 963d 5db5 69be
00000270: 92f8 91be 3853 93be 1d6a d8bd 6ef2 bd3e
00000280: 3205 29be 75cb a83d e36e 903c b817 33be
00000290: ddcb a5be 10e4 32bd 2f78 703e 41c1 763e
000002a0: 4de3 6e3e e4bc aabe ac70 db3d 64f9 1d3e
000002b0: da4d aa3e a4f1 c63d 2885 a13e 1444 cabd
000002c0: c2c3 88be 50c1 7cbe 896b 08bd 4e9a 4cbd
000002d0: a0a3 b0bc 4bd0 4abd 83b9 a2be ac13 e93e
000002e0: 8974 c93e 4417 bb3e ad7a 8a3e 2eea 53be
000002f0: 9338 d13e ebd2 613d 1111 f9bd a876 46be
00000300: 1c9e 023e 99d3 bbbd b99f 3bbe baf7 e73d
00000310: e439 0c3e d5f2 bcbe c74e 1dbe f6d1 5dbe
00000320: d630 c8be 18d9 bfbe 547f 0d3e 19ff 3d3f
00000330: 5cf7 4b3e 7bb2 5abc 8690 8bbe c00f 293e
00000340: b57f 02be 9d55 b5be ac07 093f b0b8 c0bc
00000350: 61d4 cf3d 709a c73e aa25 023e dea1 dbbd
00000360: 431f a23e 1b8e a3be ad4a 38be ab1c 19bf
00000370: 5224 8bbd ed06 da3c 4c1c c3bd a093 0f3e
00000380: 6a29 703b 2e0d cd3d f7e0 593d 68d4 8bbe
00000390: f499 d4bd cd7c 40be 9fd3 e03d 6879 b83d
000003a0: b0f8 2fbe 1ae4 a83e 6a71 6ebe 6d32 8a3e
000003b0: af22 1c3e e4bd a33e fbe8 fc3b 665c ecbe
000003c0: 3771 bcbe 3afc 0e3d f2df 09bd 3bb3 13bf
000003d0: cbae 39bd 7b74 d8bd e730 febd 73a3 3bbe
000003e0: ab13 d43c 5a30 123d eeb2 7f3e 2e9b 26bf
000003f0: f3f1 613d 0e10 eb3e 4ad2 10be 06c8 79be
0.0789697 -0.15651858 0.23696883 0.14471935 0.22751525 0.30513456 -0.0016733592 0.6027654
1.0942552 0.10252465 -0.14278208 -0.3266528 -0.642498 -0.39275786 -0.11333347 0.1599753
0.6354423 0.5947535 -0.048559498 0.07324453 -0.3766579 -0.642305 -0.24163672 0.020269584
-0.06588111 0.44877288 -0.0078029195 0.36746266 0.39479715 0.1988808 0.4416701 -0.28057432
0.20810513 -0.27498332 0.08737046 0.25702846 0.39847845 0.19677767 -0.35903218 -0.36618054
0.052855525 -0.0672025 0.02671348 -0.36421517 -0.3995668 -0.3232686 -0.18749265 0.36348274
0.61291873 0.34104013 -0.052536476 0.2933018 0.03092273 0.01779822 0.25854567 -0.11586829
-0.32209283 -0.12033592 -0.500427 0.31670988 -0.47916704 -0.49273133 0.6419996 0.45113376
0.19233677 -0.14470664 -0.5583376 0.07926796 0.08276978 -0.41522887 -0.4161603 -0.22523941
-0.35717833 -0.18757638 0.06637576 0.7366503 -0.0010938849 0.06403306 -0.0628713 0.13302511
-0.09855104 -0.28859755 0.4300811 -0.39779735 0.107750185 0.3859071 0.11341161 -0.11431963
0.20987594 -0.5108697 -0.16318811 -0.58716685 -0.23147474 0.06783498 -0.258943 0.031532664
-0.17274824 0.17551503 -0.06634354 -0.12916018 0.09196656 -0.5139204 -0.049320135 -0.045983072
-0.16716747 0.3462597 -0.08261907 -0.008860533 0.08554481 0.2867994 0.04953785 -0.5041343
-0.32968578 -0.13922597 -0.019643437 -0.5240457 0.09468276 0.025067333 0.12645902 -0.30876234
0.017226595 -0.063232325 0.17143746 -0.6676964 -0.15423495 0.29145932 -0.052704103 -0.26228294
-0.2511723 0.20489183 0.3255071 -0.25183126 -0.45796975 0.027569495 0.34276056 -0.2733007
-0.43364954 0.18509948 -0.03471045 -0.004786781 0.18058014 0.369669 0.1390599 -0.22304127
-0.26258513 -0.3995351 -0.082280144 -0.012404791 0.064944446 0.5602899 0.0819213 0.23843808
0.043155964 -0.33551276 0.07354039 -0.22823091 -0.28509957 -0.28774428 -0.105671145 0.37099022
-0.16505888 0.08241931 0.017631 -0.17489517 -0.32382098 -0.04367453 0.23483346 0.24097158
0.23328896 -0.33347237 0.1071485 0.15427166 0.3326252 0.09714058 0.31546903 -0.09876266
-0.2671185 -0.24683118 -0.03330568 -0.049951844 -0.021562397 -0.04951505 -0.3178216 0.4552282
0.39346722 0.36541188 0.2704672 -0.20694801 0.40863475 0.055132788 -0.12161458 -0.19381201
0.12755626 -0.091712184 -0.18322648 0.11326547 0.13693959 -0.36904016 -0.15362082 -0.21662125
-0.3909976 -0.37470317 0.13818103 0.74217373 0.19918579 -0.013348217 -0.272587 0.16509914
-0.12744029 -0.3541688 0.5352733 -0.023525566 0.1014793 0.38985014 0.1270968 -0.10724233
0.31664476 -0.31944355 -0.17997237 -0.5980937 -0.06794037 0.02661463 -0.095268816 0.14021158
0.0036645778 0.100122795 0.05319306 -0.2731049 -0.10380927 -0.18797608 0.109778635 0.090075314
-0.1718471 0.32986528 -0.23285452 0.26991597 0.15247606 0.31980813 0.007718203 -0.46164244
-0.36805126 0.03490851 -0.033660837 -0.5769536 -0.04533271 -0.10569092 -0.12411671 -0.1832407
0.025888285 0.035690643 0.249706 -0.65080535 0.05516238 0.45910686 -0.14142719 -0.24392709

lin2.bias f4 [64]
00000000: 4c8d 8bbe 55ab 6a3c 8b67 0a3d 8cc8 88bd
00000010: 7790 663e 6bc4 16be 925b a33d fff9 ffbd
00000020: b632 8ebd 91f1 fdbd 7926 31bd 1d7f 433e
00000030: 4e1e 28be cd98 04be 88d8 a53d 4ee1 673d
00000040: 6f79 42bc e223 1c3e 9da2 483d 604b 0abd
00000050: 5529 d63c 753f a4bc bf3c 15bc dd90 c8bc
00000060: 7496 36bd 77cc 093c eef8 e43e 7425 9ebd
00000070: 0f20 f93d 9fb3 663e 6d69 2ebc 72c9 1fbe
00000080: 0bd7 993e 53b1 b2bd 4a3c b4bd 4f21 7e3e
00000090: e678 993d 0c25 5f3d 79e1 c3bd 50d9 4abe
000000a0: 97b6 b43d 1ecb 6fbd 185b 14be 2b56 993c
000000b0: 0f13 d33d f135 62bd ea72 523e d181 c73c
000000c0: e145 6f3d a96a 4b3e 1c70 093e aca2 593e
000000d0: 89cd 6e3e 2d4a dfbd 652a a4bd d4ff 8f3c
000000e0: 0371 b13d a867 613b 8871 d1bd 334a 873d
000000f0: 9fe5 d3bd 0623 ce3d 4e7f 21bc 7275 b5bd
-0.27256238 0.014323075 0.033790153 -0.06678876 0.22516046 -0.14723365 0.0797645 -0.12498855
-0.06943266 -0.12399591 -0.04324958 0.19091459 -0.1641781 -0.12948914 0.08097941 0.05661135
-0.011869772 0.15248063 0.048983205 -0.03376329 0.026142756 -0.02004979 -0.009108721 -0.024483139
-0.044577077 0.008410565 0.44721168 -0.07721987 0.12164318 0.22529458 -0.010645253 -0.15604189
0.30046877 -0.08725228 -0.08800562 0.24817394 0.07493763 0.05447869 -0.0956449 -0.1980946
0.08823889 -0.058543317 -0.14487875 0.018717846 0.103063695 -0.055227224 0.20551649 0.024353893
0.05841625 0.19864906 0.13421673 0.2125346 0.23320593 -0.1090282 -0.080158986 0.017578043
0.086641334 0.003439406 -0.102267325 0.06605949 -0.10346531 0.10065274 -0.009857012 -0.088602915

lin3.weight f4 [64, 64]
00000000: 6a02 d0bd a005 85bd de07 7a3d 4d96 2f3d
00000010: 0c38 04bd 4967 803c f265 373e 32a0 353e
00000020: b69b 113d 03c3 0d3e a2ad 06be 11c8 a0bd
00000030: e7e1 babd b688 d2ba a5ea 0cbe 5dc1 34bd
00000040: 96cf 143e ed9c 0b3d 3ab4 373e 43ce fdbb
00000050: 9540 903d 9895 603d 5063 2abe b22c ed3b
00000060: 4193 62bb bf76 8fbd 8dea 803c 5060 e4bc
00000070: ed67 20be 800c abbb 3f7a 9ebc ddda 3a3d
00000080: 0975 0cbe 8384 e13d 4fd7 dabc 9719 e5bd
00000090: 402c 53be 61c9 c7bd 2f45 813c 39d5 9b3c
000000a0: 5eb9 2cbe cbaf cd3d d864 d1bb 4bbf 8a3c
000000b0: 1fb0 87bb ee43 113d 88bc 12be 1000 4d3e
000000c0: 9e0a b4bd ed6d 5cbe a290 0c3d 0cee f6bd
000000d0: 2c79 9dbd f6eb c0bc 4a28 fc3c 7d8a 4ebb
000000e0: ec65 34be d6ed 1c3d 098a 803d 3334 c83c
000000f0: a1a2 583d c3c1 dd3d 22fb 493e eff7 073e
00000100: 37af 5fbd 4e95 2fbe fa03 7abe caf5 69bd
00000110: d2c4 bfbe 5d5b 50bd 2f84 173e b0b3 023d
00000120: 77de d3bd ead4 843c 2dd0 eebd 74c0 3c3d
00000130: 816e 0abc 1ff3 813e b818 e7bd a9ec 8dbd
00000140: 3e55 8a3e c242 6e3d e767 503e 78a6 25be
00000150: bb03 29bd a7be 8a3e 32c4 a7be 8866 3bbe
00000160: ec14 90be 16f7 753d ea76 8dbd 38f9 fe3b
00000170: d4b5 80bd 9d9e fa3d be23 473e 7b97 993d
00000180: c41b 30bf 2731 663e 4fe4 9d3c 3a5b 61bd
00000190: ac2c ca3d c876 14be 0464 c13d d5b5 d2bd
000001a0: c058 2bbe fb77 9dbd 44f9 f33e 92df 9c3c
000001b0: b187 133d 567f d8bd 47a9 9bbc 2be5 383e
000001c0: 4188 03be 7359 e8bc 2efc 0cbd 24ec 70bd
000001d0: 9a59 2cbe be16 ea3d 8108 3a3e 80de 923d
000001e0: 525d f0bd a3cc 003e 4d86 ce3c 3f85 e63e
000001f0: 84a9 9d3e ddca 28be 587c ea3d ef4f a93c
00000200: a187 813e 53fa 9ebe d431 1fbe 8aed 07bf
00000210: be76 2b3f ad9a b33e 518c 8abe 8d56 803d
00000220: b488 23be d728 8abe 6a83 3abe d5be 86bd
00000230: 3375 11be cd50 06bf 9162 453c f587 1cbe
00000240: b639 cdbe fd26 aa3d e5b5 bcbd 50e1 c43e
00000250: b36d 933e 6be4 d4be 86c6 b1bd f8da 20bd
00000260: 52fe 9ebc 0d04 2b3e 2cc9 0f3d de9f 71bf
00000270: 5725 e73d 8aaa 8a3c e1aa 25bf 60e8 70bd
00000280: 4b25 0e3f f65d 6c3d 2965 e73e cd55 dfbd
00000290: 69eb 073e 5c29 8e3b cd5f 8a3e f66a 72bd
000002a0: 0c7b 9a3d c89b 3dbd 1c28 a4bd 18d7 26bd
000002b0: d6ed cb3e c712 a53e d8e7 e6bd 1d1b 20be
000002c0: fe74 a63e 97c9 9e3d 7e32 70be 2145 2f3f
000002d0: e771 cebd 5a4f e73e cd26 0fbd 8263 c3bd
000002e0: fa61 29be 7fac 143f 9881 8f3e d0f8 b63d
000002f0: a782 0bbf 0dc6 a6be 446b 38be def9 96be
00000300: 372a 0c3e 7e93 913e 6ccc 2c3d 259d 8e3e
00000310: f232 01bf 58a2 12bd 2327 ac3d 19c7 793e
00000320: 9b01 833e 24a0 a63e acd3 623e 7539 a23d
00000330: 8b85 383e 8458 f83d c0e7 073e cbf6 343e
00000340: dddc 703e d32a 32bd 97b1 bdbd 4b91 24be
00000350: 1a50 c3be ef51 2d3e d902 233e 0f19 0f3e
00000360: d750 833d b500 b8bd 1f79 e1bd 9fe1 eb3e
00000370: 8d33 b33d 535e 54be 3e20 673e faeb 44ba
00000380: 2042 ae3e ef7e 13be 81d2 9dbe ba10 863d
00000390: edae b2be a1d1 b43c 3c60 14be ca1d e9bd
000003a0: c0ad 913d ee47 ec3d 1574 ab3c 5d1e 153e
000003b0: 59bb 23be a23b 3fbe 3ddd 243d 32d2 733e
000003c0: b614 37be 1715 163e dbdb db3d 85a6 3ebe
000003d0: 436b 4d3e 6688 81be bcf8 bbbd c4e2 0ebe
000003e0: 7e01 6c3e 977c b23c 628c 8dbd d2ff 80be
000003f0: bffe 883e d65d 313d 6807 1b3e 8c73 933e
-0.101567104 -0.064952135 0.06104266 0.042867947 -0.032280013 0.01567425 0.17909983 0.17736891
0.03554889 0.13843922 -0.13152173 -0.0785066 -0.09125119 -0.0016062472 -0.13761385 -0.044129718
0.14532313 0.034085203 0.17939845 -0.0077455356 0.07043568 0.054830164 -0.16639447 0.007237994
-0.0034572633 -0.07005071 0.015736843 -0.027877957 -0.15664645 -0.005219996 -0.0193454 0.04561888
-0.1371652 0.11011603 -0.026713995 -0.111865215 -0.20622349 -0.09755207 0.01578006 0.01902257
-0.16867587 0.100432955 -0.0063901953 0.016936919 -0.0041408683 0.035465173 -0.14329731 0.20019555
-0.087910876 -0.21526308 0.03431762 -0.120571226 -0.07689127 -0.023550015 0.03078093 -0.003151565
-0.17617005 0.038312756 0.06276328 0.024438953 0.05288947 0.10827973 0.19724706 0.13278173
-0.054610457 -0.17146799 -0.2441558 -0.05711917 -0.3745485 -0.05086838 0.14796518 0.031909645
-0.10345166 0.016214807 -0.116608 0.046081975 -0.008449198 0.253808 -0.112840116 -0.06929905
0.2701816 0.058169134 0.20352136 -0.16176784 -0.041263323 0.2709858 -0.32766873 -0.18300831
-0.28140962 0.060050093 -0.06907447 0.007781174 -0.06284681 0.12237284 0.19447228 0.07499596
-0.68792367 0.22479688 0.019273905 -0.05501864 0.09871802 -0.14498436 0.094429046 -0.10288588
-0.16733074 -0.076889 0.47651112 0.019149575 0.036018077 -0.105711624 -0.019001616 0.1805617
-0.12844945 -0.028362965 -0.034420185 -0.05881895 -0.16831055 0.11430119 0.18167306 0.07171345
-0.117365494 0.12578063 0.025210524 0.45023534 0.30793393 -0.16483636 0.11449498 0.020667998
0.2529879 -0.31050357 -0.15546352 -0.5309683 0.6697806 0.35078946 -0.27060178 0.06266508
-0.15970117 -0.26984283 -0.18214193 -0.06579367 -0.14204864 -0.5246704 0.012047426 -0.15286238
-0.40083092 0.08308218 -0.09214381 0.3845315 0.2879463 -0.4158052 -0.086804435 -0.039271325
-0.019408379 0.16700764 0.03510396 -0.9438456 0.11286419 0.016927022 -0.64713866 -0.05881536
0.55525655 0.057706796 0.45194367 -0.10905037 0.13273396 0.0043384265 0.27026215 -0.059184037
0.075430006 -0.046291143 -0.08015463 -0.040732473 0.39829892 0.32240888 -0.112746894 -0.15635343
0.32511133 0.07753294 -0.23456761 0.6846486 -0.10080319 0.45177728 -0.034949113 -0.09540464
-0.16541281 0.5807571 0.2802856 0.08934176 -0.54496235 -0.32572976 -0.18009669 -0.2948751
0.13687979 0.2843284 0.04218714 0.27854267 -0.5046836 -0.035799354 0.08405902 0.24392356
0.25587162 0.32544053 0.22151059 0.07921115 0.18019693 0.12126258 0.13272 0.17672269
0.23521753 -0.04349787 -0.09262388 -0.1607105 -0.3814705 0.16925786 0.15919055 0.13974403
0.06411903 -0.0898451 -0.1100943 0.46070573 0.08750067 -0.20739107 0.22570893 -0.000751197
0.34034824 -0.1440389 -0.30824664 0.06546159 -0.34899083 0.022072615 -0.14489836 -0.11382635
0.07113218 0.11537157 0.020929376 0.14562364 -0.15989436 -0.18675092 0.04025005 0.23810652
-0.17878994 0.14656483 0.107352935 -0.1861821 0.20060448 -0.25299376 -0.09178302 -0.13953692
0.23047444 0.021787925 -0.069115415 -0.25195175 0.26756856 0.04330238 0.15139544 0.28799093

lin3.bias f4 [64]
00000000: 640f 0cbe 6086 9a3d 5869 b5bd e9c8 b33c
00000010: 1796 fcbc 740c 1fbe 3cd6 0a3e 6027 173e
00000020: 1ecd 23be 2161 e43c a0a3 49be b6fa df3d
00000030: 29af 7dbc 1a98 fe3b 15d3 98bd 7794 cd3d
00000040: 0f1f 43be f53b 3abc 4807 513e 7521 393d
00000050: dfe2 943d feae 093e 2918 48be 5c57 eebd
00000060: 0e33 533e cacc 29bc 717a bebc 7be3 53be
00000070: 2542 243e 5f45 843d 2760 97bd 628c d4bd
00000080: d534 89bc 131a 3d3e 86c4 e0bd d8f9 633d
00000090: a04d 0fbd ce57 62bc 8309 cd3d 6d73 4c3e
000000a0: 8535 df3d ed68 1c3c d8d7 03bd 1da4 273e
000000b0: 5ee6 31be c451 1ebd 6262 f4bd 1537 01bc
000000c0: 623b b43d 59a8 e43d e1f0 a4bd df28 ea3d
000000d0: 137b 4bbd c5a3 43be c15a bf3d f654 1dbe
000000e0: d785 8abe eed0 a8bd 19f7 33be 337d 04be
000000f0: c3ce d2bb fa56 2a3e 409d c53d c131 43bd
-0.13677746 0.07545161 -0.08857983 0.021946387 -0.030833287 -0.15532094 0.13558286 0.14761114
-0.15996215 0.027878346 -0.19691324 0.10936491 -0.015483656 0.0077695968 -0.07462136 0.10038083
-0.19054817 -0.011366834 0.20412934 0.045197923 0.07269835 0.1344566 -0.19540466 -0.11637756
0.20624945 -0.010363767 -0.023251744 -0.20692246 0.16040857 0.06458544 -0.073913865 -0.103783384
-0.016748825 0.18466978 -0.10974984 0.05565819 -0.03498614 -0.01381488 0.1001158 0.19965906
0.1089888 0.009546501 -0.032188267 0.16371198 -0.17373034 -0.038652197 -0.119328275 -0.007886668
0.08800389 0.11164922 -0.080537565 0.11433577 -0.04967792 -0.19105442 0.09343482 -0.15364441
-0.27055237 -0.08242975 -0.17574729 -0.12938385 -0.0064333393 0.16634741 0.09649134 -0.04765487

lin4.weight f4 [64, 64]
00000000: f65f 343e a8d1 1e3c 176b f93d 5611 9c3d
00000010: 30e2 fb3d dcbd 8c3d 48ca a53d a68b 50be
00000020: 898b bf3d 47d8 45bd 66fc b9bc eaaa c6bd
00000030: 1937 0ebc 2c43 433d 7778 313e 787d 853b
00000040: 7a62 afbc 5721 1fbe 9855 59be b4d6 203d
00000050: fb83 313d c4cd aabc c75a 10be 1d23 133e
00000060: a837 87bd 5888 1c3b f0b5 9c3d de92 8abd
00000070: 4f12 1b3d 8679 b03c a8e0 733d 99a8 813a
00000080: b543 173d deef 823d d395 c23d c054 303e
00000090: 38a6 8b3d 343f 90bc fbec 533e 3560 45bd
000000a0: d5bf 90bc ab37 6a3d 23aa aebc 1c94 f6bd
000000b0: fbe6 363e b490 83bd edb3 973d 6905 9b3d
000000c0: 74ef e1bc e5e2 0abe acd9 1e3e 3387 d53d
000000d0: a0a2 03be 3eb7 523e d143 27be b0a1 c13d
000000e0: 5fba b73d 2286 123e d256 313e 0b25 353e
000000f0: df47 13bd db13 95bc 2892 9c3d fbe7 eabd
00000100: 21c1 75bd 9c81 a5bc 3862 0abe a335 ecbc
00000110: abf8 65bd 35bd 75be 8e4a ca3a 0fe3 1e3d
00000120: e96d 1cbe e2f7 873d d031 f7bd 9d24 4a3e
00000130: 0a2a 9dbd 9161 d4bc 4361 42be 718b 043e
00000140: 26f6 d8bd 9b81 8f3d 3b4b ff3c 68c8 1f3e
00000150: 1575 fa3b 5a34 ae3d eac5 3abd 4359 a4bb
00000160: 0d27 373d b636 8a3f 8658 37be e3f6 1ebe
00000170: 9146 893d f4c1 0ebe 90eb 763d 0238 173b
00000180: 7a53 55be 0a75 1abb 52af 13bd 481a b53c
00000190: e668 fc3d ed26 8abd c878 91bd 113a 203e
000001a0: f4e0 b43c f137 f6bd 874a 4ebc d3cd 073e
000001b0: 3aae 00be fc02 17be ad40 f13c 2456 4cbe
000001c0: 1ccc dfbc 26cf 6fbc c76d 453d ac81 a1bd
000001d0: a934 f3be a8c5 47be 8a66 99bd 9d7e 35bd
000001e0: af6e 3fbe d489 e3bc 932c 9fbd e1d4 22bd
000001f0: 393e 08bd 8084 8f3b 11a5 3b3e a042 9a3d
00000200: e314 0dbe 0d57 a5bd 74bf 23bd 1b35 3cbe
00000210: f8a0 fdbd fa7d 94bc dad2 5abd 1033 043e
00000220: f1d9 7b3d 245f 70bd 4785 1fbe 8313 053e
00000230: d07e afbc 93b7 863c cc3b 4bbe 65d6 113e
00000240: 53a3 e13d 5f66 1f3e 9577 553e fdc4 db3b
00000250: 07d4 01bd 7463 c63d fe0a 0b3e 031f 07be
00000260: a3a0 0ebd 1597 a83d e0c9 9b3d f209 493e
00000270: cdaf 453e 2367 3e3c cb48 c63d 9ed7 933d
00000280: ad5a 47be 1969 b53d 61b9 773d 56bb 64bd
00000290: 2f52 503c a8d0 63bd 82a3 33ba fd27 633c
000002a0: 24a7 d2bd 41fe 3b3d 90ee 9bbd f27e 8abb
000002b0: 25ed eebd e383 38bd 5450 fbbd 2470 d53a
000002c0: 6a5d b03d 69e7 6c3e 755e e4bd 0040 9ebd
000002d0: a1a6 c33c d2aa 31be bc5e 3c3e ab4f 53be
000002e0: 89d5 d4bd fd43 b1bd 5c0b 0abe bd00 b1bd
000002f0: a05d b7bd 3234 713b f7f4 b5bc 40ac a53d
00000300: cd24 1b3e 198e dcbc 3af8 88bd 36c2 073e
00000310: b635 123d 27dc e23c 3653 c23c 2b7b 61be
00000320: 0cdb 6dbd be09 cb3c bd95 583e 5213 5dbe
00000330: 9d57 3cbc 2f31 433d 38db 233d cd30 b4bd
00000340: 45e7 35be b551 ffbd 1dba b4bd 2135 04bd
00000350: 0a0c d93b ac74 36be 7a51 87bd fe67 ccbc
00000360: 0beb cdbd 22c2 edbc 286d 32bd 46fa 9fbd
00000370: d79b 1dbc ebc5 de3b 8188 08be 7fb8 91ba
00000380: b52f 3c3d 3864 153d cc18 343e 4180 60bc
00000390: ade6 e13d 5a13 59bd 7ca2 2dba dbbf d7bd
000003a0: e9d6 08bd b2ed b8bd e0c9 bfbc 65fa 143c
000003b0: 19f7 043e 6e89 fbbd 53b1 89bc 96c7 423b
000003c0: f406 8bbc fa7c 68be 1ad0 39bd 7c48 91bd
000003d0: 1e4d 8dbc f488 613d 0740 aebc f39e 5d3e
000003e0: 9fd6 553d 6be9 063e 6d6c 1a3e 4a93 433e
000003f0: 1c24 8c3d b373 adbc ed95 e93b 89c9 4a3d
0.17614731 0.009693541 0.12178629 0.07620494 0.12299001 0.0687215 0.08095223 -0.20365772
0.09352786 -0.04830196 -0.02270336 -0.09700568 -0.0086801285 0.047671482 0.1733111 0.004073795
-0.021409262 -0.15540062 -0.21224058 0.039267257 0.043338757 -0.02085007 -0.14097129 0.14368863
-0.066024125 0.0023884978 0.07651889 -0.06766294 0.037859257 0.021542322 0.05954042 0.0009892165
0.036929805 0.06393407 0.09501233 0.1721983 0.06818813 -0.017608263 0.2069587 -0.048187453
-0.017669598 0.057181995 -0.021321362 -0.12039968 0.1786155 -0.06424084 0.07407365 0.07569391
-0.02758 -0.13563116 0.15512723 0.10426178 -0.12855005 0.20577714 -0.16334464 0.094546676
0.08971094 0.1430898 0.17318276 0.17689912 -0.035957213 -0.018197944 0.076450646 -0.11470028
-0.059998635 -0.020203404 -0.1351403 -0.02883417 -0.05614535 -0.23997958 0.0015433596 0.03879076
-0.15276302 0.06639077 -0.12070048 0.1974053 -0.07674034 -0.02592543 -0.18982415 0.12943818
-0.10593824 0.07007142 0.031163802 0.15603793 0.007643352 0.08506079 -0.0455989 -0.0050155236
0.044714976 1.0797946 -0.17904863 -0.15523867 0.067029126 -0.13941175 0.060283244 0.0023074155
-0.20832625 -0.0023568296 -0.03605587 0.022107258 0.12324695 -0.06745706 -0.07103115 0.1564715
0.022079922 -0.12022389 -0.012591011 0.1326211 -0.12566462 -0.14747232 0.029449785 -0.19954735
-0.027319007 -0.01463679 0.048200395 -0.07886061 -0.47501114 -0.19508994 -0.07490261 -0.0443102
-0.18694566 -0.027775683 -0.07772174 -0.0397538 -0.033262465 0.004379809 0.18324687 0.07532239
-0.13777499 -0.08073244 -0.039977506 -0.18379633 -0.12384218 -0.018126477 -0.05342374 0.12910104
0.061487142 -0.058684483 -0.15578185 0.12995724 -0.021422774 0.016444957 -0.1984703 0.14241941
0.1101748 0.15566395 0.20846398 0.0067068324 -0.031696346 0.09686938 0.13578412 -0.13195424
-0.034821164 0.082319416 0.07606864 0.196327 0.19305344 0.011621269 0.09681853 0.0721886
-0.19468184 0.088579364 0.060479525 -0.05584272 0.012714907 -0.055618912 -0.00068526727 0.013864514
-0.10285786 0.045896772 -0.076138616 -0.004226559 -0.116663255 -0.045047652 -0.12271181 0.0016284031
0.08611567 0.23135151 -0.11150829 -0.07727051 0.023883166 -0.17350319 0.18395513 -0.2063586
-0.10392291 -0.08655546 -0.13480896 -0.08642719 -0.089534044 0.0036804792 -0.022211535 0.08089495
0.15150757 -0.026923226 -0.066879705 0.1325768 0.035695754 0.027692867 0.023721319 -0.22019641
-0.058070228 0.024784919 0.2115087 -0.21589401 -0.011495498 0.047654327 0.040003985 -0.087983705
-0.17764004 -0.12466756 -0.08824561 -0.03227723 0.0066237496 -0.17817944 -0.06607337 -0.024951931
-0.100545965 -0.029023234 -0.04356113 -0.07811408 -0.009619675 0.006798496 -0.13333322 -0.0011117606
0.045943934 0.03647253 0.17587584 -0.013702453 0.11030326 -0.05299697 -0.00066236383 -0.105346404
-0.03340808 -0.09029712 -0.023411691 0.009092902 0.12984885 -0.12282072 -0.016808188 0.0029721013
-0.016971089 -0.22703925 -0.045364477 -0.070939034 -0.017248686 0.05506225 -0.021270765 0.21642666
0.05220663 0.1317498 0.15080424 0.19099155 0.06842825 -0.021173334 0.0071284682 0.049508605

lin4.bias f4 [64]
00000000: 3ca0 de3b 2ed2 373e 13eb e53d be69 44be
00000010: 9c7b 22be 9bec b6bd 3c28 a1bd 4acf 303e
00000020: 220e 38be 3675 143e 8336 c03d 0d3d cf3b
00000030: 4414 1b3d e396 8cbd 01b4 32be 3388 60bd
00000040: f36a 7a3e c53c 5ebd a235 d93d 00c7 363e
00000050: 43ba 1bbe 1c8f 4e3e abeb 4bbe c737 053e
00000060: 0c88 9abc 0477 c83c b8bf cc3d 654c 34be
00000070: 1fc6 ce3d 11c4 493c 2654 743e c9a7 21bd
00000080: df45 97bc b0c5 21be 32ab 0a3e ce53 863d
00000090: e071 773d 2aaa cdbc 8efc 053d f0b7 113e
000000a0: fee5 e5bc 1b4d 373e cd18 5abc b123 123e
000000b0: a220 debd 3022 61bd 1d3b 1a3d 563e 5bbe
000000c0: d2cb 4abd 375a f03d e7d2 b23d 790f 2fbe
000000d0: 701d aabd 2493 ebbc c315 033e 8e19 883d
000000e0: 833e 663e b9a5 f43c 1fed b9bd 2e19 f9bc
000000f0: 3b85 20be 6e0a 643b 28e8 1a3c 068f 513e
0.006794004 0.17951271 0.112264775 -0.19180962 -0.15867466 -0.08931848 -0.07869002 0.17266575
-0.17974141 0.14497837 0.09385397 0.0063244165 0.037861124 -0.06864717 -0.17451479 -0.05481739
0.2445486 -0.054257173 0.10605933 0.1784935 -0.15207772 0.2017178 -0.19914119 0.13009559
-0.0188637 0.024470814 0.09997505 -0.17607267 0.10096382 0.012314812 0.23860225 -0.039466653
-0.018465934 -0.15798068 0.13541868 0.06558953 0.060411334 -0.025105555 0.032711558 0.14230323
-0.02806377 0.17900507 -0.013311577 0.14271428 -0.10846068 -0.054964244 0.03765403 -0.21410498
-0.049510784 0.11735957 0.08731633 -0.17095746 -0.08306396 -0.028756686 0.1280127 0.06645499
0.22484784 0.029864179 -0.090784304 -0.030407514 -0.15675823 0.0034796256 0.009454764 0.20464715

lin5.weight f4 [1, 64]
00000000: 9493 ba3d dead 2dbe 24c5 44be d397 2e3e
00000010: 9954 f83d d009 27bf 2cc0 433e 0477 28be
00000020: 0511 d43d 56b8 ffbe 1709 7bbe 6ac6 abbd
00000030: 95c6 96bd d604 033f 27bd abbd 1901 39bc
00000040: d288 fdbe f847 373e ab32 1abb 5ea1 a2bd
00000050: 2a88 293e 0d1f 1abe f86a 273e 32e8 83be
00000060: d9ce aabe 8386 5f3f da9f 09be 23eb 433e
00000070: 7320 75be 5e4c 003e 8520 e9be 9e96 9d3e
00000080: 34d7 cabe 37bc 1e3e 5fdb 423d 63e0 a5be
00000090: c70e bdbe 4f55 1c3e 4f4e 4dbe efe2 383e
000000a0: b4c6 74bd 433b 63be 7f42 973d 153b 28be
000000b0: d7bb e63d c181 8ebe d27f 9fbd 34eb db3d
000000c0: 99f8 adbc 2b23 09be 5bfd 6ebe 9931 9b3e
000000d0: 7776 223e a060 9ebe d895 cbbd a78a 8cbe
000000e0: ddef 9abe f424 4a3d cb8b 51bf dc0e ddbd
000000f0: cd6a 80bd 01b4 9abc 1849 233e 36e5 08be
0.091101795 -0.16960856 -0.19215828 0.17050104 0.12125511 -0.6524935 0.19116277 -0.16451651
0.10354809 -0.49945325 -0.24515186 -0.08387454 -0.07362095 0.51179254 -0.08385687 -0.011291766
-0.49518448 0.17898548 -0.0023528736 -0.079409346 0.16555849 -0.15050907 0.16349399 -0.25763088
-0.33360937 0.87314624 -0.13439885 0.19132666 -0.2393816 0.12529132 -0.45532623 0.30778974
-0.39617312 0.15501486 0.04757249 -0.32397756 -0.36925337 0.15266918 -0.20049404 0.18055318
-0.05975981 -0.22190575 0.0738573 -0.16428788 0.11266296 -0.2783337 -0.07788052 0.10738221
-0.021236705 -0.13392322 -0.23338835 0.30311278 0.15865503 -0.30933094 -0.0994069 -0.27449533
-0.30261126 0.049351647 -0.8185393 -0.1079385 -0.06270371 -0.01888466 0.15945852 -0.13368687

exp_avg f4 [64, 2]
00000000: ec3b 09b9 388d dcb9 9a12 3239 8f53 4b39
00000010: af61 2639 0858 5f3a 7a0d 5bba 25ec 24b9
00000020: 3ebf 5bb9 b520 81b9 73a4 7939 792b 853a
00000030: 0fbe 1b39 8038 fa39 d1c5 6ab9 4140 a339
00000040: 8bb5 07ba 3c14 de39 003d 9c3a 82ba 9139
00000050: db07 9db9 27c7 1fb9 a9cf 5aba bad0 dfba
00000060: c3e7 9cb9 4ef1 05b9 dc97 2c3a 0c19 3fb8
00000070: 6f91 623a e634 1f39 f297 c5b8 f75a 94b9
00000080: d400 33b9 cecb ff39 1732 4339 0619 5c3a
00000090: 1bc8 90ba 182f 88ba df84 d638 c261 273a
000000a0: 4c90 063a 46b6 49b9 28cf f439 a076 dcb9
000000b0: 9ac7 f1b8 cb41 9ab8 6286 883a 1fe2 4c39
000000c0: 3bfd 73ba 7007 f9b9 4464 87b9 bcdf 2a3a
000000d0: 5bf8 be38 74b0 de39 b620 163a 634a b83a
000000e0: 61d9 1eba 5842 6038 530d 5aba 684f 89b8
000000f0: 7f20 42b9 cfd4 9039 98a6 8539 bb6b 0339
00000100: 4994 14ba 3849 2b37 6869 9139 70ac 58b9
00000110: c895 1337 ef98 2639 0d63 fe39 9901 0e3a
00000120: a087 2db9 4bce 66b9 e89f 2eb8 74ec 433a
00000130: 3126 c839 62a4 c838 7467 8939 c9b3 4d39
00000140: e9ba 4e3a 7ebd 1639 02c4 1ab9 250a 28ba
00000150: 97ca 5b3a d11e 5539 5529 efb9 8c7a acb9
00000160: 63b2 143a 8e8a e7b8 1bbf 3aba ccb1 2aba
00000170: 1b56 2b3a bac9 1c38 cbd6 5f3a a46b 7d3a
00000180: 6ab6 d436 9e9d 203a db3c 12ba fcd2 9b37
00000190: 8e4d a2b8 42b4 bcb8 6d68 5a3a 4166 8f3a
000001a0: 0e6b 153a d9f7 8db8 98b5 0138 9ee7 4339
000001b0: 1670 75b9 2a18 23b9 34fa f938 9e10 9e39
000001c0: 54f8 253a 04c3 8337 eded 2d39 f225 c639
000001d0: 86a7 bf39 2470 efb9 bb51 213a 426e c63a
000001e0: 951a c039 872c 3839 fcc6 52ba e395 02ba
000001f0: 4d29 5ab9 8c86 0039 54f0 3a39 184d 1a3a
-0.00013087661 -0.00042066886 0.00016982332 0.00019390717 0.00015867384 0.00085198926 -0.0008356195 -0.0001572823
-0.00020956711 -0.00024629166 0.00023807753 0.0010160051 0.00014852754 0.00047725812 -0.00022389671 0.00031137656
-0.00051768933 0.00042358215 0.0011920035 0.00027795514 -0.00029951226 -0.00015237612 -0.0008346984 -0.0017075755
-0.00029927315 -0.00012773761 0.0006583908 -4.5561275e-05 0.0008642887 0.00015183128 -9.421994e-05 -0.00028296534
-0.00017071079 0.00048789236 0.00018615309 0.0008396063 -0.0011045964 -0.0010390012 0.00010229064 0.00063851115
0.0005133196 -0.00019236756 0.0004669365 -0.00042050052 -0.00011528954 -7.355547e-05 0.0010416026 0.00019539193
-0.00093074486 -0.00047498522 -0.0002582391 0.00065183244 9.106166e-05 0.00042474607 0.000572692 0.0014060255
-0.00060596137 5.346755e-05 -0.00083180255 -6.5474596e-05 -0.00018513387 0.00027624375 0.0002549186 0.00012533266
-0.0005667848 1.0209442e-05 0.0002773509 -0.00020663603 8.796756e-06 0.00015887966 0.00048520454 0.0005417108
-0.0001654909 -0.0002201136 -4.1633757e-05 0.0007473894 0.00038175427 9.567362e-05 0.00026207755 0.00019617299
0.0007886128 0.00014375706 -0.00014759603 -0.0006410203 0.0008384375 0.00020324743 -0.00045616427 -0.000328977
0.00056723336 -0.00011040746 -0.0007123814 -0.0006511479 0.0006535963 3.738117e-05 0.00085387815 0.0009667224
6.339328e-06 0.00061270024 -0.0005578526 1.8575687e-05 -7.739208e-05 -8.998114e-05 0.00083316007 0.0010940508
0.00056998513 -6.769569e-05 3.092512e-05 0.00018682933 -0.00023406776 -0.00015553893 0.00011919849 0.0003014849
0.0006331254 1.5707228e-05 0.000165872 0.00037793774 0.00036555174 -0.00045669184 0.00061538414 0.001513906
0.000366409 0.00017564195 -0.0008040515 -0.00049814413 -0.00020805486 0.00012257154 0.00017827871 0.00058861217

exp_avg_sq f4 [64, 2]
00000000: 6fed 463a 4bc2 9738 63c6 db39 4534 9f38
00000010: e9a6 613a d605 f939 9ab5 e239 c105 f838
00000020: 7141 143a 4ffb 8239 0297 3339 d982 b03a
00000030: 0c23 6d3a 24b6 c938 377d 3838 4a63 3c3a
00000040: 4ccd 1939 90be 2c3b 16f6 8f3a 03ff e638
00000050: 5468 1838 4505 cd37 8a7b 2b39 375b 2c3b
00000060: bcc8 a139 b67a 0d39 dcb0 8f38 52b5 853a
00000070: 6cba f539 35d3 9a38 2951 a339 3933 8638
00000080: d00c 4537 1b3a 833a cc0c 2d38 653c d03a
00000090: 5f61 333a 1307 823a b3ad 9d39 b837 cb39
000000a0: 4c1a 9938 c56a 1a3a 8e72 fd38 abe2 233b
000000b0: c450 1739 74f2 8338 04b9 4c3a fefb 7a38
000000c0: 891f 153a e4fc 4439 fad7 e738 9691 bd3a
000000d0: db46 3e39 3c6a 1039 faae 0b39 999b 1c3b
000000e0: cd31 5e38 b035 3e3a e747 b539 740d e039
000000f0: 15c4 6738 1965 163a da88 5b39 584f 3339
00000100: 2a3e bd38 7076 9f39 a7a1 2737 82c7 b439
00000110: 9bd5 3e39 de74 be37 3064 b038 cf97 9a39
00000120: b7bc 9939 64d2 d338 72bc 8639 07fb 883a
00000130: 25de 7539 f015 053a aa13 bd39 c564 9639
00000140: a03d c439 8cca 9538 2ee8 833a 3dd3 4f39
00000150: bac7 f939 daf8 4538 f804 5839 2415 5539
00000160: 0dc6 3938 8ad4 513a fc52 8d39 c795 dc39
00000170: d086 eb38 7af5 f739 28ea c139 d76c 6a3a
00000180: 5cd0 9737 4b2a 903a e3f7 2538 554d 023a
00000190: ebff 1838 d562 0837 2f2e 9e39 dc98 923a
000001a0: 5ae7 de39 6a39 a538 6987 8039 d6a8 e137
000001b0: 8972 b139 e8f4 7c39 39bb 2d3a 9642 c038
000001c0: 1eaf d738 b152 033a c009 503a a18d f538
000001d0: adfa 9c37 fbbe b23a cd2d 2439 6c2c 3c3b
000001e0: 91cf d739 45cc 0b3a 25da 153a be23 ac39
000001f0: 7b9b 5238 7bdf cb39 4aec b937 4d9d 393a
0.0007588481 7.236431e-05 0.00041918745 7.591447e-05 0.00086079404 0.0004749733 0.00043241383 0.00011826633
0.00056555035 0.00024982772 0.00017127025 0.001346673 0.0009046055 9.618353e-05 4.3985634e-05 0.0007186426
0.00014667696 0.0026358701 0.0010983374 0.00011014754 3.6336787e-05 2.4440358e-05 0.00016353853 0.0026299485
0.00030857872 0.00013492521 6.851714e-05 0.0010201132 0.00046868937 7.3826326e-05 0.00031150252 6.399159e-05
1.1745098e-05 0.0010011824 4.1258332e-05 0.001588714 0.00068428175 0.0009920321 0.0003007479 0.0003876069
7.300507e-05 0.00058905437 0.000120853176 0.002500693 0.0001443057 6.291727e-05 0.0007809552 5.983933e-05
0.0005688598 0.00018786226 0.00011055167 0.0014462944 0.00018146208 0.00013772486 0.00013321257 0.0023896454
5.2975305e-05 0.0007255925 0.00034576582 0.00042734633 5.5257307e-05 0.00057371106 0.00020936449 0.00017100328
9.023801e-05 0.00030415086 9.991613e-06 0.0003448092 0.00018199386 2.2704186e-05 8.410995e-05 0.00029486275
0.00029323038 0.00010100452 0.00025698874 0.0010450789 0.00023447776 0.00050768163 0.0003606354 0.0002868531
0.00037429947 7.142601e-05 0.0010063702 0.00019819751 0.0004764179 4.720022e-05 0.00020601216 0.00020321138
4.4291886e-05 0.0008004388 0.00026955444 0.00042073263 0.00011230784 0.00047294406 0.0003698629 0.000894261
1.8097628e-05 0.0010998932 3.9569928e-05 0.000497063 3.6477966e-05 8.129243e-06 0.00030170518 0.0011184472
0.0004251551 7.878507e-05 0.0002451495 2.690071e-05 0.00033845406 0.00024123827 0.00066273246 9.167676e-05
0.00010284617 0.00050095754 0.0007936023 0.00011708891 1.871338e-05 0.0013637239 0.00015657321 0.0028713
0.00041162645 0.0005332868 0.0005716405 0.00032833026 5.0212704e-05 0.00038885683 2.216375e-05 0.00070806296

exp_avg f4 [64]
00000000: 973f a739 1709 4b38 a1c0 8cba 3a56 9a3a
00000010: 45b1 07b9 7c47 feba 78df c0b9 6996 2bba
00000020: 90e8 6eba fbe1 eeba b316 133a 9610 6d3b
00000030: b5ac 4e3a 64e5 c5b8 af35 a7ba 2e0f 4139
00000040: 121e 78ba be26 ffba fb8a 353b 44a6 74ba
00000050: 5468 84b8 e9cf 903a 7640 f339 8317 ceba
00000060: 1378 f03a 1c99 81ba 55c4 18ba 6a13 40bb
00000070: ca8f 4639 c165 703a ff28 24ba a2c4 0939
00000080: 7043 dc39 cc64 7a39 04b4 f6b8 e139 b4ba
00000090: 04d2 6d38 b9be a1ba a7ee fa38 c08e c136
000000a0: 4c58 90ba 723f 203a ed0c afba a00c 973a
000000b0: b056 83b7 e47b f03a 21d6 0cba ac0b 22bb
000000c0: d4a5 aaba d90b 5b39 1478 2639 ea7b 27bb
000000d0: a58f 18ba f868 42b9 0587 02b9 461c 86b8
000000e0: 5cad 06ba 31a7 15b9 7179 543a 8768 53bb
000000f0: 0db8 3139 409d e93a 3c98 adb9 d405 adba
0.000319001 4.8407437e-05 -0.001073856 0.0011774965 -0.00012940641 -0.0019399966 -0.0003678759 -0.0006545545
-0.0009113634 -0.0018225306 0.00056109874 0.0036173216 0.0007884012 -9.436419e-05 -0.0012757088 0.00018411569
-0.000946493 -0.0019466502 0.0027701247 -0.0009332637 -6.313683e-05 0.001104829 0.000463966 -0.001572356
0.0018346332 -0.0009887549 -0.00058275956 -0.0029308447 0.00018936317 0.0009170436 -0.00062622124 0.0001313859
0.00042011915 0.00023879408 -0.000117637246 -0.0013750159 5.6700796e-05 -0.0012340165 0.000119653814 5.7684665e-06
-0.0011012643 0.000611297 -0.0013355293 0.0011524148 -1.5656784e-05 0.0018347469 -0.0005372484 -0.0024726195
-0.0013019391 0.00020889881 0.00015875726 -0.0025556036 -0.00058197445 -0.00018540386 -0.00012448065 -6.394884e-05
-0.0005137527 -0.00014272031 0.00081052544 -0.0032258348 0.000169486 0.0017823353 -0.00033110555 -0.001320059

exp_avg_sq f4 [64]
00000000: 9cfa 2f3b 0810 c93a 806f 983b 5350 1f3b
00000010: 442f 2a3b 503a 9f3b 59d0 413b f79e 0f3a
00000020: 79de 353b d223 853b 419b 9d39 5142 2c3c
00000030: 33a7 1039 3f01 653b 6b48 0b3b c6e0 d73a
00000040: f8b1 f639 6b19 2a3b 57f3 b63b 4fd4 113b
00000050: 6a51 983a 1190 123b 514c db38 84c3 233b
00000060: a772 3a3b 01ca 423a 3d6a a83a ffeb 173c
00000070: 34b6 1c3b 319c 3d3b 4f6b fa39 c29a ad3a
00000080: 77e9 cd3a 6cfc d839 7c5f e939 b952 cb3a
00000090: bf29 da3a 8a88 0e3b fc75 293b 703e 2f3b
000000a0: 84a2 f63a 6ad0 713b 8a45 f73a 7ef0 3a3a
000000b0: eaad 113b 086f 253b c0cc 203b 3629 9a3b
000000c0: 0f82 743a 73a9 fa3a ea58 5339 d0d4 a43b
000000d0: ae0d ff39 6ffa 3a3a 1063 003b ed63 1e3b
000000e0: a233 193b 6b3a 543b 1b88 5e3a 38da 363c
000000f0: 4b26 513b a4c0 183b d48e 343a cd89 b83a
0.0026852256 0.0015339861 0.0046519637 0.0024309352 0.0025968114 0.0048592463 0.0029573648 0.00054787047
0.0027751012 0.004063108 0.00030061047 0.010513858 0.00013795197 0.003494337 0.0021252881 0.0016470186
0.00047053373 0.0025955092 0.0055832076 0.002225179 0.0011620943 0.0022363702 0.00010456949 0.0024988363
0.0028449686 0.00074306136 0.0012849044 0.009272574 0.0023912312 0.0028932209 0.00047763667 0.0013244974
0.0015709837 0.000413868 0.00044512365 0.0015512324 0.0016644521 0.0021748864 0.0025857678 0.0026740097
0.0018816744 0.0036897906 0.0018865329 0.0007131173 0.0022228905 0.0025243182 0.0024536103 0.0047046198
0.00093272416 0.0019123986 0.00020155651 0.005030252 0.00048647582 0.00071326544 0.0019590296 0.0024168447
0.0023376723 0.0032383453 0.0008488909 0.011160426 0.0031913694 0.0023308182 0.0006887738 0.0014079154

exp_avg f4 [64, 64]
00000000: 662d c0b7 1fa2 df37 c3e2 ba37 d005 b4b7
00000010: b8f9 04b8 ee10 8a37 a162 ba37 ce97 c1b6
00000020: 804b 36b7 97cc c837 592c 08b8 5ca0 17b8
00000030: eae9 c9b6 c103 e437 eec8 cb37 bb8d cab7
00000040: f73a 82b5 bb9e 7037 3ccf 28b8 2b71 5737
00000050: 6569 3637 5a0a 3037 6bf1 5bb6 8057 0038
00000060: 4c94 fab7 bcdd 1735 a286 5237 5a08 0338
00000070: 63f0 8eb7 bc15 d4b7 a7c0 a3b6 8c71 d537
00000080: f091 96b7 d433 3437 39d4 5437 ec26 1438
00000090: 1c10 9cb7 32bd 0037 30c6 f037 7141 cc37
000000a0: ee6b a437 3216 b3b7 6ebd ee37 74ac 7eb7
000000b0: fe71 a637 e81a fab7 c29e 9e37 6ff8 0a38
000000c0: 91ca 9336 024a b7b7 7ecd c6b7 52ac 2538
000000d0: 123d 2537 82a8 4337 74be 03b8 4182 d837
000000e0: 2a62 c537 7c9d ce37 30f0 6836 7ec0 ed37
000000f0: ed3e 0d38 c89d a5b7 88d0 0cb7 c8af 5b37
00000100: 4e0a 03b9 8d37 1239 d885 ad38 a47f efb8
00000110: 0843 3cb9 5a31 b0b7 19ed 0839 e899 c0b8
00000120: ca01 f7b8 62f9 ed38 c465 fbb7 c04c 9037
00000130: a5ae 0238 ffe8 1f39 ec59 e638 fcee 18b9
00000140: 2a6c 9db8 eaab 82b8 e4dc 07b8 32ec 8736
00000150: d89f ba38 943d f338 150e ad37 c67d 0a39
00000160: 165a 6fb8 4a6e 76b8 221e a537 9a53 cbb7
00000170: 85dd 01b9 6326 2ab9 6094 9bb8 ee02 1539
00000180: 1ad1 e4b8 7acb c238 d25a be37 14be 3637
00000190: d792 e6b8 b66b ebb7 2ca0 2739 6bad 1639
000001a0: b236 c038 6274 ffb8 7e64 dc38 1461 fa36
000001b0: d349 0539 9a72 a3b7 bf51 0639 482b 4137
000001c0: 192c b4b8 bf43 13b9 14fd bbb7 c407 0237
000001d0: a0ae 4f38 00ad d937 6bec 2fb9 cdd3 2639
000001e0: b276 1f39 4e72 1039 cb56 a738 4e25 f5b7
000001f0: cdd7 3539 3af3 c3b7 a630 e1b8 9e38 32b8
00000200: 1450 9e36 4f26 ddb7 1420 2238 0701 c6b8
00000210: 80da 4938 8a47 3e38 0e52 3637 f94d ee37
00000220: 8789 0f38 f836 d838 ec2d dcb8 b910 dfb8
00000230: c082 84b8 12b5 9037 5e47 d838 aa22 2638
00000240: 630c 0838 9f92 9438 ecd5 fbb8 34f4 4b37
00000250: 4db9 d237 25fa 02b8 1e72 22b8 c25d f138
00000260: df3d f2b8 248c 5137 4088 64b5 4774 c238
00000270: ac2d 07b8 7a2e b8b8 91fe bb37 d6dd 19b8
00000280: 902c 75b8 40b7 34b4 6247 d336 6116 e638
00000290: 71f6 3238 ba25 9937 6712 4bb8 f0f0 57b8
000002a0: 6d28 be38 6070 ccb7 4496 eb38 9a81 b0b8
000002b0: b256 6737 7455 ecb8 aa83 8938 1cf8 f338
000002c0: 7c58 6738 85ab 1eb8 f731 6db8 af63 f538
000002d0: 26cf 7d38 20b6 b4b5 d663 4e38 e84f f1b7
000002e0: 9a78 8538 dc90 dab7 0667 bbb7 8d5c b938
000002f0: 2587 60b8 babc cbb8 211d 5038 6804 7d38
00000300: 1ba8 15b9 1110 1e39 3f80 f138 a34a 86b8
00000310: c79f 3eb9 1915 9b37 4374 1a39 b62b a3b8
00000320: f6aa ddb8 507e 8338 4083 cbb7 e3a0 f0b6
00000330: 181a 2e38 910f 0e39 90a7 7f38 241e 24b9
00000340: ec51 77b8 9135 17b8 1a46 61b7 0be2 2838
00000350: 948c 6a38 6265 d638 ad6d ee37 b764 a038
00000360: efea bdb7 403c feb7 9407 5f38 9666 8d37
00000370: 372b b8b8 d0bf e9b8 166d 86b8 c1a3 1b39
00000380: 1a44 92b8 8247 9a38 1d38 4d38 566f 5737
00000390: 367a 02b9 4a82 6336 322c 2b39 f432 1f39
000003a0: fae1 4538 2c78 14b9 2bb9 6f38 08a4 a637
000003b0: 5a35 df38 b907 aeb5 ebcd aa38 8694 81b6
000003c0: 5f0b 85b8 ba9f e1b8 9610 4bb8 092e a636
000003d0: fa00 7037 f415 5938 dfce 34b9 318a 2e39
000003e0: 0ab6 e638 370c 1e39 402a 7f38 4348 1a37
000003f0: f1a6 3939 04c6 1b35 4d84 dab8 e358 b6b7
-2.2909324e-05 2.6659165e-05 2.2278522e-05 -2.1460379e-05 -3.170382e-05 1.6458765e-05 2.2218856e-05 -5.7695206e-06
-1.0865624e-05 2.3937127e-05 -3.246623e-05 -3.615055e-05 -6.017498e-06 2.7181466e-05 2.4293051e-05 -2.4146275e-05
-9.702916e-07 1.4342072e-05 -4.0247323e-05 1.2841348e-05 1.0872584e-05 1.0492828e-05 -3.2774067e-06 3.059907e-05
-2.9871379e-05 5.657455e-07 1.2548322e-05 3.1240612e-05 -1.7039658e-05 -2.528249e-05 -4.8802062e-06 2.5444453e-05
-1.794935e-05 1.0740903e-05 1.2685597e-05 3.53222e-05 -1.860415e-05 7.673445e-06 2.8702518e-05 2.4349169e-05
1.9600582e-05 -2.1348798e-05 2.8460021e-05 -1.5179732e-05 1.9841824e-05 -2.9814852e-05 1.8908995e-05 3.3133136e-05
4.404523e-06 -2.1849763e-05 -2.3699129e-05 3.949955e-05 9.848985e-06 1.16621395e-05 -3.1410207e-05 2.580986e-05
2.3529941e-05 2.4630448e-05 3.4710501e-06 2.8342238e-05 3.3675624e-05 -1.9743005e-05 -8.393203e-06 1.30943445e-05
-0.00012496972 0.0001394434 8.274213e-05 -0.00011420183 -0.00017954048 -2.1003816e-05 0.00013058296 -9.183941e-05
-0.00011778211 0.00011347492 -2.996892e-05 1.7201877e-05 3.1157066e-05 0.0001525022 0.00010984004 -0.00014584878
-7.5064905e-05 -6.2309045e-05 -3.239223e-05 4.0508103e-06 8.898944e-05 0.00011598613 2.0629765e-05 0.0001320756
-5.706594e-05 -5.8753685e-05 1.9683564e-05 -2.4238416e-05 -0.00012384921 -0.00016226764 -7.418613e-05 0.00014210839
-0.000109108354 9.288541e-05 2.2692057e-05 1.0892301e-05 -0.00010994606 -2.806434e-05 0.0001598603 0.00014369718
9.165461e-05 -0.000121810255 0.000105091356 7.461882e-06 0.0001271137 -1.948448e-05 0.00012809689 1.1513774e-05
-8.591283e-05 -0.0001404425 -2.2409986e-05 7.750412e-06 4.9515278e-05 2.5948975e-05 -0.00016777373 0.00015909896
0.00015207639 0.00013775492 7.979347e-05 -2.9223647e-05 0.00017341897 -2.3359073e-05 -0.000107378975 -4.2491236e-05
4.7180893e-06 -2.6363092e-05 3.8653685e-05 -9.441567e-05 4.812563e-05 4.5366156e-05 1.086715e-05 2.840812e-05
3.422194e-05 0.00010309921 -0.00010498971 -0.000106365835 -6.3186046e-05 1.7250455e-05 0.00010312976 3.9609768e-05
3.2436463e-05 7.0845e-05 -0.00012008459 1.2156601e-05 2.5120238e-05 -3.122738e-05 -3.873009e-05 0.00011509239
-0.000115509836 1.249e-05 -8.513489e-07 9.272299e-05 -3.2229043e-05 -8.782461e-05 2.2410679e-05 -3.6684643e-05
-5.8454054e-05 -1.6830472e-07 6.2966e-06 0.00010971423 4.2668024e-05 1.825659e-05 -4.841611e-05 -5.1484385e-05
9.067436e-05 -2.4371024e-05 0.000112336624 -8.416474e-05 1.3788858e-05 -0.00011269274 6.5571934e-05 0.00011633357
5.51571e-05 -3.7829876e-05 -5.6551737e-05 0.00011701078 6.0512823e-05 -1.346405e-06 4.9207207e-05 -2.8766648e-05
6.364398e-05 -2.605508e-05 -2.2340111e-05 8.838726e-05 -5.3531625e-05 -9.7149474e-05 4.9618193e-05 6.0324004e-05
-0.00014272371 0.0001507404 0.00011515663 -6.40352e-05 -0.00018179334 1.8487264e-05 0.00014729895 -7.7805875e-05
-0.00010569945 6.270094e-05 -2.4260604e-05 -7.171287e-06 4.1509134e-05 0.00013547974 6.0952792e-05 -0.00015651487
-5.8965685e-05 -3.6051093e-05 -1.3427367e-05 4.026484e-05 5.592087e-05 0.00010223199 2.8422883e-05 7.648154e-05
-2.2639955e-05 -3.0307216e-05 5.31744e-05 1.685628e-05 -8.781853e-05 -0.00011146034 -6.409937e-05 0.00014842955
-6.9745074e-05 7.3566116e-05 4.892807e-05 1.2840921e-05 -0.00012443293 3.3901474e-06 0.00016324295 0.00015182403
4.7178917e-05 -0.00014159147 5.715449e-05 1.9865125e-05 0.00010643406 -1.2966258e-06 8.144587e-05 -3.86179e-06
-6.344052e-05 -0.000107585875 -4.841442e-05 4.9525447e-06 1.4305342e-05 5.1757277e-05 -0.00017243203 0.00016645413
0.00011001162 0.00015072605 6.0836086e-05 9.19594e-06 0.00017705165 5.803015e-07 -0.00010419693 -2.1737482e-05
