model_checkpoints/fourier_relu/checkpoints/epoch=1999-step=2000.ckpt (torch, 173854 bytes, 30 tensors)

B f4 [5, 2]
0	0xbf7cfa49	-0.98819405
1	0x40173ce3	2.3630912
2	0x3f666f5a	0.9001366
3	0xbfb180ad	-1.3867394
4	0xbfbfe55c	-1.499187
5	0x3f3f0e40	0.7463112
6	0x3f619703	0.8812105
7	0xbeb2fdac	-0.3495916
8	0x3df440e5	0.1192644
9	0x3ed5e536	0.41776437

lin1.weight f4 [64, 10]
0	0xbd0e53bd	-0.034747828
1	0xbecce207	-0.40016195
2	0xbeef4259	-0.46730307
3	0x3e12a138	0.14319313
4	0xbd09ed74	-0.03367372
5	0xbe2edef5	-0.17077239
6	0x3e8f4d05	0.2798845
7	0xbe71ab0e	-0.23600408
8	0xbe8a732c	-0.27040994
9	0x3ed2e89a	0.41193086
10	0x3e8dd8b8	0.27704406
11	0xbeb2b3a9	-0.34902695
12	0x3e53462f	0.20632242
13	0xbeb3aa9d	-0.35091105
14	0x3ec419ee	0.38301033
15	0x3c851aca	0.016248126
16	0xbe9315a9	-0.28727463
17	0xbd2fa0ba	-0.04287789
18	0xbe5e62cd	-0.21717377
19	0xbf3d7f4c	-0.74022365
20	0xbdbbc0b8	-0.091676176
21	0x3ed77f13	0.42089137
22	0xbeedaa1a	-0.4641884
23	0x3e58e242	0.2118006
24	0x3e6f175c	0.23348755
25	0xbedc0779	-0.4297445
26	0x3d8881e1	0.066653974
27	0x3eb9ba02	0.36274725
28	0xbe8f4664	-0.2798339
29	0xbf045162	-0.5168668
30	0xbed6950d	-0.41910592
31	0x3e8ee33b	0.27907738
32	0x3cd8860d	0.026431108
33	0x3c9f1903	0.019421106
34	0xbe4c7bde	-0.19969127
35	0xbe18f209	-0.14936079
36	0x3e99df52	0.30053192
37	0x3eee7ced	0.46579686
38	0x3d7b3b4a	0.06133584
39	0xbf25dbf0	-0.64788723
40	0x3e67e046	0.22644147
41	0xbf0e8fda	-0.5568825
42	0x3e10807a	0.1411151
43	0xbe8c876b	-0.27447066
44	0x3df4f160	0.11960101
45	0x3c07d33e	0.00829011
46	0x3ede5e74	0.43431437
47	0x3e2df185	0.16986664
48	0x3dc1d592	0.094645634
49	0xbf2ffd0e	-0.68745506
50	0xbde03a1a	-0.10948582
51	0x3e2eedd1	0.17082907
52	0x3e2bda03	0.16782384
53	0x3c466aa4	0.012110386
54	0xbe365c35	-0.17808612
55	0xbe0f6b6c	-0.14005822
56	0x3c3c1ac9	0.011480995
57	0xbe2064c2	-0.15663436
58	0x3f3f751f	0.7478809
59	0x3e64e93e	0.223546
60	0x3e291e44	0.16515452
61	0xbddf5970	-0.10905731
62	0x3de1ba01	0.110218056
63	0xbd098811	-0.03357703
64	0x3e644b2a	0.22294298
65	0x3d7d4fd0	0.061843693
66	0xbf0a14ec	-0.53938174
67	0xbeea0a66	-0.45711058
68	0x3da2dbc7	0.079520755
69	0xbd3f15ac	-0.046651527
70	0x3ed45bb3	0.4147621
71	0xbdcd054f	-0.10010778
72	0xbe29ffae	-0.1660144
73	0xbe46e1e0	-0.19422102
74	0x3dac72cb	0.084203325
75	0x3eaec734	0.34136355
76	0x3ec543fd	0.38528433
77	0xbe6888c8	-0.22708428
78	0x3edf975e	0.43670171
79	0xbe81ce32	-0.25352627
80	0xbe022bd5	-0.12712033
81	0xbd7f6bbb	-0.0623586
82	0x3d81c74b	0.0633684
83	0xbc8e64d5	-0.017382065
84	0xbd344abe	-0.044016592
85	0x3eda8a13	0.42683467
86	0xbefcd940	-0.493845
87	0xbeb09c8c	-0.34494436
88	0xbec81529	-0.39078644
89	0xbee728cf	-0.45148322
90	0xbe5a9e93	-0.21349554
91	0x3e7407e2	0.23831132
92	0x3ec2d7ff	0.38055417
93	0x3f229a6a	0.6351687
94	0x3eb0757a	0.34464628
95	0xbea57582	-0.32316214
96	0x3ec1d555	0.37858072
97	0x3e565c83	0.20933728
98	0xbee51870	-0.44745207
99	0x3e6ef295	0.23334725
100	0x3c8a5101	0.016884329
101	0xbe2037ca	-0.15646282
102	0xbd476cf3	-0.048687886
103	0x3e86d05d	0.26330844
104	0x3e11f75c	0.14254516
105	0xbe3b4622	-0.18288472
106	0xbec6896d	-0.38776723
107	0xbeec6250	-0.46168756
108	0x3e31c462	0.1736007
109	0xbe816fa5	-0.2528049
110	0x3af89872	0.0018966331
111	0xbe9f800d	-0.31152382
112	0xbe81c69f	-0.25346848
113	0x3e11e79e	0.14248511
114	0x3e3b7433	0.18306045
115	0x3e5443f0	0.20729041
116	0xbee12d68	-0.43979955
117	0x3e8d13b5	0.27554098
118	0xbe0351c1	-0.12824155
119	0xbe005439	-0.12532128
120	0x3ccc68db	0.024952343
121	0x3e5532bc	0.20820135
122	0xbec3861d	-0.38188258
123	0x3d0288ed	0.031868864
124	0x3d19cc70	0.037548482
125	0x3ca2e922	0.019886557
126	0x3e734d53	0.23759966
127	0x3eb1146e	0.345859
128	0x3d4d156d	0.05006926
129	0xbfa2f5eb	-1.2731298
130	0xbe94a7e3	-0.29034337
131	0xbec1737a	-0.37783414
132	0x3e81a768	0.25323033
133	0x3e08e9bb	0.13370411
134	0x3df2486e	0.11830221
135	0x3ddc2ead	0.1075109
136	0xbed9b801	-0.42523196
137	0xbe7aac22	-0.24479726
138	0xbd72f179	-0.059312318
139	0xbf107742	-0.56431973
140	0xbdb05576	-0.086100504
141	0xbc95cabf	-0.018285153
142	0xbe8a3900	-0.26996613
143	0x3e8f74a8	0.2801869
144	0x3daa9431	0.083290465
145	0x3e429e02	0.19005588
146	0xbec73b1c	-0.38912284
147	0xbefa2138	-0.4885347
148	0x3eb5c84c	0.35504377
149	0xbe1c27e7	-0.15249597
150	0xbd6b9c52	-0.057522126
151	0x3e09b286	0.13447008
152	0xbe139cc8	-0.14415276
153	0x3dbb85af	0.091563575
154	0x3d97d0eb	0.07412895
155	0x3e2a8be8	0.16654932
156	0xbedc8930	-0.43073416
157	0xbebffd61	-0.37498
158	0x3f19488a	0.5987631
159	0x3d34f6b4	0.044180587
160	0x3d299346	0.041400217
161	0xbe078dc0	-0.13237667
162	0x3cd02fff	0.025413511
163	0x3dcf7d12	0.10131277
164	0xbda83f46	-0.082151935
165	0x3ec779cc	0.3896011
166	0x3d73b27d	0.05949639
167	0x3e205470	0.1565721
168	0xbea7e5fb	-0.3279265
169	0xbf696591	-0.91170603
170	0xbe911790	-0.2833829
171	0xbdcec1e0	-0.100955725
172	0xbdcba192	-0.099429265
173	0x3d406c63	0.046978366
174	0x3eb7c7cc	0.3589462
175	0x3eac7967	0.33686373
176	0xbeb0d23d	-0.345354
177	0xbdebe5ec	-0.115184635
178	0x3e8d3732	0.27581173
179	0xbed82fb2	-0.4222389
180	0x3e31ecc7	0.1737548
181	0xbd237326	-0.039904736
182	0xbd95f78b	-0.07322606
183	0xbec0a690	-0.37627077
184	0x3ea368b5	0.31915823
185	0xbdc5e95a	-0.09663649
186	0xbe06a97c	-0.1315059
187	0xbd6e18bc	-0.058129057
188	0xbe399331	-0.18122555
189	0xbf521397	-0.8206114
190	0x3e81001b	0.25195393
191	0xbea1af2c	-0.31578958
192	0xbe1207ca	-0.14260784
193	0xbd8dcda5	-0.06923989
194	0xbd97b0aa	-0.07406743
195	0x3e977b04	0.2958604
196	0xbd978599	-0.073985286
197	0xbd672feb	-0.056442183
198	0x3d4ed842	0.05049921
199	0xbe982385	-0.297146
200	0x3ec6568a	0.387379
201	0x3ee440b5	0.44580618
202	0x3ec6d141	0.38831523
203	0xbe252cd4	-0.16130382
204	0x3e6c882f	0.23098825
205	0xbd4cadbc	-0.049970374
206	0x3d161553	0.03664143
207	0xbd110142	-0.03540159
208	0xbeadae1a	-0.3392189
209	0x3e4d4b94	0.20048362
210	0xbec4b3cd	-0.38418427
211	0xbed4223b	-0.41432366
212	0xbeb0b4ec	-0.34513032
213	0x3ec7f9ba	0.39057714
214	0x3e074725	0.13210733
215	0x3de1266b	0.10993656
216	0xbe07b18f	-0.13251327
217	0xbe6c8ad8	-0.2309984
218	0x3daedf49	0.08538682
219	0x3b124e62	0.0022324552
220	0xbe514988	-0.20438206
221	0x3e4b12bf	0.1983137
222	0x3d0f6375	0.03500696
223	0xbcfbe41f	-0.030748425
224	0x3e7e84d9	0.24855365
225	0x3e0979b5	0.13425334
226	0x3edaad00	0.42710114
227	0xbd6cdb0e	-0.057826094
228	0x3ef278c5	0.47357765
229	0xbea485f4	-0.32133448
230	0x3dcc9db9	0.09991021
231	0x3e7b8b4f	0.24564861
232	0xbeef2c90	-0.46713686
233	0xbddf32f9	-0.10898394
234	0x3d8dabfb	0.06917568
235	0x3e260f64	0.16216809
236	0xbee0296d	-0.43781605
237	0xbebe12ac	-0.3712362
238	0x3d78aae0	0.060709834
239	0xbdc9e5a4	-0.098582536
240	0x3e3ac7ac	0.18240231
241	0x3de94801	0.11390687
242	0x3c8c6ac5	0.017140755
243	0x3ea8347c	0.32852542
244	0x3e4758d8	0.19467485
245	0x3e9317e1	0.28729156
246	0xbd91e1ff	-0.071231835
247	0x3d98b771	0.07456864
248	0x3e83fd40	0.25779152
249	0xbe8ba5b6	-0.27274865
250	0xbc8a1c2e	-0.01685914
251	0xbe2d6d09	-0.16936125
252	0xbf150bd5	-0.5822118
253	0x3eaadc51	0.33371213
254	0xbd100af1	-0.035166685
255	0x3eb30e80	0.34972

lin1.bias f4 [64]
0	0x3d4861c3	0.048921358
1	0xbea26e4a	-0.3172477
2	0xbeb5c3cf	-0.35500953
3	0xbeb9045a	-0.36136132
4	0xbecc7ecd	-0.3994049
5	0xbf06e0d5	-0.52686816
6	0xbda52e98	-0.08065528
7	0xbeb3cfec	-0.3511957
8	0x3e01b052	0.12664917
9	0xbe99b161	-0.30018142
10	0xbdbbb78e	-0.0916587
11	0xbd4eb6b0	-0.050467193
12	0xbe055c1c	-0.13023418
13	0x3dea09c6	0.114276454
14	0xbd85fc04	-0.06542209
15	0xbe2c4e41	-0.16826726
16	0xbe6c636b	-0.230848
17	0x3dbabb77	0.09117787
18	0xbebf4bbd	-0.3736247
19	0x3b1da96f	0.002405729
20	0x3db37a2d	0.087635376
21	0xbe982c95	-0.29721513
22	0xbe920bae	-0.28524536
23	0x3c214248	0.009842463
24	0x3e81cd02	0.2535172
25	0xbedbb02f	-0.42907855
26	0xbe26e2c5	-0.16297443
27	0xbe4ebc91	-0.2018912
28	0xbe3f93dd	-0.18708749
29	0xbea9b782	-0.33147818
30	0xbef66e5b	-0.4813107
31	0x3daf4385	0.085578
32	0x3d14414c	0.036195084
33	0xbd403d0f	-0.04693323
34	0x3e2959f4	0.1653822
35	0xbddd3d6c	-0.10802731
36	0xbde28f88	-0.11062533
37	0xbe9286b1	-0.28618386
38	0xbe463dae	-0.19359466
39	0x3e17acbb	0.14811985
40	0xbe6d485e	-0.23172137
41	0xbec391b5	-0.38197103
42	0xbde2469c	-0.11048624
43	0xbdc1a3fb	-0.09455105
44	0xbe989690	-0.2980237
45	0xbea6fd28	-0.32615018
46	0x3da2518c	0.0792571
47	0xbdf22d97	-0.11825102
48	0xbe6ba93c	-0.23013777
49	0xbeafd898	-0.34344935
50	0xbe59ff98	-0.21288908
51	0xbecb458c	-0.39701498
52	0xbe83c4a0	-0.2573595
53	0x3d16854b	0.03674821
54	0x3e19bd7d	0.1501369
55	0xbe061ee9	-0.13097729
56	0x3e07598f	0.13217758
57	0xbe05edb5	-0.1307896
58	0xbca9a999	-0.020710753
59	0xbf13a426	-0.57672346
60	0xbe911077	-0.28332874
61	0xbe9f8e4e	-0.31163257
62	0xbee5f29e	-0.44911665
63	0xbe968dea	-0.29405147

lin2.weight f4 [64, 64]
0	0x3ac4757b	0.0014988625
1	0x3caf395c	0.021389656
2	0xbd0b1b7a	-0.03396175
3	0xbd8d6dc8	-0.06905705
4	0xbcd54f95	-0.026038924
5	0xbe9dded5	-0.3083407
6	0x3e492b52	0.19645432
7	0x3d3bc063	0.04583777
8	0xbbe99a85	-0.007129016
9	0xbebe94e8	-0.3722298
10	0xbdfd7e36	-0.123775885
11	0xbe353b4a	-0.17698398
12	0x3e4a8743	0.19778161
13	0x3e3268ba	0.17422763
14	0xbe9f9e6b	-0.3117555
15	0xbe8df662	-0.27727038
16	0x3e062099	0.13098373
17	0xbdcc88fc	-0.09987065
18	0xbdebbfc6	-0.11511187
19	0x3d06ccf3	0.0329103
20	0xbd9b29a3	-0.07576301
21	0x3e16a4f0	0.14711356
22	0x3f01faa2	0.5077306
23	0xbccf296e	-0.02528831
24	0x3daaba18	0.08336276
25	0x3b7d5050	0.0038652606
26	0xbe844272	-0.25831944
27	0xbe0ce414	-0.1375888
28	0x3eb2af4a	0.3489936
29	0xbdc0dd58	-0.09417218
30	0x3d155f73	0.03646798
31	0x3e69e1ae	0.22839996
32	0xbdef09a8	-0.11671764
33	0x3e62c0eb	0.22143905
34	0xbd474e14	-0.048658445
35	0x3d1cb257	0.038256016
36	0xbdad820a	-0.084720686
37	0xbeb5f892	-0.35541207
38	0xbe802f40	-0.2503605
39	0xbcf1ce60	-0.029517353
40	0xbda08a8a	-0.07838924
41	0x3d7d2e11	0.06181151
42	0x3eaf54c4	0.3424436
43	0x3e03058a	0.12795082
44	0x3e58c616	0.21169314
45	0x3d20157c	0.03908299
46	0xbdfe0574	-0.12403384
47	0xbe90c24e	-0.28273243
48	0x3e4210a0	0.18951654
49	0x3c13eeff	0.009029149
50	0xbe9db6b1	-0.30803445
51	0xbedfdf8c	-0.4372524
52	0xbe8953c9	-0.26821736
53	0x3d46bd27	0.048520233
54	0xbe893ff3	-0.26806602
55	0x3e22ebf6	0.15910324
56	0x3da4c2e2	0.080449834
57	0x3db09f26	0.08624105
58	0x3c046538	0.008080773
59	0xbe51e981	-0.20499231
60	0xbe671887	-0.2256795
61	0xbd3e8ce7	-0.046521094
62	0x3d9c2c62	0.07625653
63	0xbe1b496e	-0.1516473
64	0xbe9f09e1	-0.31062225
65	0x3e8e307e	0.27771372
66	0x3f1b0cef	0.6056661
67	0x3ebf05a2	0.37308985
68	0x3ea447df	0.32086083
69	0xbe608f3c	-0.2192964
70	0xba1e6fe2	-0.00060438935
71	0x3ee8236c	0.45339525
72	0x3e960f21	0.29308417
73	0xbdf5a39d	-0.119940974
74	0xbde7d157	-0.11319225
75	0xbd7f2672	-0.062292524
76	0x3e6708b6	0.22561917
77	0x3e5b088a	0.21389976
78	0xbe3d911e	-0.18512389
79	0xbd84cafc	-0.06484029
80	0x3e8f0e24	0.27940476
81	0xbe1be99d	-0.15225835
82	0x3e9682dd	0.29396716
83	0x3d0b55ca	0.03401736
84	0xbdae9f78	-0.0852651
85	0xbe7549cf	-0.23953937
86	0x3ec32f8e	0.3812222
87	0x3cefe889	0.029285686
88	0x3e32d9e6	0.17465934
89	0xbe1d844d	-0.153825
90	0xbe870e73	-0.2637821
91	0x3ebecdcf	0.37266394
92	0x3ee59639	0.44841173
93	0x3f0491c8	0.51784945
94	0x3f104881	0.5636063
95	0x3ed830e0	0.4222479
96	0x3e763252	0.24042633
97	0x3e26d67f	0.16292761
98	0x3e581168	0.2110039
99	0xbe97fa2a	-0.29683048
100	0xbea4da6f	-0.32197902
101	0x3ec1e388	0.37868905
102	0xbd649994	-0.055810526
103	0x3e2ce937	0.1688584
104	0x3dbb560c	0.091472715
105	0x3ea2d1aa	0.31800586
106	0x3eca38ab	0.3949636
107	0xbdffcb62	-0.12489964
108	0x3ef0dc84	0.4704324
109	0x3ee8fa14	0.45503294
110	0xbe74b392	-0.23896626
111	0x3d1b3714	0.037894323
112	0xbf05acbb	-0.5221669
113	0xbc0795d6	-0.00827547
114	0x3b892c2a	0.004186173
115	0x3ec12db1	0.37730172
116	0xbe22f33c	-0.15913099
117	0x3e548e7b	0.20757477
118	0xbe206187	-0.15662204
119	0x3e11e3a5	0.14246996
120	0xbeca34cc	-0.39493406
121	0x3e5313a1	0.20612957
122	0x3e8d9fc3	0.2766095
123	0x3ecf1257	0.4044368
124	0xbe8f79ec	-0.28022707
125	0x3e4eb6d1	0.20186926
126	0xbec6633f	-0.38747594
127	0x3dded463	0.10880353
128	0xbe151076	-0.1455706
129	0xbc7217e4	-0.014776204
130	0xbe3d3fad	-0.18481322
131	0xbe1bd84d	-0.15219231
132	0xbe0ce7a3	-0.13760237
133	0xbcab7902	-0.020931724
134	0x3ce87955	0.028378168
135	0xbd2432f5	-0.04008766
136	0xbde05839	-0.10954327
137	0xbc99081d	-0.018680627
138	0xbe29cd23	-0.1658216
139	0xbe2c8e4a	-0.16851154
140	0xbd69feeb	-0.057127874
141	0xbe08dfe6	-0.1336666
142	0xbe07de5f	-0.13268422
143	0xbe03a643	-0.12856393
144	0xbded64d9	-0.11591501
145	0x3d84a07b	0.06475922
146	0xbe307bbc	-0.17234701
147	0xbdcf4bc4	-0.10121873
148	0xbd7a2407	-0.061069515
149	0xbdd72892	-0.10505785
150	0x3d74bf64	0.059752837
151	0xbe233283	-0.15937237
152	0xbe37df0c	-0.1795618
153	0xbdf1a676	-0.11799328
154	0x3cee8bf3	0.029119467
155	0x3bd99255	0.0066397586
156	0xbe006a64	-0.12540585
157	0xbdbc89c2	-0.09205963
158	0xbccb0d1d	-0.024786526
159	0x3c1e6aef	0.00966905
160	0xbcfbab68	-0.030721381
161	0x3cc5b299	0.024133014
162	0xbe1897f0	-0.1490171
163	0xbe07e43e	-0.13270661
164	0x3d746106	0.05966284
165	0x3d3fe6ec	0.046851084
166	0xbcd425ce	-0.025896933
167	0xbd86175a	-0.06547423
168	0xbdb75bbb	-0.08953043
169	0xbd970104	-0.073732406
170	0x3ca86a78	0.02055858
171	0xbe18146d	-0.14851542
172	0x3c8ea180	0.017410994
173	0x380adb96	3.310627e-05
174	0xbdfebf80	-0.124388695
175	0xbdb01ee0	-0.08599639
176	0x3d43cab0	0.04780072
177	0xbddd469e	-0.10804485
178	0x3ba14700	0.004921794
179	0x3c7d178a	0.015447507
180	0x3d076c78	0.03306243
181	0x3c1853dd	0.009297338
182	0xbdb78b78	-0.089621484
183	0xbdbaa6d4	-0.09113851
184	0xbd47e6b2	-0.048803993
185	0xbe211a76	-0.1573275
186	0xbd073369	-0.033008013
187	0xbe31620d	-0.1732256
188	0xbe1ce8f9	-0.15323247
189	0x3d5dd428	0.054157406
190	0xbdbfd3b4	-0.09366551
191	0x3d7c03ae	0.061526947
192	0x3e51a0a3	0.20471434
193	0xbde21a04	-0.11040118
194	0xbd389728	-0.04506603
195	0xbd085f1b	-0.033293825
196	0xbd1fa1f2	-0.038972802
197	0x3e07197c	0.13193315
198	0x3de63400	0.11240387
199	0x3e8157c4	0.25262272
200	0xbccbbb47	-0.024869574
201	0x3deca85b	0.11555549
202	0xbde022e1	-0.109441526
203	0xbe1d2a13	-0.15348081
204	0x3d0003eb	0.031253736
205	0xbd294990	-0.04132992
206	0xbe2c57ef	-0.16830419
207	0xbd411e48	-0.04714802
208	0x3d36b54e	0.0446065
209	0xbe63f37b	-0.22260849
210	0xbdb3eb59	-0.087851234
211	0x3d51e6b6	0.051245414
212	0xbcdec529	-0.027193623
213	0x3d20dbd6	0.039272152
214	0x3e381fd7	0.17980896
215	0xbda38f14	-0.07986274
216	0xbbf567ad	-0.0074891658
217	0x3e8d1c9b	0.27560887
218	0x3d356799	0.04428825
219	0x3d21266d	0.039343286
220	0x3ea19120	0.31556034
221	0xbe30bc97	-0.17259441
222	0xbeb05cf0	-0.34445906
223	0x3e8f5eef	0.28002116
224	0x3caf523c	0.021401517
225	0xbde9bab5	-0.11412565
226	0xbe4641de	-0.19361064
227	0xbeb28501	-0.348671
228	0x3de5c153	0.11218514
229	0xbe58306c	-0.21112221
230	0xbe0a6057	-0.13513313
231	0x3d343b5c	0.044001922
232	0x3d892816	0.06697099
233	0x3ea8391d	0.32856074
234	0x3d334c2c	0.043773815
235	0xbdca761c	-0.09885809
236	0x3c8d92c8	0.017281905
237	0xbd9c41f5	-0.07629768
238	0xbba419a4	-0.0050079394
239	0x3b311383	0.0027019687
240	0xbeb89882	-0.36053854
241	0x3da5ec77	0.08101743
242	0x3e11b25f	0.142282
243	0xbda3f78c	-0.080062
244	0x3dbdda67	0.092701726
245	0xbe03f44d	-0.12886162
246	0xbe242186	-0.16028413
247	0xbed62ede	-0.41832632
248	0xbe405e7c	-0.18786043
249	0x3e0f05e3	0.1396709
250	0xbe345240	-0.17609501
251	0xbe0700e6	-0.13183936
252	0xbde285d8	-0.11060685
253	0xbe9a5387	-0.3014185
254	0xbe6361d9	-0.22205295
255	0xbd5ebea8	-0.054381043

lin2.bias f4 [64]
0	0x3db45dd5	0.088069595
1	0xbe42d0ae	-0.19024917
2	0xbd557496	-0.05211314
3	0x3d4ee7af	0.05051392
4	0xbd093521	-0.033497933
5	0xbd3aed4e	-0.045636468
6	0xbe004aac	-0.12528485
7	0xbc1e93d2	-0.009678798
8	0xbdbaf6b9	-0.0912909
9	0xbd5bb703	-0.05364133
10	0x3d33c0b9	0.043884967
11	0xbdaec9b6	-0.08534567
12	0xbd8f20f8	-0.0698871
13	0xbddc1264	-0.10745695
14	0x3d4362a6	0.0477015
15	0xbe207ca9	-0.15672554
16	0x3d7b6b33	0.06138153
17	0xbe1ded6f	-0.15422605
18	0x3ba3fa79	0.005004224
19	0xbd23c475	-0.039982278
20	0xbde192a6	-0.11014299
21	0xbd3774df	-0.04478919
22	0x3d0a6f32	0.03379745
23	0x3d82a0f6	0.06378357
24	0xbe1b07c8	-0.15139687
25	0xbd9c6f5a	-0.07638426
26	0xbdf8361e	-0.12119697
27	0xbe2d37ae	-0.16915771
28	0xbe094c5b	-0.13408034
29	0x3c1f7f6d	0.0097349705
30	0x3cfd8415	0.03094677
31	0x3eb18904	0.34674847
32	0xbda0b4ca	-0.07846983
33	0x3d559bef	0.052150663
34	0xbdb12ae3	-0.08650758
35	0xbcdcd353	-0.026956236
36	0xbdba94be	-0.091104016
37	0xbd781d95	-0.060575087
38	0x3cb645c6	0.022250067
39	0xbe2c2db7	-0.16814314
40	0xbdc7342f	-0.0972675
41	0x3e7e7969	0.24851002
42	0xbda049d6	-0.07826583
43	0xbd7b9a27	-0.061426308
44	0xbdb2e0c9	-0.087342806
45	0xbd8766f1	-0.066114314
46	0xbd812bf7	-0.06307214
47	0xbd4c1824	-0.04982771
48	0xbdb4130a	-0.08792694
49	0xbdbb54a7	-0.091470055
50	0xbde085eb	-0.10963043
51	0x3dc8ebc8	0.09810597
52	0x3d0a166d	0.033712793
53	0xbe0dcf04	-0.13848501
54	0xbdc5d28e	-0.09659301
55	0xbda632d2	-0.08115162
56	0xbcc27ff8	-0.02374266
57	0xbdce6b67	-0.10079079
58	0xbb974dae	-0.0046174144
59	0xbd95dea0	-0.07317853
60	0x3ce9e607	0.028552068
61	0xbe15635d	-0.14588685
62	0xbd8e90a9	-0.069611855
63	0xbe8974a6	-0.26846808

lin3.weight f4 [64, 64]
0	0xbddf2bd4	-0.108970314
1	0xbd54d644	-0.051962152
2	0x3c229a94	0.00992455
3	0xbd1caf3c	-0.038253054
4	0xbe006137	-0.12537085
5	0x3c894c59	0.016760038
6	0xbb9a1d2e	-0.0047031855
7	0xbd9e5bf8	-0.077323854
8	0xbc3c34bd	-0.011487183
9	0xbe303d80	-0.1721096
10	0xbdfb4f1a	-0.12270947
11	0xbdb04b3b	-0.08608099
12	0xbe59282b	-0.21206729
13	0xbe366a40	-0.17813969
14	0xbe33c829	-0.17556824
15	0x3caef03e	0.02135479
16	0xba15a07b	-0.00057078124
17	0xbe2718eb	-0.16318099
18	0xbd802872	-0.06257714
19	0xbd8e7de3	-0.06957605
20	0x3a1eafbf	0.000605341
21	0xbdad11ba	-0.08450647
22	0xbe00d759	-0.12582149
23	0xbdc32290	-0.09528077
24	0xbe1f38a8	-0.15548956
25	0x3d84442c	0.06458315
26	0x3d60cbd6	0.054881893
27	0x3cff0dd9	0.031134533
28	0xbdf6d360	-0.12052035
29	0xbde7e950	-0.11323798
30	0xbe1e64dc	-0.15468162
31	0xbe0348ff	-0.12820815
32	0xbdc08c58	-0.094017684
33	0xbe038c01	-0.12846376
34	0xbd96f8fb	-0.07371708
35	0x3cc649f6	0.02420519
36	0xbd8f9f5d	-0.07012818
37	0xbe313401	-0.17304994
38	0xbdc033f5	-0.0938491
39	0xbad6d5c0	-0.0016390607
40	0xbd60e553	-0.0549062
41	0xbd8d33ca	-0.068946436
42	0xbe11d072	-0.14239672
43	0xbe5d074d	-0.21584816
44	0x3c04fbdc	0.008116689
45	0xbe1a6617	-0.15078007
46	0x3c953224	0.018212385
47	0xbe013e10	-0.12621331
48	0x3d2f05c4	0.042730108
49	0xbd48fe67	-0.049070742
50	0xbd8e55d1	-0.06949962
51	0xbe3abb28	-0.18235457
52	0xbbd35ab4	-0.0064500216
53	0xbe24f1b3	-0.16107826
54	0xbe3ff0e1	-0.18744232
55	0xbd72e27c	-0.059298024
56	0x3cbc0f3c	0.022956483
57	0xbe2b596e	-0.16733333
58	0x3d80d49a	0.062905505
59	0xbd5c6b72	-0.053813405
60	0x3d0d04e2	0.034428485
61	0xbe03cefe	-0.1287193
62	0xbdde3ff3	-0.10852041
63	0xbd5cd516	-0.053914152
64	0xbdee8c40	-0.11647844
65	0x3d60a86a	0.054848112
66	0x3d08c2d4	0.033388928
67	0x3d17d7bc	0.037070975
68	0x3d5a672e	0.053321056
69	0xbd48054b	-0.048833173
70	0x3d2a3b54	0.041560486
71	0xbe2842c4	-0.16431719
72	0x3e1dc358	0.15406549
73	0xbcfc196c	-0.03077384
74	0x3e3821bf	0.17981623
75	0x3da334ab	0.0796903
76	0x3ca66e38	0.020316228
77	0x3e52d3d5	0.2058862
78	0x3b4eb9c8	0.003154384
79	0x3cb3aab0	0.021931976
80	0xbd60bf75	-0.054870088
81	0x3bb74f9e	0.005594208
82	0xbdc3a80f	-0.09553539
83	0xba70bf9f	-0.0009183827
84	0x3eb750a9	0.35803726
85	0x3e1c965b	0.15291731
86	0x3df4e63a	0.11957975
87	0xbd896746	-0.06709151
88	0x3d081119	0.03321943
89	0xbac27e72	-0.0014838709
90	0xbd7a9f28	-0.06118694
91	0x3e07f5e1	0.13277389
92	0x3c468741	0.012117208
93	0x3e2102fb	0.15723793
94	0x3dab5826	0.08366422
95	0xbbc7009a	-0.0060730698
96	0xbe45201b	-0.19250529
97	0xbd5383e5	-0.051639456
98	0xbe0402cf	-0.12891696
99	0xbddb232e	-0.10700069
100	0xbe113fc7	-0.14184485
101	0x3d987a7b	0.07445236
102	0xbd8e2676	-0.069409296
103	0x3dc82cf5	0.097742
104	0x3d7aee3a	0.061262347
105	0xbe8fc270	-0.28078032
106	0x3e20781f	0.15670823
107	0xbdc476b1	-0.09592951
108	0x3db98698	0.09058875
109	0x3ce886c6	0.028384577
110	0xbddfcd1e	-0.10927795
111	0xbc8d6f1b	-0.017264893
112	0xbd084455	-0.03326829
113	0xbd5fd2d2	-0.054644413
114	0x3d995c9e	0.074883685
115	0xbcf3b4e1	-0.029749336
116	0xbdaf9d4c	-0.08574924
117	0xbc965186	-0.01834942
118	0xbe51b730	-0.20480037
119	0x3c4c063d	0.012452659
120	0x3dd92477	0.10602658
121	0x3d29745f	0.041370746
122	0x3dfd2126	0.12359838
123	0x3d8865cc	0.06660041
124	0xbe44b48c	-0.19209498
125	0x3d669acf	0.05629998
126	0xbdea4c3b	-0.11440321
127	0xbd84b2a6	-0.06479387
128	0xbe0d7a3f	-0.13816164
129	0x3ec9711e	0.39344114
130	0x3dcbaead	0.09945426
131	0x3e0c4b81	0.13700677
132	0x3de3f70e	0.11131106
133	0x3e4562df	0.19275998
134	0xbc19fef3	-0.009399164
135	0xbd79a61f	-0.06094944
136	0x3e17e5b0	0.14833713
137	0x3d734073	0.059387635
138	0x3efdc416	0.49563664
139	0x3d3c00c9	0.045899186
140	0x3e0c0299	0.13672866
141	0x3e0c479c	0.13699192
142	0x3e1b4ec7	0.1516677
143	0xbd51f3cf	-0.051257905
144	0x3e35fb5e	0.1777167
145	0x3e3891d1	0.18024375
146	0x3e2e3c3d	0.17015167
147	0x3bcb7926	0.0062095104
148	0x3f2234a1	0.63361555
149	0x3e2f2a23	0.17105918
150	0x3e4ece9f	0.20196007
151	0x3db5c1da	0.08874865
152	0xbb2fa0e9	-0.002679879
153	0xbd13c1e7	-0.03607359
154	0xbb8b6b63	-0.004254745
155	0x3e231e16	0.15929446
156	0xbd8a9b37	-0.06767886
157	0x3bb78bd4	0.0056013856
158	0x3e118f59	0.14214839
159	0xbf48340c	-0.7820442
160	0x3e6f55a6	0.23372516
161	0x3ea7b54b	0.32755503
162	0x3dafa088	0.08575541
163	0x3e1cbd41	0.1530657
164	0x3e98857d	0.29789343
165	0x3d66a2ae	0.056307487
166	0x3dd03eb4	0.1016821
167	0xbb984f81	-0.0046481495
168	0xbd3e619d	-0.04647981
169	0xbe8b6920	-0.27228642
170	0x3e0403d6	0.12892088
171	0x3d8e3bf2	0.069450274
172	0xbcb024ca	-0.021501917
173	0x3e95ff4c	0.2929634
174	0xbcd65272	-0.02616236
175	0xbcc3a885	-0.023884067
176	0xbcfa61c8	-0.030564204
177	0xbd531fb7	-0.051543918
178	0x3d611c97	0.054958906
179	0x3d0dd807	0.034629848
180	0x3e0b95bd	0.1363134
181	0x3d2befc9	0.041976724
182	0x3d5f8b22	0.054576047
183	0xbd771ace	-0.060328297
184	0x3de37e1d	0.111080386
185	0x3e7e8196	0.2485412
186	0x3e453b8f	0.19261001
187	0xbdc6a1df	-0.09698843
188	0x3e6302b6	0.22169003
189	0xbdf6f966	-0.12059288
190	0x3e11c401	0.14234926
191	0x3f5d4f14	0.8644879
192	0xbe2d7e17	-0.1694263
193	0x3e271ef2	0.16320398
194	0x3bc60e4f	0.006044186
195	0x3e77ae57	0.24187599
196	0x3e0fedb3	0.14055519
197	0xbde3cea2	-0.111233965
198	0x3e00164f	0.1250851
199	0x3e1d8633	0.15383224
200	0x3e30b532	0.1725662
201	0x3eb4b7ca	0.3529647
202	0x3f1b7661	0.60727507
203	0x3db54b6c	0.08852276
204	0xba4293a2	-0.00074225117
205	0xbcfe6588	-0.031054273
206	0x3e88fb42	0.26754194
207	0xbdceb3df	-0.100929014
208	0xbda9adc5	-0.08285097
209	0x3dc6b485	0.097024
210	0xbe437230	-0.19086528
211	0x3d9a402f	0.07531773
212	0xbf49ecfe	-0.78877246
213	0xbf18dde3	-0.5971357
214	0x3dbe74cc	0.09299621
215	0x3ddbd210	0.107334256
216	0x3e05b294	0.13056403
217	0x3d6b83c9	0.057498727
218	0x3ba94e86	0.0051668314
219	0xbdfaf8a7	-0.12254458
220	0x3e09880f	0.13430808
221	0x3d807101	0.06271554
222	0xbd5c313d	-0.053757895
223	0x3e0366cd	0.12832184
224	0xbded37a8	-0.11582881
225	0xbe34f1e7	-0.17670403
226	0xbd97f263	-0.074192785
227	0xbe121e68	-0.14269412
228	0x3eb9d3c4	0.36294377
229	0x3b70666c	0.0036682142
230	0x3d2e8834	0.042610362
231	0x3e1d1864	0.15341336
232	0x3e286e68	0.16448367
233	0xbd7bd61d	-0.06148349
234	0x3d73eb2b	0.059550446
235	0xbdb32fd0	-0.08749354
236	0x3d1ad881	0.03780413
237	0xbe0be9aa	-0.13663355
238	0xbb97b784	-0.004630031
239	0xbc84df82	-0.016219858
240	0x3cb681eb	0.022278747
241	0x3dcb4fe1	0.09927345
242	0x3e31c79b	0.173613
243	0x3e31a1cd	0.17346878
244	0xbde88d5d	-0.11355088
245	0x3d368fd7	0.04457077
246	0xbe73bfc4	-0.23803622
247	0x3d833601	0.06406785
248	0xbd4cc6c4	-0.049994245
249	0x3c544dee	0.012958033
250	0x3c922451	0.017839583
251	0x3dece9bd	0.115680195
252	0xbd02fe39	-0.031980727
253	0xbd7ef7f0	-0.06224817
254	0xbe975ba0	-0.29562092
255	0x3e1755b1	0.14778782

lin3.bias f4 [64]
0	0xbd5e7831	-0.054313842
1	0x3dcc8362	0.09985997
2	0xbc8088ab	-0.015690168
3	0x3cf5d87d	0.030010456
4	0x3c1d590f	0.009603753
5	0xbe082a8e	-0.13297483
6	0x3d99b619	0.075054355
7	0x3d2e28b8	0.0425193
8	0xbce458e2	-0.027874414
9	0xbc190861	-0.009340377
10	0x3d596dd9	0.053083275
11	0xbe115d18	-0.14195669
12	0xbe0a9827	-0.13534604
13	0xbdd6a3bb	-0.10480448
14	0xbbeb055e	-0.0071722707
15	0xbe0c0cf6	-0.13676819
16	0xbe024562	-0.1272178
17	0x3d5e4346	0.054263376
18	0xbe0b0f3f	-0.13580035
19	0xbd8e8c22	-0.06960322
20	0xbdd5a49b	-0.104317866
21	0x3e617a44	0.22019297
22	0xb963bfb9	-0.00021719829
23	0xbcc379a5	-0.023861716
24	0xbd875431	-0.06607855
25	0xbd93feec	-0.07226357
26	0xbdd6c47e	-0.10486697
27	0x3d8cdf9b	0.06878587
28	0x3e68cc6a	0.22734228
29	0xbe8d8865	-0.27643123
30	0xbd448886	-0.04798176
31	0x3d04d091	0.032425467
32	0x3c4c44e5	0.012467598
33	0xbcaa05ad	-0.02075466
34	0xbde3ee85	-0.11129478
35	0xbd6cd864	-0.057823554
36	0xbdc5100c	-0.09622201
37	0x3dad4de6	0.084621236
38	0x3b015fa3	0.0019740842
39	0xbd031ddb	-0.032010894
40	0xbbab076b	-0.00521939
41	0x3bd54fd5	0.006509761
42	0xbd4c44f0	-0.04987043
43	0x3e103cd1	0.140857
44	0x3d9e66f4	0.077344805
45	0x3bcbe52a	0.006222387
46	0xbcbf23eb	-0.023332557
47	0xbe2be8ad	-0.16787978
48	0xbe007dd8	-0.12548006
49	0x3cbba3fc	0.022905342
50	0x3ce8055f	0.028322874
51	0x3c5ece3b	0.013598974
52	0x3dcb73f0	0.09934223
53	0xbdd82926	-0.105547234
54	0xbd2cd2db	-0.042193275
55	0xbd2d2ef9	-0.042281125
56	0xbd6a7980	-0.057244778
57	0x3ab85398	0.0014062999
58	0xbe32e63a	-0.17470637
59	0xbc9c8486	-0.01910616
60	0x3dccff72	0.1000966
61	0xbdf18848	-0.11793572
62	0x3d1794fd	0.03700732
63	0x3df5f6dc	0.12009975

lin4.weight f4 [64, 64]
0	0x3e068af8	0.1313895
1	0x3c1f112d	0.009708685
2	0x3e3f7b6e	0.18699428
3	0xbdcdb7c6	-0.100448176
4	0xbdc775d3	-0.0973927
5	0xbd8b86c6	-0.06812815
6	0x3da20510	0.07911122
7	0x3e0f8713	0.1401637
8	0x3e76e9ef	0.24112676
9	0x3e355883	0.17709546
10	0x3e03b4b3	0.128619
11	0x3af772b0	0.0018878784
12	0x3d9e8ea8	0.07742053
13	0x3dd473a5	0.1037362
14	0xbd350e47	-0.04420307
15	0x3e3da005	0.18518074
16	0x3ea9ea21	0.3318644
17	0x3e0e94bc	0.13923925
18	0x3d03209c	0.03201352
19	0xbd1f87d3	-0.03894789
20	0x3e2f0e2a	0.17095247
21	0x3d19b90f	0.03753
22	0x3d8e22a9	0.06940205
23	0xbbb72012	-0.00558854
24	0x3c16e29e	0.009209303
25	0x3da5c7bf	0.08094739
26	0x3e113228	0.1417929
27	0x3e3ba274	0.1832369
28	0x3f019c1b	0.50628823
29	0xbcdd6167	-0.027023984
30	0x3e047350	0.12934613
31	0xbe2d1b0d	-0.1690485
32	0xbd0d5bf1	-0.03451151
33	0x3de8f5ef	0.11375033
34	0x3d23fc79	0.0400357
35	0x3eacf9dc	0.33784378
36	0x3da06f69	0.0783375
37	0x3db3998d	0.08769522
38	0xbcd9ac86	-0.026571523
39	0xbd52978e	-0.051414065
40	0x3dba7341	0.09104014
41	0x3e273a5b	0.16330855
42	0x3dc15ec6	0.09441905
43	0x3dd2c875	0.102921404
44	0x3e4c3cce	0.1994507
45	0x3e538f7a	0.206602
46	0x3da579b2	0.08079852
47	0xbd9de1d5	-0.0770909
48	0x3c54441f	0.012955694
49	0x3dcf2558	0.10114545
50	0x3dd98716	0.10621469
51	0x3e2fa50d	0.17152806
52	0x3b58247d	0.0032980733
53	0x3cd08de2	0.02545828
54	0xbdb6912c	-0.08914408
55	0x3de4f05a	0.11178656
56	0x3c991a9f	0.018689452
57	0x3e570b79	0.2100047
58	0xbd8427c8	-0.064529
59	0x3c681fbc	0.014167722
60	0x3dc0e758	0.09419125
61	0x3c0669a8	0.008203901
62	0xbe003228	-0.12519133
63	0x3de689a9	0.11256725
64	0xbd20a0d4	-0.039215878
65	0xbe131bba	-0.14366046
66	0x3cd9e4a3	0.02659828
67	0xbf11509d	-0.5676363
68	0x3cb78f5a	0.022407223
69	0xbd6b7134	-0.057481006
70	0x3f0b6b09	0.544602
71	0xbe0a43dc	-0.13502449
72	0x3e07d11c	0.13263363
73	0x3e502dbe	0.2032995
74	0x3d627c55	0.055294354
75	0x3d1cb3f4	0.038257554
76	0x3d4ef01c	0.050521955
77	0xbd52d9eb	-0.051477354
78	0x3d7df9f8	0.062005967
79	0x3d22a9f8	0.039712876
80	0x3cf1c6b0	0.029513687
81	0x3e144f79	0.14483441
82	0x3dca20d2	0.09869541
83	0x3c6b56ae	0.014363928
84	0x3def6cc2	0.11690666
85	0xbf31f97d	-0.69521314
86	0x3c5a410a	0.013321171
87	0xc019c318	-2.4025326
88	0xbda6cc8f	-0.08144485
89	0xbdf79d48	-0.12090546
90	0xbdae16cf	-0.08500444
91	0x3ce9971a	0.028514434
92	0x3ede3a56	0.43403882
93	0xc06ebbf8	-3.7302227
94	0x3d48ac24	0.04899229
95	0xc0a32ff3	-5.099603
96	0x3e39031c	0.18067592
97	0xbd95518a	-0.07290943
98	0x3ecd3a6c	0.40083635
99	0x3f0bfa15	0.5467847
100	0x3c7ff7da	0.015623057
101	0x3e30f566	0.17281112
102	0x3e91eb0e	0.28499645
103	0x3f234d1b	0.6378953
104	0x3c2395fa	0.009984488
105	0x3eadc0b3	0.3393608
106	0xbd47f886	-0.048820995
107	0x3e5ce3d6	0.21571288
108	0xbfe47d88	-1.7850809
109	0x3e82d2b2	0.25551373
110	0xbd94f647	-0.07273536
111	0x3cbb4db8	0.022864208
112	0x3ef7ed63	0.484233
113	0xbd8817e8	-0.06645185
114	0x3e9274a4	0.28604615
115	0x3e9f1345	0.3106939
116	0xbe63d742	-0.22250083
117	0x3cc49d4c	0.024000786
118	0x3d89eb52	0.06734337
119	0x3e391a3c	0.18076414
120	0xbdbb4c24	-0.09145382
121	0x3dc0dbd2	0.094169274
122	0x3b86ac40	0.0041098893
123	0xbd4f5c90	-0.050625384
124	0x3ee1ee57	0.4412715
125	0xbc9ad1cc	-0.018898867
126	0x3f1b87c7	0.60754055
127	0x3e9aa7bd	0.302061
128	0xbda6241a	-0.081123546
129	0xbd109b65	-0.035304446
130	0x3e4237f7	0.18966661
131	0xbd3d0670	-0.046148717
132	0x3dff9433	0.12479439
133	0xbcb46728	-0.022021845
134	0x3e102630	0.14077067
135	0x3da99b4f	0.08281576
136	0x3e2600d3	0.16211252
137	0x3db08347	0.08618789
138	0xbb0dd35b	-0.002164087
139	0x3d39e156	0.045380913
140	0x3dbdfcb5	0.09276716
141	0x3e033bc8	0.12815773
142	0xbd0cb5a2	-0.034352906
143	0x3e3cd0c7	0.18439017
144	0x3e4c4d0b	0.19951265
145	0x3d176ab4	0.036966994
146	0xbca79b6b	-0.020459851
147	0x3da77ba4	0.081778795
148	0xbd832283	-0.06403067
149	0x3dd51b43	0.104055904
150	0x3da88077	0.08227628
151	0xbdae389f	-0.08506893
152	0x3cd6ffc6	0.02624501
153	0x3e3bd274	0.18342
154	0x3d7b9d42	0.06142927
155	0x3dc33657	0.09531849
156	0x3f046836	0.51721513
157	0x3de96edb	0.11398097
158	0x3c5cdfe5	0.013481115
159	0xbcb4dfc9	-0.022079365
160	0x3e5371ae	0.20648834
161	0x3d56fe2a	0.052488483
162	0x3ec4de37	0.38450786
163	0x3ea4ff6d	0.32226124
164	0xbd35472a	-0.04425732
165	0x3dbf3350	0.09335959
166	0xbaf8eb0e	-0.001899095
167	0xbd2f2407	-0.042758968
168	0x3d33bd1d	0.043881524
169	0x3e3b4c1c	0.18290752
170	0x3dfae91f	0.122514956
171	0x3e5b3e89	0.21410574
172	0x3e727427	0.23677121
173	0x3e0cccbf	0.1374998
174	0x3cf344e9	0.029695945
175	0xbd373fbc	-0.044738516
176	0x3dfd6e02	0.12374498
177	0x3e0babe8	0.13639796
178	0x3e6687b0	0.22512698
179	0x3d4e71c3	0.05040146
180	0x3e26618d	0.1624815
181	0x3e4854f0	0.19563651
182	0xbd8ddb61	-0.06926609
183	0x3dff509f	0.12466549
184	0xbba4293f	-0.0050097997
185	0x3e3d57d3	0.18490534
186	0xbd11b839	-0.03557608
187	0x3ddb1525	0.106973924
188	0xbd0714cc	-0.032978818
189	0xbcc0bce7	-0.023527576
190	0x3cb833ea	0.022485692
191	0x3de9e0e5	0.11419848
192	0x3c93e39f	0.018052874
193	0xbe40a4ba	-0.18812838
194	0xbe2e7e3f	-0.17040347
195	0xbd623fb6	-0.05523654
196	0xbe385e1d	-0.18004651
197	0xbe397c83	-0.18113904
198	0xbe28f69b	-0.16500323
199	0xbe1a7ceb	-0.15086715
200	0x3c9b41ba	0.01895224
201	0x3c9755f3	0.018473601
202	0xbc4cee90	-0.01250805
203	0x3d707e26	0.058714055
204	0x3d3fd241	0.046831373
205	0xbdc00c86	-0.09377389
206	0x3d4e3a54	0.050348595
207	0xbe32088b	-0.17386071
208	0xbc9b7cb0	-0.018980354
209	0xbcae6ef1	-0.021293135
210	0xbe09e96f	-0.13467954
211	0xbd803947	-0.06260925
212	0x3d6ed141	0.05830503
213	0xbcdc09a8	-0.026860073
214	0xbdc303ef	-0.09522235
215	0xbc5e225b	-0.013557996
216	0xbe0defce	-0.1386101
217	0xbdf8aee3	-0.12142732
218	0x3d4293e9	0.04750434
219	0xbe192882	-0.14956859
220	0x3d425a9c	0.047449693
221	0xbdccebff	-0.1000595
222	0xbda42543	-0.080149196
223	0xbdf877b5	-0.12132207
224	0xbd3187f1	-0.043342534
225	0xbd58f2a0	-0.05296576
226	0xbc6d3690	-0.014478341
227	0x3dcf6b62	0.101279035
228	0x3d37e3a8	0.044894844
229	0xbdf0bf0b	-0.117551886
230	0xbe235ec0	-0.15954113
231	0xbd57734e	-0.052600197
232	0xbe3abf74	-0.18237096
233	0xbdb8e500	-0.09028053
234	0xbe2471fa	-0.16059104
235	0x3d794f92	0.0608669
236	0xbd1dbc05	-0.038509388
237	0x3d0d3f6a	0.034484304
238	0xbdb9318f	-0.09042656
239	0xbdb010a5	-0.08596925
240	0xba670130	-0.00088121276
241	0xbd5b86d6	-0.053595386
242	0xbd822ad7	-0.06355827
243	0xbe4820f1	-0.19543816
244	0x3c49afd9	0.012309992
245	0x3d15f30c	0.03660874
246	0xbe0312ca	-0.12800136
247	0xbbecead1	-0.0072301407
248	0xbc495968	-0.0122893825
249	0xbdae9fc7	-0.08526569
250	0x3df95920	0.12175202
251	0x3cfefcff	0.031126497
252	0xbe06deb2	-0.13170889
253	0xbd5ca846	-0.053871416
254	0xbd97628f	-0.073918454
255	0x3c886d7e	0.016653772

lin4.bias f4 [64]
0	0xbc4db590	-0.012555495
1	0xbe66626b	-0.22498481
2	0xbce8aa17	-0.028401418
3	0xbd3d78b4	-0.04625769
4	0xbd103e30	-0.035215557
5	0x3f37f5ad	0.71859246
6	0xbda0a851	-0.07844604
7	0xbdbad95a	-0.09123488
8	0xbddc8bce	-0.10768853
9	0x3c613409	0.013745316
10	0xbdaede6e	-0.08538519
11	0x3d00b70f	0.03142458
12	0xbdf4257b	-0.11921211
13	0x3ef24eb2	0.47325665
14	0x3d59152d	0.05299871
15	0x3d26b907	0.0407038
16	0x3eccd4fd	0.40006247
17	0x3d440dfc	0.0478649
18	0xbce55dc3	-0.02799881
19	0xbd2a2ab7	-0.041544642
20	0xbdfd2f70	-0.123625636
21	0xbd38a49e	-0.045078866
22	0xbd59cb4f	-0.053172406
23	0x3ce99694	0.028514184
24	0x3d109dba	0.03530667
25	0xbe170786	-0.14748964
26	0x3c10c112	0.008835094
27	0x3f155245	0.5832866
28	0x3e241351	0.16022994
29	0xbdd5ed55	-0.10445658
30	0xbe394d29	-0.1809584
31	0x3d225d69	0.039639864
32	0x3f125e6b	0.5717532
33	0xbc9ce64b	-0.019152781
34	0xbd1cb25c	-0.038256034
35	0xbc97adfe	-0.018515583
36	0xbe1923ae	-0.14955017
37	0xbe03506d	-0.12823649
38	0x3d4e47a3	0.050361287
39	0x3db73c7a	0.08947082
40	0xbc9d3fc1	-0.01919544
41	0xbe93bc9e	-0.2885484
42	0xba344257	-0.00068763405
43	0xbd01784e	-0.031608872
44	0x3c9a1575	0.01880906
45	0xbe220ec1	-0.1582594
46	0x3c912c1d	0.01772123
47	0xbd147a01	-0.036249164
48	0x3c1dd576	0.009633413
49	0xbe14ec0e	-0.14543173
50	0xbe7b7688	-0.24556935
51	0xbe256c85	-0.16154678
52	0x3c466907	0.012110001
53	0x3c3d510c	0.011554968
54	0x3d09ac7c	0.03361176
55	0xbbfd5c26	-0.007731932
56	0x3dadc8d9	0.08485574
57	0xbdeea512	-0.116525784
58	0xbbce8691	-0.0063026627
59	0xbe0bc544	-0.1364947
60	0xbe06fda9	-0.13182701
61	0x3d45d471	0.048298303
62	0xbd236a47	-0.039896276
63	0x3d3594f8	0.04433152

lin5.weight f4 [1, 64]
0	0xbd72dcf1	-0.059292737
1	0x3f480249	0.78128487
2	0xbde22e9f	-0.110440485
3	0xbbfa1121	-0.0076314365
4	0xbdb42b0f	-0.08797275
5	0x3f76333a	0.96171916
6	0x3d79c667	0.060980227
7	0x3ce95923	0.028484887
8	0x3d82e784	0.06391814
9	0xbe161628	-0.1465689
10	0xbd923ab7	-0.07140105
11	0xbcdc984d	-0.026928091
12	0xbc78af13	-0.01517846
13	0x3e5ba072	0.21447924
14	0xbe03eafd	-0.1288261
15	0xbe195374	-0.14973241
16	0x3e87a0ae	0.26489776
17	0xbd8b0c8e	-0.06789504
18	0xbc2b6d44	-0.010463063
19	0xbd28755c	-0.041127548
20	0xbc984506	-0.0185876
21	0x3c1a7fcc	0.009429883
22	0xbd5c22e1	-0.0537442
23	0xbe07824b	-0.13233297
24	0xbe025df2	-0.1273115
25	0xbc91061d	-0.01770311
26	0xbe3cbccc	-0.18431395
27	0x3ef53c44	0.47897542
28	0xbfa287cd	-1.2697693
29	0x3d184c94	0.037182406
30	0x3c00f31d	0.007870463
31	0xbe08bb02	-0.13352588
32	0x3f1c0f30	0.60960674
33	0xbe0fc96e	-0.14041683
34	0xbd2dd132	-0.042435832
35	0xbd8b63fe	-0.06806181
36	0xbce521d9	-0.027970241
37	0x3d0a11f2	0.03370852
38	0xbdd92a6a	-0.10603793
39	0xbd2ecbfe	-0.04267501
40	0xbd5e344c	-0.054249093
41	0x3efde798	0.49590755
42	0xbbb3342e	-0.005468867
43	0x3d819ba6	0.06328516
44	0xbe4c65da	-0.19960728
45	0x3cb5438a	0.022126932
46	0xbe455198	-0.19269407
47	0x3d341a31	0.04397029
48	0xbd0a77bb	-0.03380559
49	0xbca7fbc5	-0.020505795
50	0x3f5fd7b1	0.87438494
51	0x3e09f1cb	0.13471143
52	0xbd3ed771	-0.04659218
53	0xbe2b2a6f	-0.16715406
54	0xbdb10ec0	-0.086453915
55	0x3d5a713e	0.053330652
56	0x3ca4449f	0.020052252
57	0xbd86716e	-0.06564604
58	0xbe17a4d0	-0.14808965
59	0xbdc192ea	-0.0945185
60	0x3bc0a4d7	0.0058790254
61	0xbdee5bf4	-0.116386324
62	0xbdb97c00	-0.09056854
63	0xbba45725	-0.0050152713

exp_avg f4 [5, 2]
0	0xba567aca	-0.0008181749
1	0xbb15baff	-0.0022847054
2	0x3b7c5a20	0.0038505867
3	0x3b356dfd	0.0027683966
4	0x3bf76368	0.007549692
5	0x3b2e77c9	0.002662169
6	0xbc00633e	-0.007836161
7	0xbaffaea5	-0.0019507004
8	0xbc8a406c	-0.016876422
9	0xbcad495b	-0.021153143

exp_avg_sq f4 [5, 2]
0	0x3a927650	0.0011174176
1	0x3be2f8fc	0.006926654
2	0x3c68d4db	0.014210905
3	0x3c45270e	0.012033237
4	0x3db8d8c6	0.09025721
5	0x3c6f132d	0.014591974
6	0x3d69893a	0.057015635
7	0x3b4475f3	0.002997753
8	0x3ee32ed6	0.4437167
9	0x3edae3f7	0.42752048

exp_avg f4 [64, 10]
0	0xb86200d0	-5.3883356e-05
1	0xb93dd8e4	-0.00018105243
2	0xb905c31e	-0.00012756555
3	0x37ddf932	2.6461294e-05
4	0x38c399da	9.326982e-05
5	0xb8aa71d3	-8.127433e-05
6	0x3906a8d8	0.00012842135
7	0xb9457128	-0.00018829538
8	0xb8f03bd1	-0.000114552335
9	0x387f3246	6.084356e-05
10	0xb799691d	-1.8287968e-05
11	0xb7424d0c	-1.158124e-05
12	0xb8107a4d	-3.4446177e-05
13	0x390a8ac7	0.00013212404
14	0xb9880da1	-0.00025950096
15	0x389fb11c	7.6147e-05
16	0x3789dcac	1.6434431e-05
17	0x380272d3	3.1101354e-05
18	0x38066554	3.204246e-05
19	0x382e0206	4.1486717e-05
20	0xb7a269b3	-1.9361125e-05
21	0xb9033621	-0.00012513298
22	0x38b6bb98	8.713378e-05
23	0x390d9d9f	0.00013505526
24	0xb9185b2c	-0.00014529814
25	0x38a355f7	7.788458e-05
26	0xb8c4d2d6	-9.3852796e-05
27	0xb8b9835a	-8.8459536e-05
28	0x38ddb7dc	0.00010572348
29	0x3840ffbc	4.601454e-05
30	0x365bfed0	3.2781863e-06
31	0xb9106523	-0.00013770587
32	0xb8cc6e30	-9.748002e-05
33	0x39082ccc	0.00012986659
34	0xb7b7b010	-2.1897285e-05
35	0x38bc1a82	8.969476e-05
36	0xb897b921	-7.234724e-05
37	0xb8142976	-3.5324563e-05
38	0x38816c2e	6.1713494e-05
39	0x384770e8	4.755045e-05
40	0x38815ae9	6.168133e-05
41	0x38ae17d9	8.3014085e-05
42	0x37c713b6	2.3731827e-05
43	0x3893d7d1	7.049705e-05
44	0xb94227b7	-0.00018516077
45	0x38954af2	7.118833e-05
46	0xb916da5d	-0.00014386461
47	0x38c32b20	9.306357e-05
48	0x38d36e04	0.00010081756
49	0x3757ff40	1.2874429e-05
50	0xb7385506	-1.0987051e-05
51	0xb8cd5afe	-9.79211e-05
52	0xb90a6040	-0.00013196561
53	0xb86b056c	-5.6033416e-05
54	0x38a3f90c	7.818834e-05
55	0x389831dd	7.2572126e-05
56	0xb91621f8	-0.00014317769
57	0x3941aa05	0.00018469252
58	0xb8fb2752	-0.00011975937
59	0xb96d5a1a	-0.00022635647
60	0xb7a588b6	-1.9733194e-05
61	0xb7d897d5	-2.5819909e-05
62	0xb6e2a84a	-6.7549163e-06
63	0x35594420	8.0937934e-07
64	0xb88c4db4	-6.6901935e-05
65	0x381b2226	3.6986683e-05
66	0xb7637cd0	-1.35593145e-05
67	0x37fd1c62	3.0173167e-05
68	0xb7dbe101	-2.621161e-05
69	0x377f6d9e	1.5224707e-05
70	0xb903815a	-0.00012541321
71	0xb816f3db	-3.5989895e-05
72	0xb7c1b3a9	-2.3091054e-05
73	0x38c3d2c6	9.337584e-05
74	0xb7b7fa1d	-2.1931768e-05
75	0x3811e4bd	3.4783723e-05
76	0xb927465c	-0.00015952572
77	0x396733de	0.00022049199
78	0xb8eaf994	-0.00011204477
79	0xb8c23fb0	-9.2625036e-05
80	0x38cbb3b0	9.713264e-05
81	0x384b7b9c	4.851409e-05
82	0x37d37a1d	2.5210024e-05
83	0x3806197e	3.197183e-05
84	0xb8859752	-6.37012e-05
85	0xb7ab294e	-2.0404023e-05
86	0x372720a0	9.961572e-06
87	0x3723be08	9.759802e-06
88	0x36ac1a70	5.129077e-06
89	0x382b1940	4.0793093e-05
90	0xb6b60cc0	-5.425507e-06
91	0x38d9a624	0.000103783124
92	0x396c00b3	0.00022506974
93	0x3967ff36	0.0002212495
94	0x3723fba8	9.77415e-06
95	0xb8d5c2fb	-0.000101929494
96	0x393f9fa6	0.00018274653
97	0xb91796f4	-0.00014456717
98	0x381d13fa	3.745032e-05
99	0x3907677e	0.00012913157
100	0xb7dd7492	-2.6399535e-05
101	0xb64461e0	-2.9263247e-06
102	0xb74e2b06	-1.2288574e-05
103	0xb7f23f71	-2.887819e-05
104	0xb75d8f55	-1.3205999e-05
105	0x3827a080	3.996538e-05
106	0xb751669a	-1.248126e-05
107	0x37ab96ea	2.0455063e-05
108	0xb71e2bdd	-9.427747e-06
109	0xb709e6cc	-8.219573e-06
110	0xb7a1ea4c	-1.9301799e-05
111	0x365c6510	3.284138e-06
112	0xb7d5ddf4	-2.5494934e-05
113	0xb7b8868a	-2.1997159e-05
114	0x388f1a0e	6.8236244e-05
115	0xb4f74cc0	-4.6063178e-07
116	0xb76f583c	-1.4266054e-05
117	0xb62f8120	-2.6152193e-06
118	0x36a13868	4.8047405e-06
119	0xb6495f64	-3.0006859e-06
120	0x3916bfe4	0.000143766
121	0x3902f164	0.00012487691
122	0x393ac024	0.0001780992
123	0xb692bed8	-4.373356e-06
124	0x393d4cc9	0.0001805305
125	0xb808b56b	-3.2593885e-05
126	0xb819507b	-3.6552996e-05
127	0xb891fe18	-6.9614674e-05
128	0x386634b2	5.488535e-05
129	0x3784cab4	1.5830017e-05
130	0x3902ae16	0.00012462618
131	0x38d0fc27	9.96518e-05
132	0x37a03720	1.9099156e-05
133	0xb8458b14	-4.7097987e-05
134	0x37caf63c	2.4194938e-05
135	0x36d5dc3c	6.3735333e-06
136	0x3814dfda	3.5494428e-05
137	0xb7c23010	-2.3148983e-05
138	0x387ec696	6.0743267e-05
139	0x371e416a	9.432764e-06
140	0xb8a189d9	-7.7027544e-05
141	0xb8674414	-5.5138094e-05
142	0xb810d55a	-3.4530975e-05
143	0x37d58995	2.5455645e-05
144	0x3783ff54	1.5735313e-05
145	0xb80d055b	-3.3622007e-05
146	0xb81f77a2	-3.801997e-05
147	0x380fb735	3.426448e-05
148	0xb7393ddd	-1.1041263e-05
149	0xb88c9f09	-6.705343e-05
150	0xb8ae8d23	-8.323255e-05
151	0xb8c0140b	-9.159007e-05
152	0xb7598810	-1.2965887e-05
153	0x37fd7497	3.0214242e-05
154	0xb80d89b5	-3.374527e-05
155	0x367823c0	3.697569e-06
156	0xb8b421db	-8.589375e-05
157	0x38eb1d6c	0.000112111535
158	0xb791e1d3	-1.7390505e-05
159	0xb8e2fc03	-0.000108234606
160	0x381a6ff1	3.6820715e-05
161	0x3840d9a4	4.597906e-05
162	0xb78ca7e0	-1.6767473e-05
163	0xb7874840	-1.6126898e-05
164	0x388eb84c	6.8054156e-05
165	0xb94076f2	-0.00018354857
166	0x35cceb78	1.5267715e-06
167	0xb8fa5bee	-0.00011938052
168	0x38f37434	0.000116087875
169	0x37a0b67d	1.9158464e-05
170	0x3773a352	1.4521955e-05
171	0x3883129a	6.2500316e-05
172	0x37fd7e38	3.0218725e-05
173	0xb7aad463	-2.036448e-05
174	0x38f6d2b1	0.000117694384
175	0xb8846869	-6.3136984e-05
176	0x38083112	3.2470627e-05
177	0xb79b0712	-1.8480732e-05
178	0x37dbf25a	2.6219688e-05
179	0xb7f8a10a	-2.9638893e-05
180	0xb88c1942	-6.680425e-05
181	0xb880c149	-6.139518e-05
182	0x378c6408	1.6735881e-05
183	0x394c58ee	0.00019488085
184	0xb94d56df	-0.00019582685
185	0x38ef9af5	0.00011425271
186	0xb80e6027	-3.3944987e-05
187	0x3842601f	4.6342724e-05
188	0x38246638	3.9195846e-05
189	0x34506580	1.9408435e-07
190	0x38193fca	3.653745e-05
191	0x37e3aba4	2.7140435e-05
192	0x37b98eb9	2.2120179e-05
193	0xb861173b	-5.3665815e-05
194	0x37fa72de	2.9855812e-05
195	0x379a75de	1.8413117e-05
196	0x3733e12e	1.072166e-05
197	0xb819436e	-3.654084e-05
198	0x37347f66	1.0758498e-05
199	0x37869eaa	1.6047929e-05
200	0x391fe31c	0.00015248026
201	0x3981dd2b	0.0002476958
202	0x39804be7	0.00024470614
203	0x37f266e8	2.8896568e-05
204	0xb8c9ed12	-9.628585e-05
205	0xb92abcc7	-0.00016282788
206	0x390c4bea	0.0001337972
207	0xb8eb9adc	-0.00011234518
208	0x38237c48	3.8977974e-05
209	0x38c8f4d6	9.5823474e-05
210	0xb8ce8de6	-9.849276e-05
211	0xb8b9bd07	-8.8566965e-05
212	0xb8353b16	-4.320879e-05
213	0x37d54382	2.5423014e-05
214	0x38f8744a	0.00011847222
215	0xb791eb54	-1.739493e-05
216	0x37fed3a4	3.0377712e-05
217	0xb841f79a	-4.6245383e-05
218	0x37ad4b8c	2.0658386e-05
219	0xb847dc10	-4.7650246e-05
220	0xb6358c80	-2.7052884e-06
221	0xb8db1713	-0.00010447032
222	0xb81ee649	-3.7884605e-05
223	0x3846b292	4.7373185e-05
224	0xb8e87f4f	-0.00011086335
225	0x388e4679	6.784214e-05
226	0xb8258d84	-3.9470862e-05
227	0x383a28e6	4.4383945e-05
228	0xb8b20a10	-8.489576e-05
229	0x37c9683c	2.4009605e-05
230	0x382aeaa8	4.07497e-05
231	0x37508f94	1.24311955e-05
232	0xb861cc50	-5.383446e-05
233	0x37670bb8	1.3771401e-05
234	0xb68de0e3	-4.2283077e-06
235	0x36a9df30	5.062575e-06
236	0x382d1c38	4.1272695e-05
237	0xb45c7200	-2.053057e-07
238	0xb7810af0	-1.5383092e-05
239	0x38372550	4.366535e-05
240	0xb82cfc97	-4.124324e-05
241	0x37beafea	2.2731681e-05
242	0xb7ccff00	-2.4437439e-05
243	0xb7f745f0	-2.9477262e-05
244	0x387e8040	6.067776e-05
245	0xb7bad4de	-2.2272052e-05
246	0x3836f614	4.362136e-05
247	0xb8d8a63a	-0.00010330645
248	0x38c2f8a3	9.296953e-05
249	0x36ffe660	7.6264114e-06
250	0xb83d668f	-4.5156627e-05
251	0x364f54a0	3.0894662e-06
252	0xb819caf1	-3.6667047e-05
253	0x380ade06	3.310854e-05
254	0x38364180	4.3453183e-05
255	0x3888ccfe	6.523168e-05
