model_checkpoints/fourier_relu_32/checkpoints/epoch=1999-step=2000.ckpt (torch, 57502 bytes, 30 tensors)

B f4 [5, 2]
000000 6b 88 3b 3f 78 a1 7e 3f 0c 1c 8d be 42 dd 81 be
       0.7325503 0.9946513 -0.2756046 -0.2536412
000010 82 a6 94 be 8f 9b 96 3e e6 18 4e 3f 9c 9b 8b 3d
       -0.29033285 0.29415557 0.8050674 0.068167895
000020 b9 a4 2e 3e d9 12 a2 3e
       0.17055024 0.31655005

lin1.weight f4 [32, 10]
000000 4c bd f5 bd 2e bf 23 3e 2b 6a b7 3b 7d 81 b5 be
       -0.11998996 0.15990898 0.005597373 -0.35450354
000010 3a 04 a0 be da 88 1e 3c d5 30 e2 bd 08 77 a4 bf
       -0.31253225 0.009676183 -0.1104447 -1.2848825
000020 87 42 21 3e 1e a8 d1 be 79 36 9a 3d f0 47 d5 3c
       0.15748034 -0.40948576 0.07529921 0.026035279
000030 f7 fc 68 3e b4 6e 4d 3e 96 9f af 3e e4 7d 1a 3d
       0.22752748 0.20061761 0.34301442 0.037717715
000040 04 4b bf be d2 a0 98 bf 08 02 0c 3e c5 ce 99 be
       -0.3736192 -1.1924078 0.1367265 -0.30040565
000050 13 d1 21 bf c1 62 04 3e eb 78 3d be 33 53 17 bd
       -0.63209647 0.12928297 -0.18503158 -0.03694458
000060 c8 b3 a1 be 31 7c 23 bd 6f e6 c2 be dc 82 d0 3e
       -0.31582475 -0.03991336 -0.38066432 0.40724838
000070 ce 2b e2 3e c0 4c bb be 3b 5c d2 be 98 37 a2 be
       0.44174045 -0.36581993 -0.4108599 -0.3168304
000080 b1 d5 83 be e7 e2 c1 bc 1c 8c 94 3e 2a 68 e3 3e
       -0.2574897 -0.023667766 0.29013145 0.44415408
000090 51 3a a9 be cb 4d 5f bd d1 ad 89 3e f5 3f e7 bd
       -0.33052304 -0.05451755 0.26890424 -0.11291496
0000a0 04 24 82 3e 29 98 85 be 48 03 63 3e 06 30 4a 3e
       0.25418103 -0.2609265 0.2216922 0.19744882
0000b0 53 8c 4e 3e f8 a9 9c 3e e6 dd 6b bf 66 24 37 bf
       0.20170717 0.30598426 -0.92135465 -0.71539915
0000c0 72 a9 35 be 4d f2 11 3e 74 24 1d ba c2 3c 40 3e
       -0.1774042 0.14252587 -0.00059945066 0.18773177
0000d0 77 3c dc be 59 ec e8 3d 22 f0 b9 bd 2e a3 89 3e
       -0.4301488 0.11373205 -0.09079005 0.2688231
0000e0 e2 6d 98 3d 01 2a 9e 3e 78 02 90 3e 04 3c 03 3b
       0.074428335 0.3089142 0.28126884 0.0020024786
0000f0 0f 02 c2 be 58 37 1d 3d 00 50 11 be 6d 68 14 3e
       -0.37892196 0.038382858 -0.14190674 0.1449296
000100 d6 06 cf be b0 ea 02 3f d4 cd f9 be 65 fd f0 be
       -0.40434903 0.51139355 -0.48789847 -0.47068325
000110 20 f2 18 3f 43 7f a2 3c 81 f7 a8 bd 66 8f d9 be
       0.59744453 0.019836074 -0.082503326 -0.42492217
000120 b3 89 84 be cf ef b5 3e df 2d e0 3d a4 d2 93 bd
       -0.25886306 0.35534522 0.10946249 -0.07217911
000130 0f df de bd 80 fc af 3e 10 d9 e4 bd 37 9f 95 3e
       -0.10882389 0.3437233 -0.11174214 0.29223034
000140 6b d3 5d 3d 89 df 2e bd 8c e5 00 3e 6d 98 9b 3e
       0.054156702 -0.04269365 0.12587565 0.3038973
000150 29 1a 85 3e 7e 7c ad be d7 e7 2e bf 4a 1b fc bd
       0.2599652 -0.33884043 -0.6832251 -0.123098925
000160 d5 15 4a 3f cb b3 30 3e 44 88 a3 3e 46 57 d3 bb
       0.78939563 0.17256086 0.319399 -0.006449613
000170 c4 57 2b be 21 10 a8 3e 53 b6 04 3f 21 55 1d 3e
       -0.16732699 0.32824805 0.51840705 0.15364505
000180 4c dd 11 bd 01 29 d5 be 10 9a a5 3e 9c 4c 6f be
       -0.035611436 -0.41632846 0.32344103 -0.23369068
000190 73 df c4 3e 6d ff d5 3c 30 bc ce be a9 7d 08 3f
       0.38451728 0.026122773 -0.4037795 0.5331674
0001a0 33 2c 01 3f 94 37 07 3f 02 d0 c2 3d 25 ba d1 bd
       0.5045807 0.5281918 0.095123306 -0.102405824
0001b0 4a b3 b7 3e b8 7a 1e be 21 61 b9 3e ba 6d c1 be
       0.35878974 -0.15476501 0.36206916 -0.37779027
0001c0 8a d1 b2 3d 30 6d d4 3e 57 24 e7 3e 2c 55 8b 3c
       0.08731373 0.41489553 0.45144913 0.017008387
0001d0 59 45 10 3e e2 5e 7c bc 8b 35 d8 3e 47 44 09 3d
       0.14088954 -0.015403481 0.4222835 0.03351238
0001e0 80 1a ad be 9f 49 75 3e 81 27 a3 bd ef 76 87 be
       -0.3380928 0.23953865 -0.07966519 -0.26457927
0001f0 89 90 44 be f3 9f 9f be 20 f7 5b bf 91 18 ad 3e
       -0.19195761 -0.3117672 -0.8592396 0.33807805
000200 49 7c 54 3e 68 3f f6 be 20 7f 09 be 31 20 8a bd
       0.20750536 -0.4809525 -0.134274 -0.06744421
000210 38 0f b6 3d b3 e4 e6 3c d0 fc 1b be 2c cf 07 be
       0.088896215 0.028185224 -0.15233159 -0.13262624
000220 e2 81 7d bd df 31 53 bd 3c 73 91 3d ee 32 58 be
       -0.061891444 -0.051561233 0.07102057 -0.21113178
000230 0e 77 b3 be 14 de 39 3e 8a 99 ca be 41 2a aa 3e
       -0.3505177 0.18151122 -0.39570266 0.33235362
000240 ed cf 59 be f4 31 b2 3e 63 44 8a 3d c6 22 18 3e
       -0.21270724 0.34803736 0.06751325 0.14857015
000250 71 18 39 3e 47 33 29 3d d9 59 9c be 71 7a 9f 3e
       0.1807573 0.041308668 -0.30537298 0.31148103
000260 23 80 e5 be e8 67 54 3e 14 02 8e bc 13 ec 20 3f
       -0.44824323 0.20742762 -0.017334975 0.6286022
000270 b1 e7 be be 94 9c e3 be ae 7d 8a 3e 8f a7 ea bd
       -0.37286142 -0.44455397 0.2704901 -0.114577405
000280 ba 0f 68 be 6a 3b fa be f0 a4 a1 3e 1e a8 f8 bd
       -0.22662249 -0.48873454 0.3157115 -0.12141441
000290 69 90 13 3e e4 0c 4f bd 45 dd 42 3c 5c b8 4e bf
       0.14410557 -0.050549403 0.011893575 -0.8075006
0002a0 62 61 c9 be c9 c2 04 bf 18 d8 44 3e ac f0 9e be
       -0.3933211 -0.5185972 0.19223058 -0.31042993
0002b0 de 5c 54 be 80 a7 85 3d 4d ab 90 3d b4 3a b3 be
       -0.20738551 0.06526089 0.07063923 -0.35005724
0002c0 15 5f 00 bc 74 1b c6 3e 80 be ad be 2f 5d 1e 3e
       -0.007835169 0.3869282 -0.33934402 0.15465234
0002d0 2c 20 b9 be e0 61 47 be a7 b7 cd be 9e 59 a6 be
       -0.36157358 -0.1947093 -0.40179178 -0.32490247
0002e0 d7 ae 9b 3d 72 b0 a2 bd 32 57 75 be e0 16 d4 ba
       0.076017074 -0.079438105 -0.23959044 -0.0016181134
0002f0 bf 48 00 bf d5 f5 5d 3e 28 7a 51 3e 3b 70 45 3d
       -0.50111 0.21675809 0.20456755 0.048202734
000300 97 22 be bd 98 30 cf 3d 47 3a 20 3e 9d d5 e3 be
       -0.09283941 0.101166904 0.15647231 -0.44498911
000310 13 70 93 3d 1a 53 27 3f a5 de 86 be 19 dd 1c bd
       0.07199111 0.6536118 -0.2634174 -0.038296793
000320 b0 43 e6 be be 1c 9f bd a5 4c e0 3c 78 fc 43 be
       -0.44973516 -0.07769154 0.027380297 -0.19139278
000330 89 49 a7 be b1 d3 db 3d 67 cc ac be 13 b8 56 bf
       -0.3267329 0.10733736 -0.33749697 -0.83874625
000340 3c ab fc 3e 89 a3 c9 be e4 26 13 3e ca ff 72 bd
       0.4934939 -0.3938258 0.14370304 -0.05932597
000350 82 25 66 be a5 54 aa 3e 89 3f 20 3e b4 3a 8b 3e
       -0.22475246 0.33267704 0.15649237 0.27193224
000360 9d ab 92 bd b1 a2 e1 3d 2d 82 94 3e 8b 48 b3 3e
       -0.07161639 0.11017359 0.29005566 0.35016283
000370 97 f4 18 3f d2 f2 0f be 2d 3d e4 3d 24 a6 14 3f
       0.59748214 -0.14057472 0.11144481 0.5806601
000380 48 0d fe 3e df f9 6c 3c 28 12 9e be df a0 10 bf
       0.49619508 0.014463871 -0.30873227 -0.5649547
000390 eb 36 ec 3e ba ab 67 be e5 ab 39 3e f1 69 e8 3d
       0.4613565 -0.22624102 0.18131979 0.11348332
0003a0 d9 4c eb bd a8 88 98 3e ad 64 86 3e 49 2a 20 3d
       -0.11489267 0.2979176 0.26248685 0.039102826
0003b0 48 b1 0c 3e 54 86 9c bf 97 5b 80 3e 36 02 8d be
       0.13739502 -1.2228494 0.25069878 -0.2754075
0003c0 b5 7c c6 bd 58 b7 8a bd 92 1f b9 3e 34 9e 84 3e
       -0.09691755 -0.06773251 0.361569 0.2590195
0003d0 3a 17 9b be b1 25 3e 3e 0f ae 09 bf 9d 71 48 bf
       -0.30291158 0.18569066 -0.5378122 -0.7829836
0003e0 01 09 33 3f 79 fa 9b be 56 80 8e bd d7 3b 25 bd
       0.69935614 -0.30464533 -0.06958072 -0.04034027
0003f0 e6 b6 c1 bd 7d 97 07 3e 9c db fb 3e 81 e7 22 3d
       -0.09458713 0.13241382 0.49190986 0.03977156

lin1.bias f4 [32]
000000 51 57 e7 3c 32 f6 10 3d a7 d8 b5 be d2 8c 86 bc
       0.028239878 0.03539104 -0.35516855 -0.01642457
000010 14 a9 3e be 27 e7 50 be 33 09 4c 3e 3a 0e 17 3e
       -0.18619186 -0.20400678 0.19925384 0.14751521
000020 e7 fb 17 be b8 4f 3b 3e a2 43 f3 bd c9 da 37 3e
       -0.14842187 0.18292129 -0.11878134 0.17954554
000030 33 81 83 be 88 32 3d be ac 2b bd 3d d8 09 6c 3d
       -0.2568451 -0.18476307 0.092368454 0.057626575
000040 4d 10 d6 be 98 fb 99 3c dd 55 9c bd bc f0 82 be
       -0.41809312 0.018796727 -0.076335646 -0.2557429
000050 9a 82 19 bc 03 a2 85 3e 06 45 6f be a0 f5 c2 bd
       -0.009369517 0.26100168 -0.23366174 -0.095195055
000060 0b 78 52 be 9f f1 53 be 69 9d 2f be 99 36 de bd
       -0.20553605 -0.2069764 -0.17149891 -0.108502574
000070 4b d7 59 be f8 a1 25 be 2d ca e1 bd 02 c1 e7 bc
       -0.21273534 -0.16175067 -0.1102489 -0.028290275

lin2.weight f4 [32, 32]
000000 d3 76 ce 3e cd 61 02 3f 68 1b 68 3e 6a 12 ed 3c
       0.4032503 0.5093048 0.22666705 0.028939445
000010 50 a1 73 be 74 96 75 be a0 90 ef bd 11 cb b3 be
       -0.23792005 -0.23983175 -0.11697507 -0.35115865
000020 db 09 3e bd c2 90 70 bc ef 0f 71 3d 54 bd da 3c
       -0.046396118 -0.01468295 0.058853086 0.026701607
000030 55 6a 13 3f b1 04 34 3e 15 86 b4 3d 6c 2a d1 3d
       0.57584125 0.17579915 0.088146366 0.102131695
000040 19 7a 31 3f b6 65 84 be e4 ce 3d 3e 07 93 e5 3b
       0.6932693 -0.2585885 0.18535954 0.0070060524
000050 59 72 93 3c ff 57 86 bd 77 53 0d 3e d4 10 78 3e
       0.017998861 -0.06559753 0.1380137 0.2422517
000060 3c 4c c0 3e 1c 1e a9 3d 33 e8 5b 3e ad 9a 88 3e
       0.37558162 0.08257696 0.21475296 0.26680508
000070 9e 3c 83 ba 83 60 6d 3e ba b4 1b bd 52 00 fb 3e
       -0.0010012572 0.23181348 -0.03801415 0.49023682
000080 fa 5c 46 be de 68 84 bd a7 43 31 3d 5d c5 1f 3b
       -0.19371405 -0.06465314 0.04327741 0.0024379112
000090 5b cc 20 be d5 2c 4c 3d 00 0c 39 3c 8d e5 6a bd
       -0.15702955 0.049847443 0.011294365 -0.057347823
0000a0 e9 e2 17 be 4d d9 8a bd 66 55 67 be 37 0a 1f bd
       -0.14832653 -0.06779728 -0.2259117 -0.0388281
0000b0 74 ab cd bd 14 69 38 3d aa 12 59 bd 75 9e 55 be
       -0.10042468 0.045022085 -0.052996315 -0.20861228
0000c0 ad 5c 43 be e7 cb 1d 3d b2 2a 2b be 11 a3 c9 bd
       -0.19078322 0.038524535 -0.16715506 -0.098455556
0000d0 e6 ff 35 be a9 c8 81 bd 20 fe 11 be c7 de 7f 3d
       -0.17773399 -0.06337101 -0.14257097 0.062468316
0000e0 07 58 5f bd c6 54 03 be c2 21 b2 bd 38 32 1f be
       -0.05452731 -0.12825307 -0.08697845 -0.155465
0000f0 83 55 05 be 3a aa 92 3d e0 26 ff bd 96 14 de bd
       -0.13020901 0.071613744 -0.12458587 -0.1084377
000100 00 6a ef ba e0 57 68 bc 38 b3 5d 3d d0 23 17 3c
       -0.0018265843 -0.014181107 0.054125994 0.009224847
000110 08 b9 43 3d 6d 0f 2b be fb df 2c 3e d2 49 d8 bd
       0.04778388 -0.16705103 0.16882317 -0.10560955
000120 55 79 27 be 40 29 60 bc 0f 84 d1 bd 65 14 30 be
       -0.16354878 -0.01368171 -0.10230266 -0.1719528
000130 3a 22 c8 bd c1 16 2c 3e 14 0d 1a be 92 0f 18 be
       -0.09772153 0.16805555 -0.15044051 -0.1484969
000140 9c 67 3d 3d d0 e2 4c bc 90 22 3a bd 90 44 c6 3c
       0.046241388 -0.012505248 -0.045443118 0.024202615
000150 ae c3 83 3d 00 90 8e b8 1c 31 3c bd a0 3a b2 3c
       0.06433807 -6.79791e-05 -0.04594527 0.02175647
000160 f4 6f fd bd 63 bf 08 be 98 93 ac 3c 06 93 b6 3d
       -0.12374869 -0.13354258 0.021066472 0.08914761
000170 50 53 7d bc 88 61 80 3c 09 38 2e 3e 24 3b af bd
       -0.015461758 0.015671507 0.17013563 -0.08556202
000180 bd 74 87 3d 32 83 26 bd c4 0e c3 3d 6e e9 31 be
       0.06614063 -0.04065246 0.09524301 -0.17374203
000190 98 7d 15 bb f3 e1 8c bd 7b 1c 31 bc 95 06 8a 3d
       -0.0022810455 -0.06879034 -0.010810013 0.06739537
0001a0 6f 2b 6a bd 9e b5 3b be 32 81 11 be 0c 21 7c bd
       -0.057170328 -0.18331 -0.1420944 -0.061554953
0001b0 79 00 44 bd 21 53 72 bd 2b ec dc bd 69 5a 3e be
       -0.047852013 -0.05916131 -0.10787233 -0.18589176
0001c0 bb 1d 12 3b 53 8c 34 be 66 5b 1d bc fb 0e 76 bd
       0.0022295553 -0.17631654 -0.009604311 -0.06007288
0001d0 ec a9 08 bd 2e f4 47 be d8 fe 3e 3d 20 45 08 bc
       -0.033365175 -0.19526741 0.046629757 -0.008317262
0001e0 8a 3e 9a bd c0 74 1c be f6 b6 20 bc f4 90 cf bd
       -0.0753146 -0.15278912 -0.009809246 -0.101350695
0001f0 d1 c4 ba bd 41 57 4b be 26 c4 0c be aa 00 b6 bd
       -0.09119571 -0.19857503 -0.137467 -0.088868454
000200 5c 99 3a 3f 01 db 04 3f 8f 35 f9 3e 7c 38 0d 3e
       0.7289026 0.51896673 0.48673674 0.13791078
000210 8c b5 0b be 4c 65 44 3e 19 71 aa 3e c4 4d a2 3d
       -0.13643473 0.19179267 0.33289412 0.07924989
000220 39 45 19 3e 7b e4 ac bc 46 93 b7 3e 35 d0 9b be
       0.14967813 -0.021105042 0.35854548 -0.30432287
000230 86 b4 cb 3e b0 9b 0b be 86 1e 75 3e bf a3 a7 3d
       0.39786166 -0.13633609 0.23937425 0.08185529
000240 a2 e1 30 be 31 ee b8 3b 0b 64 22 be 16 51 05 bd
       -0.17273572 0.005643629 -0.15858476 -0.032548033
000250 39 9b e2 be 19 c5 a8 3d 2a c8 9c bf 1c 9e 89 bf
       -0.4425905 0.082407184 -1.2248585 -1.0751376
000260 41 7e 7d 3e 33 f0 ab 3e 86 04 19 3f e1 28 c9 3d
       0.24755193 0.33581695 0.5977253 0.0982225
000270 05 79 6b 3d be c1 22 3f 30 89 7f bf b0 a4 6f 3e
       0.05748846 0.6357688 -0.99818707 0.23402667
000280 3b 0d 6d be ab ab 3f be cb 36 6c be 10 4a 8d bd
       -0.23149578 -0.1871783 -0.23067777 -0.06898892
000290 6b 4f 4b be df db 50 bd 2f a4 28 be 10 ee 8a bd
       -0.19854514 -0.050990935 -0.16468881 -0.06783688
0002a0 6c 89 4f be e7 87 85 bd f7 93 c0 3d 06 fb 58 be
       -0.20267266 -0.06520062 0.09403222 -0.21189508
0002b0 19 07 6f be 21 d1 ff 3c cb 75 bc be 87 ee 4f be
       -0.23342551 0.03122765 -0.3680862 -0.20305835
0002c0 5e 2f 1f be 76 86 b2 bc 04 39 95 3b 77 3c 74 be
       -0.15545413 -0.021792632 0.004553916 -0.2385119
0002d0 19 46 81 bd 60 30 44 be 9b b4 09 be 30 3a ed bd
       -0.06312198 -0.19159079 -0.13447802 -0.11583364
0002e0 cf 5e e2 3d 9e 45 49 be cb 6d fb bd 42 9d 21 3e
       0.110532396 -0.19655463 -0.12276801 0.15782645
0002f0 09 3b a0 be 2f 64 7f be 5e 66 42 be f7 bd 17 be
       -0.3129504 -0.24940561 -0.18984362 -0.1481856
000300 3d d9 96 3f 2f 03 57 be b6 87 3f 3e f2 17 89 3d
       1.1785046 -0.20997308 0.18704113 0.0669402
000310 08 70 0d bf cb ec 39 3e 1b ec 15 be 29 c6 7d 3e
       -0.5524907 0.18156736 -0.14640848 0.24782623
000320 81 f9 76 3e fd 0e b9 be eb ae 10 3c c7 f5 3b 3d
       0.24118616 -0.36144248 0.008830766 0.04588869
000330 dd 14 ab 3c d4 67 87 3d b1 3d 09 3e 1a 7c a2 be
       0.020883972 0.066116005 0.1340244 -0.31735307
000340 02 4c 11 3f 0a ba 3d 3e 28 c6 21 3d 69 63 f4 be
       0.56756604 0.18528 0.039495617 -0.47732094
000350 ba 0c 9d bf 23 34 9a 3e b3 c6 84 be ce c6 01 bf
       -1.2269509 0.30117902 -0.25932845 -0.50693977
000360 03 27 9f b8 7c ec d1 3e f3 15 3f 3f 2b be 05 bf
       -7.588977e-05 0.41000736 0.74642867 -0.522433
000370 65 77 f2 bf 30 af 16 3d f0 33 a2 bf fb 1a 99 3e
       -1.8942686 0.036788166 -1.26721 0.29903397
000380 17 0a d8 be 58 4e fe be f3 13 8a 3d 77 b1 b4 3c
       -0.42195198 -0.49669147 0.06742086 0.022057278
000390 cc aa 06 3d e3 a7 db 3d 54 ea 68 be ee 47 9a be
       0.03287773 0.10725381 -0.22745639 -0.30133003
0003a0 17 6d e9 bf be 9f 3c be 97 f4 d9 3e cb 43 79 3d
       -1.8236417 -0.18420312 0.4256942 0.060855668
0003b0 1e 0c 63 3e 1f 35 62 bd 51 62 7f be b3 7e 9e bf
       0.22172591 -0.05522644 -0.24939848 -1.2382416
0003c0 33 9a 87 3e 66 80 45 be f7 9d 2f 3e 22 c7 05 3f
       0.26484832 -0.19287261 0.17150103 0.5225698
0003d0 90 b7 32 3c c0 ba c3 bd 61 62 87 3e 6c ff 66 3e
       0.0109080225 -0.09557104 0.26442245 0.22558373
0003e0 9d 9f 0d 3e 7f ad fe 3d e9 58 49 3f 05 1a 3a 3f
       0.13830419 0.124354355 0.7865129 0.7269595
0003f0 29 7b 04 3d 80 57 91 bf 51 96 09 3f 55 8b 00 3f
       0.032344017 -1.1354828 0.5374499 0.50212604

lin2.bias f4 [32]
000000 c6 7f ad bd 2a 9c 03 bb b3 9e 21 be 3d b8 d7 bc
       -0.084716365 -0.0020082095 -0.15783195 -0.026332969
000010 47 e8 56 be 06 2e c8 bc 7c 17 01 be 4e 13 73 3d
       -0.20987044 -0.024436008 -0.12606615 0.059344582
000020 20 6d 9e bd 73 0e 48 be af f7 fe bd 7d 34 8b be
       -0.07735658 -0.19536762 -0.12449586 -0.27188483
000030 a7 fb 3c bc 51 ca a6 bd 0e 7e f3 3d 76 62 ff 3d
       -0.011534608 -0.081440575 0.118892774 0.12469952
000040 c7 a6 7d be 0b f2 eb bc 05 72 d4 bd 19 8f 8f bd
       -0.24770652 -0.028801939 -0.1037331 -0.070097156
000050 e8 29 c3 3c dc ee 31 be 10 1d 3d be 9f b0 2f be
       0.023823693 -0.17376274 -0.18468118 -0.1715722
000060 54 2e 2f bd 46 8a d9 3b 4b 24 4c be 4f b3 57 3e
       -0.04276879 0.006638798 -0.1993572 0.21064495
000070 fe c6 5d bd 56 19 d8 3d 3f ae 11 3e 7d 5a e4 bd
       -0.054144852 0.105517074 0.14226626 -0.11150072

lin3.weight f4 [32, 32]
000000 64 3b 10 be 73 8c 02 bd 7e 74 d1 bd 1d 12 84 bd
       -0.14085156 -0.031872224 -0.10227297 -0.06448767
000010 43 92 84 be 44 0b c4 3d 53 65 89 be be cf 98 3d
       -0.2589284 0.09572461 -0.26835117 0.07461499
000020 f9 f3 c0 3b 43 3a fb bd da 72 15 be 7c 39 2d be
       0.005888459 -0.12266972 -0.14594594 -0.1691646
000030 07 ea 47 bc b3 8d 56 bb 2c ac fa 3d 66 69 e7 3d
       -0.012201793 -0.0032738268 0.122398704 0.112994
000040 cc 87 d2 bd a4 b2 e9 3c 0a 3e 34 3d b4 9e 09 bc
       -0.102798074 0.028527565 0.044004478 -0.008399654
000050 79 2a dc bb da 4b e7 bd 81 ce 1c bc f7 8f 31 be
       -0.0067189303 -0.112937644 -0.009570719 -0.17340074
000060 f5 86 ed bd ba 8a f1 bb 93 72 13 3b b5 b5 3f 3d
       -0.11598007 -0.007371274 0.0022498711 0.04680415
000070 0a b7 88 3c 71 0f 06 3e d6 11 81 3d ea b5 82 3c
       0.016688842 0.13091828 0.0630223 0.015955884
000080 ad 91 5c 3e eb 90 64 3d ec c4 da bd 87 56 32 3e
       0.21539946 0.055802267 -0.10682091 0.1741582
000090 13 e5 2b bd 4a a3 2e 3e 8c 96 93 3e 86 c8 83 39
       -0.04196651 0.17054477 0.28825796 0.0002513567
0000a0 f7 a0 16 3e af e3 1b 3f bf 52 5b 3d a3 3c 7b 3e
       0.1470984 0.6089429 0.05354571 0.2453485
0000b0 c7 7c d0 3b d8 1b 4c 3d 63 08 74 3e 3f da 3a 3c
       0.006362531 0.04983124 0.23831324 0.011404573
0000c0 3c ca b0 3d c5 16 11 3e eb 34 47 3e 39 dd 17 be
       0.08632323 0.14168842 0.1945378 -0.14830483
0000d0 64 d8 13 3e 75 34 8f bd ac f2 5a bd bd eb 19 3e
       0.14438015 -0.06992427 -0.053454086 0.15031333
0000e0 26 c0 26 3e da d5 f5 3b a2 68 91 3d f4 c2 50 3f
       0.16284236 0.0075022997 0.07100035 0.81547475
0000f0 ac ef 12 3e dd a3 75 3e 45 51 e7 3d cf 72 0d 3e
       0.1434924 0.2398829 0.11294798 0.13813327
000100 d3 29 cd 3c a1 73 2a 3e 18 47 ee 3c 48 9a 62 3e
       0.025044357 0.16645671 0.029086635 0.22129166
000110 89 ad 08 3e bd 3a 08 3e 4e df f5 bd 67 2a 1b be
       0.13347448 0.13303657 -0.120054826 -0.15152894
000120 89 00 41 3d 4d 5b 30 3f ba 1b fe 3c c4 c2 38 3e
       0.04711965 0.68889314 0.03101908 0.18043047
000130 57 91 34 bd fd 00 cd 3d 37 b9 a6 3c c1 63 8c be
       -0.04408392 0.10009954 0.02035199 -0.27419856
000140 86 bc 11 3d fb 0d 03 bc 17 3d 47 3e b3 ec ee bd
       0.03558018 -0.007998939 0.19456898 -0.116662405
000150 0b 86 13 3e a7 21 e2 3d 84 6b 8a bc b5 a7 02 be
       0.14406602 0.11041575 -0.01689697 -0.12759288
000160 21 2f 95 bd 6e e4 ca bd 40 25 c7 be ca a4 28 3e
       -0.0728438 -0.09906851 -0.38895607 0.16469112
000170 f0 d5 a9 bb 6c 4d 79 3d 9d 01 3b 3f 3e 57 b7 be
       -0.005182974 0.06086485 0.73049337 -0.35808748
000180 1a 92 47 be 7c 04 e6 3d cc 04 34 3d de 75 23 be
       -0.19489327 0.11231324 0.043949887 -0.15962932
000190 ea d1 62 be 89 48 aa bd 3d eb fb bc 0d 74 53 be
       -0.22150388 -0.08314616 -0.030751819 -0.20649739
0001a0 18 f2 9a 3d 1c 8a 0d 3f a8 89 b1 3d 6a aa 90 bf
       0.07565707 0.55288863 0.08668834 -1.1302006
0001b0 87 c7 fd bc ad 68 c8 be 3f e4 11 3f 40 a5 4e 3e
       -0.030978931 -0.3914236 0.569889 0.20180225
0001c0 af 2d 4f be 7e 66 ff 3d 36 b9 f9 3d 32 a4 65 3e
       -0.2023227 0.12470721 0.12193529 0.22425917
0001d0 4e 63 1b be d0 32 f8 bb d0 a5 01 bd b6 4a fb 3d
       -0.151746 -0.0075744167 -0.03165227 0.12270109
0001e0 9c 38 e4 bd 7f 84 f8 bd a6 de 1a 3e d4 eb 09 3f
       -0.1114361 -0.121346466 0.15123996 0.5387547
0001f0 77 69 e6 3d 4d 26 db bd 20 8e e0 bd c7 a4 85 bd
       0.112505846 -0.10700665 -0.10964608 -0.065255694
000200 16 61 16 3e d9 20 49 3e 33 05 2a be f3 b7 52 3e
       0.14685473 0.19641437 -0.16603546 0.20577984
000210 77 28 89 3e 76 00 2a 3e cc 73 99 3e 11 27 c3 be
       0.26788685 0.16601738 0.29971159 -0.38115743
000220 7d a6 3f 3e 18 60 7b 3f 34 ef 72 bd 34 bd 24 3f
       0.18715854 0.981935 -0.059310153 0.643512
000230 c3 c8 f3 bc 0a 0c 98 3e 2f d8 da 3e 07 3e f5 bd
       -0.029758817 0.29696685 0.4274306 -0.119747214
000240 5f 0e 3c 3c 02 06 45 3e bc 84 78 3d 65 3e 13 be
       0.011478036 0.19240573 0.06067346 -0.1437927
000250 b1 9c 74 bd 0b 65 e0 bc 88 73 1f 3e b2 a4 88 3d
       -0.059719745 -0.027391931 0.15571415 0.06672038
000260 da 8c a5 3c 3d 96 3c 3e 95 01 be 3d f4 d4 6e 3f
       0.020208765 0.18416686 0.092776455 0.9329369
000270 c6 04 ab 3e 76 9e 25 3f 31 3a 58 3e a3 cc fa bd
       0.3340208 0.6469492 0.21115948 -0.122460626
000280 42 6b 0a be df 46 32 3e e5 59 2f be cb ae 74 3d
       -0.13517478 0.17409848 -0.17124136 0.059737008
000290 8a fa 7e be f9 42 a2 bd 27 78 a9 bd 3d 01 d5 bd
       -0.2490026 -0.0792293 -0.0827487 -0.10400627
0002a0 b8 63 8d 3d 2c 60 b2 bc 59 ee af 3d ba e0 78 bd
       0.069037855 -0.021774374 0.08590383 -0.06076119
0002b0 21 19 aa 3d 27 91 9e 3d d4 55 02 3e c7 ca 93 3d
       0.08305574 0.07742529 0.12728053 0.07216411
0002c0 e0 9b 83 bd b7 a7 c7 3d 17 5c 05 be 8a d4 52 be
       -0.06426215 0.09748786 -0.1302341 -0.2058889
0002d0 4e 1c 86 3c a0 c7 2c 3c 1d dd fa 3c 20 0c b8 3b
       0.016370919 0.010545641 0.030623013 0.00561668
0002e0 32 b1 04 bd 33 ca 92 3d f3 d8 43 bd 80 3d 96 bd
       -0.03239555 0.07167473 -0.04781432 -0.07335949
0002f0 a0 c3 78 be ab cf d0 3d de 3a 97 3d 46 1c 99 bd
       -0.24293375 0.101958595 0.07384275 -0.07476096
000300 4f 46 e9 3d 66 b6 9f bd 20 bf 36 bc 39 32 88 bd
       0.113903634 -0.077984616 -0.011153966 -0.06650204
000310 14 e9 92 bd fa 58 a0 bc 19 6c b9 3d 98 34 b7 bd
       -0.071733624 -0.019573677 0.09053821 -0.08945578
000320 36 56 6f 3d 3e 48 10 3f 53 cd 44 3e 5c 44 b0 3e
       0.058431827 0.5636023 0.1921895 0.34427154
000330 64 82 dc 3c 1b c0 23 3e 56 98 92 3d 7c ae c1 3d
       0.026917644 0.15991251 0.07157962 0.094571084
000340 9e 1a c0 bd a5 00 39 3e 1a 0a bd 3d 62 ef db 3d
       -0.09380077 0.18066652 0.09230442 0.10739018
000350 b4 7e 0a 3e f8 9e 20 3e 85 32 c5 bc b3 a4 29 3d
       0.13524896 0.15685642 -0.024071941 0.041416835
000360 4b 7e 13 3e ea a4 aa 3d f7 2b c8 bd be 85 5a 3e
       0.14403646 0.08332236 -0.09774011 0.21340081
000370 b2 05 16 3e 5a c6 dc bb 2f 3c 9c bd 5b 5b 8c 3d
       0.1465061 -0.0067375125 -0.076286666 0.06853362
000380 fb cb 32 3d 04 36 4b 3e 60 de 40 3d a9 08 1c 3e
       0.043651562 0.19844824 0.047087073 0.15237679
000390 29 99 d5 3d 95 05 47 3b ad 0e 25 be 4d 20 6e 3e
       0.104296036 0.0030368317 -0.1611888 0.2325451
0003a0 80 b7 ae 3d da 0e 0b 3e 75 0f 87 3d 28 62 67 be
       0.085310936 0.13579884 0.06594745 -0.22596037
0003b0 c9 66 30 bb bd eb 59 bd 55 8c 57 bd cf a5 12 3e
       -0.0026916733 -0.053203333 -0.052624065 0.14321063
0003c0 79 0a e1 3d 38 4d 7c 3c b1 36 5f bd aa 15 95 3d
       0.109883256 0.01539927 -0.054495517 0.07279523
0003d0 7c 97 51 3d c7 ef 3f 3e 75 57 37 3e df ea c3 3d
       0.051169857 0.18743812 0.17904456 0.095662825
0003e0 35 65 3d 3b 59 dc e1 bd 83 9e 00 be 5c 5d d3 be
       0.0028899435 -0.11028356 -0.12560467 -0.41282165
0003f0 b8 ff 7d bd 77 14 1e bd ef a4 df bd a5 53 65 3d
       -0.06201145 -0.038593736 -0.109201305 0.055987973

lin3.bias f4 [32]
000000 f3 23 cd bd e6 dc 29 3e a9 3d 12 be 95 92 9a bd
       -0.100166224 0.16588172 -0.14281334 -0.075474896
000010 14 1b d5 3d 16 97 49 be d9 81 2f 3e f8 65 fe 3e
       0.10405555 -0.19686541 0.17139377 0.4968717
000020 98 ee a0 be 43 49 f7 3a 8e 3b 8c 3d 27 6d 83 be
       -0.31432033 0.0018866438 0.06847297 -0.25669214
000030 67 60 93 bd ed 76 28 be 32 e4 4e be 56 90 8a 3d
       -0.07196122 -0.16451617 -0.20204237 0.06765811
000040 08 46 da bd 62 2f 07 be 0f d8 21 be 8a c2 5e be
       -0.10657889 -0.13201669 -0.15805076 -0.21753898
000050 a7 8c b7 3e 19 15 0c 3f 7a ac d8 3d dc f0 40 bc
       0.35849497 0.5471969 0.10579772 -0.011776175
000060 9b eb 20 3e 83 72 8b bc 81 76 85 3d 33 4e d4 bd
       0.15714876 -0.017022377 0.065167435 -0.10366478
000070 f8 17 3e 3e 1d e1 14 be df ea 26 be 0d 96 e9 bd
       0.18563831 -0.14538999 -0.16300534 -0.11405573

lin4.weight f4 [32, 32]
000000 34 0e 6c be 39 a7 7d be ba e7 33 bd 85 83 86 bd
       -0.23052293 -0.24770822 -0.043922164 -0.06568054
000010 61 dc ae bd 20 95 0f bc 33 43 88 be ca ce 85 be
       -0.08538128 -0.0087635815 -0.2661377 -0.2613433
000020 f6 d6 e6 3d 1c d2 89 3b 25 da 09 bd 91 bf 1a 3e
       0.11271469 0.004205955 -0.033655304 0.1511214
000030 ff c1 ba bd 73 18 23 be fe a5 aa bd a5 ff 5d be
       -0.09119033 -0.15927295 -0.08332442 -0.21679552
000040 0f 3c a4 bd a0 d0 56 be 91 0d 19 be e1 3f 15 bd
       -0.08019268 -0.20978022 -0.14946581 -0.036437873
000050 81 a4 82 be 50 42 4f be 76 62 72 be 5c 26 29 3c
       -0.25516132 -0.2024014 -0.23670372 0.010324087
000060 37 cf 28 3d f1 31 63 bd a7 e4 88 3c 82 bb 0b be
       0.04121324 -0.05546755 0.016710592 -0.13645747
000070 51 1b 36 3d 90 a5 15 3e 7d 56 14 bc 66 52 6a bd
       0.044459645 0.14613938 -0.009053824 -0.057207488
000080 6c 5b 2b 3e 3c d1 4d bd 40 75 fe bd b9 58 16 3e
       0.16734093 -0.05024837 -0.124247074 0.14682283
000090 77 94 32 3d 82 6a 64 bd 66 d4 61 bd d4 29 4c be
       0.04359862 -0.055765636 -0.0551342 -0.19937831
0000a0 1f fd bc be 07 fe 18 bd a0 be fd bb 3a c6 14 3e
       -0.36911866 -0.037351634 -0.0077436715 0.14528742
0000b0 d0 4c 2d 40 52 e2 ec 3d d3 74 1c 3e 98 ae ad 3d
       2.7078133 0.11566605 0.1527894 0.08480567
0000c0 82 50 e1 3d dd 1c 12 3e ae a3 e8 3d 9c a1 6a bd
       0.11001684 0.14268823 0.113593444 -0.05728303
0000d0 5d 51 ed bd 24 06 94 bc c2 99 82 3d 15 49 ff 3d
       -0.115877844 -0.018069334 0.06376983 0.12465111
0000e0 b2 80 49 3e 8b 33 4f 3e bf 5c 20 3e 94 c1 74 3d
       0.19678 0.20234506 0.1566038 0.059754923
0000f0 6e 1e c8 3d 49 a8 22 bc 0a 92 c1 3c ff 77 30 3e
       0.09771429 -0.009927818 0.023629207 0.17233275
000100 7d 18 07 3e 71 7e b7 bd 0c 36 8b bd 18 9b cd bd
       0.13192935 -0.08959664 -0.06797418 -0.100393474
000110 9b be 20 3e 39 8f 16 3e 1c 21 44 bd 88 7b d9 bd
       0.1569771 0.14703073 -0.047883138 -0.10619265
000120 84 d9 31 be f2 73 0d be 8a e6 f5 3d e0 63 d5 3b
       -0.17368132 -0.13813761 0.120068625 0.00651215
000130 49 35 2d be 23 90 ad bd 90 9f ae 3c b6 45 1c be
       -0.16914858 -0.084747575 0.02131632 -0.15260968
000140 dd 8f 17 3e 3c 6a 75 bd f0 e9 4a 3c 7c d7 5f 3d
       0.14800973 -0.059915766 0.012384877 0.05464886
000150 2c 90 45 3d 11 28 16 3e f3 37 1d be 07 50 95 bd
       0.048233196 0.14663722 -0.15353374 -0.07290655
000160 53 8b 84 bd 87 a3 32 be 6e fc f7 3d 78 47 4d 3d
       -0.064718865 -0.17445193 0.12108694 0.050116986
000170 48 d2 0f bd 0e ae d7 3d 36 e7 c1 3d eb 0b 0d 3e
       -0.03511265 0.10531245 0.09467928 0.13774078
000180 de f0 75 bd 46 73 cf bc d6 e1 2a bd 04 bb 8d be
       -0.060044162 -0.025323521 -0.04171928 -0.27681744
000190 5d e6 df bb 7f 6c 56 bd b6 41 cb bd 91 0e 38 be
       -0.0068328814 -0.052349564 -0.09924643 -0.17974307
0001a0 4d 95 0b 3e e2 02 cd bd 24 47 29 3d 48 b6 13 bd
       0.13631172 -0.100103155 0.04132761 -0.03606251
0001b0 b8 c8 94 3d 74 b2 74 3d e8 a5 b8 bc 58 43 4e bd
       0.072648466 0.0597405 -0.022540048 -0.050357193
0001c0 47 9f 15 3e 30 d3 1c be 4d 69 ec bd b0 08 f6 3c
       0.1461154 -0.15314937 -0.11543522 0.03003344
0001d0 fe 24 08 be d5 a1 9f bd 8e 14 38 bd 20 6b 4d 3d
       -0.13295361 -0.07794539 -0.044941477 0.05015099
0001e0 32 44 e7 bd ee 33 ea 3d fb 29 4e 3d 5c 55 29 3e
       -0.11292304 0.11435686 0.050333004 0.16536468
0001f0 d8 03 11 be ac d7 67 3d db c1 32 be a3 7d ed bd
       -0.14161623 0.056602165 -0.17456762 -0.11596229
000200 52 e1 b5 bd 6e f3 1c 3d e7 bf e2 3c 76 ca a5 bd
       -0.08880867 0.03831809 0.027679397 -0.08095257
000210 aa 74 3e 3e 42 2d 0e 3e a7 2c 40 bc 06 05 28 be
       0.18599191 0.13884452 -0.011729396 -0.16408166
000220 db 0f 41 be cc a9 3e 3e 92 06 c2 3d aa dc 2a be
       -0.18853705 0.1861946 0.094739094 -0.16685739
000230 13 6a 12 40 98 61 30 bd 35 57 4d bd 21 3e e5 3c
       2.2877243 -0.043061823 -0.050131995 0.027983727
000240 d9 53 0b be 78 b5 b2 3c cf 25 0d 3e 85 8c c4 bd
       -0.13606204 0.021815047 0.13783954 -0.095971145
000250 dd 9f 6b bd a8 7c e5 3d 68 61 e3 3d ad fe c1 3d
       -0.057525504 0.11205417 0.11102563 0.09472404
000260 71 14 06 bc 8f af 2d 3d 3a e4 4d 3e e0 71 32 bd
       -0.008183585 0.042403754 0.20106593 -0.04356563
000270 21 f9 a9 3d 7e 7a 6e 3e d7 77 a9 3d 57 e0 d5 bc
       0.08299471 0.23288915 0.08274811 -0.02610795
000280 37 1b 0f be 46 cd 25 3e 08 08 48 3e 71 eb 72 3f
       -0.13975225 0.16191587 0.19534314 0.94890505
000290 a2 9f fd bd 17 22 1a 3e b7 7b 57 3e bc 12 57 3f
       -0.12383963 0.15052067 0.21043287 0.8401296
0002a0 cf c2 8c 3e fd 6a 09 be 40 e4 7e 3d 6d 6b 91 bd
       0.27492377 -0.13419719 0.062229395 -0.07100568
0002b0 0c 6f 31 c0 15 43 f7 bd dc f5 18 3e 93 58 21 be
       -2.7724028 -0.12073342 0.14937538 -0.15756445
0002c0 c6 52 2e be f0 d6 f0 bd 9a 27 c4 3d 7e 65 78 3d
       -0.17023763 -0.11759746 0.09577866 0.060643665
0002d0 ea 68 2f 3f 1e 7b 4f 40 be fb 8f bd 45 63 b1 3d
       0.6851946 3.2418895 -0.07030438 0.08661512
0002e0 ce ae 48 be ec 52 4c bd 2b 8f 65 bc 8a f8 26 3e
       -0.19597933 -0.049883768 -0.014011185 0.16305748
0002f0 13 45 f6 3d ba 08 cd bd 57 69 36 be b4 20 63 3e
       0.120248936 -0.1001143 -0.17813621 0.22180444
000300 00 58 1c 3c b2 c8 d9 bd 0a f0 c8 3d c6 9c af 3b
       0.009542465 -0.10633983 0.09811409 0.005359265
000310 3e c4 4a be ae 2a 1d be 2c 44 38 3c 66 cf c9 3d
       -0.19801423 -0.15348312 0.011246722 0.09854011
000320 1a 6c cf 3d bb 3f 39 be 84 38 3c be 45 fd 1e be
       0.101280406 -0.18090717 -0.18380934 -0.15526302
000330 b6 de bd 3d 26 7b d8 3d e2 fe fc 3d ab 50 45 3c
       0.09270994 0.10570364 0.123533025 0.0120431585
000340 b0 71 2b bc d0 02 d6 bc 97 c9 30 be 30 63 d9 3c
       -0.010464117 -0.026124388 -0.172644 0.026536554
000350 36 78 0d be 76 6e 69 3d 64 30 78 bd d4 f8 4c 3c
       -0.13815388 0.05699011 -0.060593024 0.012510497
000360 b1 35 20 be 70 64 d0 3d dd d1 0e be 93 35 59 be
       -0.15645482 0.10175407 -0.13947244 -0.21211843
000370 88 7b ec 3d 42 fd 6f bd 02 35 b9 3d 76 92 86 3d
       0.11546999 -0.058591135 0.090433136 0.06570904
000380 76 f1 50 be ae a5 fb bd 3e 65 2b bd af bc 04 bd
       -0.2040461 -0.1228746 -0.0418446 -0.032406505
000390 28 89 b4 3d ba 24 71 be 86 ca 20 be ba 6e f3 bd
       0.08815223 -0.23549166 -0.15702257 -0.11886354
0003a0 81 ca 03 3e 6b 32 c5 3d 03 18 c5 3d 67 56 a8 bd
       0.12870218 0.09628757 0.096237205 -0.08219605
0003b0 18 e6 4c bd f8 c3 1a bd a0 46 37 bc 3c 53 9d bd
       -0.050024122 -0.037784547 -0.011186272 -0.07681891
0003c0 fe 18 0f be a4 01 0e be f3 56 25 3e 6f 8e f9 bd
       -0.13974378 -0.13867813 0.1614645 -0.1218537
0003d0 48 1c 24 3c 70 9b b8 bc c8 5d 80 3d b5 2c 12 bd
       0.010016508 -0.022535056 0.06267887 -0.035687167
0003e0 be 23 f7 3d 35 c0 25 be e7 18 6d be d2 21 27 bd
       0.12067364 -0.16186602 -0.2315403 -0.040803738
0003f0 54 a0 2a bd ad 56 1b 3d 90 a1 50 3d 40 a3 9d 3c
       -0.041656807 0.037924457 0.050935328 0.019242883

lin4.bias f4 [32]
000000 58 11 20 3d 6f 16 2b 3e b0 bd ec bc c1 fe 5a be
       0.03907904 0.16707776 -0.028899044 -0.21386243
000010 85 ac 85 3d e6 9b 52 3f 94 b8 0d be f6 e9 5f be
       0.06527046 0.8226913 -0.13839942 -0.21866593
000020 2e 52 89 be e0 fc 22 be 46 71 18 3e fe 05 c0 3c
       -0.2682051 -0.15916777 0.1488696 0.023440357
000030 bd 7d 1d be 32 5e 76 3c d7 ba 36 3c a4 bd bc 3d
       -0.15379997 0.015037106 0.0111529445 0.092158586
000040 5a d8 1d 3e b9 c8 19 3d ac 8d c7 3c ea ee 03 be
       0.15414563 0.03754494 0.024359547 -0.12884107
000050 0f cd 26 be c4 02 af bc 83 35 69 3e 7a 12 8e be
       -0.16289161 -0.021363623 0.2277432 -0.27748471
000060 c4 5a 94 3d e0 7b 97 3d ad 35 99 bd 37 3c 91 bd
       0.07243875 0.07396674 -0.07480941 -0.07091563
000070 9e 65 23 be f9 2f 17 3d 59 ad 4d 3d 24 8b e1 bd
       -0.15956733 0.036910985 0.050214145 -0.11012867

lin5.weight f4 [1, 32]
000000 3d 0b c5 3c 19 c4 b5 bd 15 b9 19 3e b2 36 04 bd
       0.02405321 -0.08875293 0.1501201 -0.032278724
000010 e9 2e 17 be e3 eb 47 3f d6 a2 1c bd fa ba bd bb
       -0.14763989 0.7809431 -0.03824123 -0.0057901116
000020 c4 d4 b7 bf 18 64 03 3d 84 ac ba 3d 55 76 d7 bd
       -1.4361806 0.03207788 0.09114936 -0.10520617
000030 62 8b 63 bc f7 30 e3 3c ac 06 d0 3d 51 14 23 3d
       -0.013888212 0.02773331 0.101575226 0.039814297
000040 bc 4e bd bd bf 2b a3 bd f1 c2 ca bc 13 00 18 3e
       -0.09243533 -0.07967328 -0.024751158 0.14843778
000050 79 b4 e2 bc 64 29 35 3d b7 4d d3 3e 15 ce d1 3d
       -0.027673947 0.044228926 0.4127023 0.10244385
000060 00 9d 67 3d a1 84 90 3c cb 77 46 bd 90 8d ad bd
       0.05654621 0.017641367 -0.048454087 -0.084742665
000070 28 c9 45 bd 6f 43 0f be ef 87 17 3d 9c 68 bb 3d
       -0.04828754 -0.13990568 0.03699487 0.09150812

exp_avg f4 [5, 2]
000000 71 36 32 bb f4 d2 a3 ba 58 db 1d 3b 19 25 7c 3b
       -0.0027193094 -0.0012498782 0.0024087038 0.003847426
000010 da 6a a9 3c 21 af 91 bc 36 94 9e bb bd 96 84 ba
       0.020680834 -0.017783703 -0.0048394455 -0.0010115724
000020 4a 84 9e ba b7 58 be bb
       -0.0012093869 -0.0058089155

exp_avg_sq f4 [5, 2]
000000 fe f2 ac 3c 84 d6 07 3d 7c 73 24 3d 22 e8 7c 3d
       0.021111961 0.033163562 0.040149197 0.061744817
000010 38 57 7c 3f 1c a2 2b 3f 10 32 c1 3c 3c 31 8d 3b
       0.98570585 0.67044234 0.023583442 0.0043088477
000020 a6 bf 85 3c f9 4b da 3d
       0.016326737 0.10659022

exp_avg f4 [32, 10]
000000 70 ee d5 39 2c 3c ef b9 e4 6e a8 3a 39 db 3a ba
       0.00040804176 -0.00045630464 0.0012850431 -0.00071280036
000010 1e 4f 68 3a 64 62 43 3a 44 b9 b5 ba 18 74 02 3a
       0.0008861887 0.0007453321 -0.0013864418 0.0004976406
000020 30 20 b5 38 2b 41 8d ba 15 fc 7c ba 02 8f 51 3a
       8.636748e-05 -0.0010776868 -0.00096506 0.0007994027
000030 bc 67 c6 ba 8a 2b b8 3a ff 72 a9 ba 7c dd 57 3a
       -0.0015137116 0.0014051062 -0.0012927948 0.0008234603
000040 f6 e1 ac ba 92 64 2a 39 be b2 da b9 5b 15 5c ba
       -0.00131899 0.00016249929 -0.00041713374 -0.0008395516
000050 b0 20 68 38 2c 22 24 38 33 f5 1f 38 f7 c4 d4 38
       5.5343553e-05 3.9132472e-05 3.8136914e-05 0.00010145635
000060 55 43 3e b8 66 a6 2e b8 20 9c 76 b7 4e fd 75 b8
       -4.5362238e-05 -4.1639803e-05 -1.4699093e-05 -5.864846e-05
000070 d4 37 83 b7 5b 34 20 b8 0c 60 9b 38 52 c2 2d 38
       -1.5642414e-05 -3.8195732e-05 7.408866e-05 4.142739e-05
000080 73 1c 2d 38 cf 63 0c b8 8d e9 ff b7 66 f9 1d b8
       4.127291e-05 -3.3471555e-05 -3.0507124e-05 -3.7663987e-05
000090 5e 4f 1f b8 fc 64 03 b8 31 d9 d6 37 52 28 35 b8
       -3.798247e-05 -3.1326883e-05 2.5611926e-05 -4.3191314e-05
0000a0 a0 6e 20 b7 80 a2 ce b5 66 15 01 b9 82 01 0a b9
       -9.5625e-06 -1.539549e-06 -0.0001231037 -0.00013161267
0000b0 58 63 ab b7 e9 62 fa b8 02 d1 5d 38 64 8f 1f b9
       -2.0431049e-05 -0.000119393524 5.288516e-05 -0.00015216839
0000c0 fc ae d6 38 30 6d a8 b6 92 6f aa 38 0c d9 8e 37
       0.000102369086 -5.0195013e-06 8.127013e-05 1.702879e-05
0000d0 64 33 b3 38 4c 2c 86 b8 80 78 d3 36 3d 04 30 38
       8.5449574e-05 -6.397869e-05 6.302318e-06 4.1965617e-05
0000e0 0c 3b bc b7 ac 7a 48 38 74 40 a8 38 80 32 b4 b7
       -2.2438842e-05 4.7797963e-05 8.0228696e-05 -2.1481188e-05
0000f0 bb a0 a0 38 74 6a 54 b9 04 07 7c 39 5f 0a 26 b9
       7.659333e-05 -0.00020257552 0.00024035206 -0.00015834857
000100 82 44 64 39 9c 31 53 b8 fa b0 61 b9 20 70 b2 37
       0.00021769296 -5.0352523e-05 -0.00021523601 2.1271466e-05
000110 58 cc 33 38 69 49 73 b9 1a ec 19 b9 e1 47 2b b8
       4.2867236e-05 -0.00023201633 -0.00014679172 -4.083652e-05
000120 30 da 09 38 9e 26 54 b8 bc 6c 61 38 b8 2c 57 b7
       3.286655e-05 -5.0580704e-05 5.3745447e-05 -1.28254105e-05
000130 aa 4f 10 39 b8 d7 d2 37 73 0c 4f b9 60 f5 94 39
       0.00013762587 2.5134403e-05 -0.00019745696 0.00028411578
000140 86 28 67 b8 cc 69 9b b8 e0 25 a0 37 4e 37 bd b8
       -5.5112432e-05 -7.410682e-05 1.9091123e-05 -9.0225236e-05
000150 8d 03 ab 38 90 b2 81 37 c0 f1 47 b6 88 2b 22 37
       8.154577e-05 1.5461148e-05 -2.9794028e-06 9.666088e-06
000160 08 5f 92 37 b8 44 14 b8 b7 67 a1 38 1c a4 c6 38
       1.7448809e-05 -3.534995e-05 7.696397e-05 9.4719435e-05
000170 25 e7 36 39 88 8a a9 b7 3f 3d 02 b8 2d 7e 54 b8
       0.0001744298 -2.0210879e-05 -3.1051455e-05 -5.066225e-05
000180 43 a2 5d 38 e1 ce 2e b8 86 f4 24 38 b7 79 f3 b7
       5.2841624e-05 -4.1677504e-05 3.9328377e-05 -2.9024535e-05
000190 f6 b0 2d b9 10 f1 48 b7 38 fd 9f 39 00 eb 99 b6
       -0.00016564489 -1.1977056e-05 0.00030515506 -4.587113e-06
0001a0 c3 78 bd 38 bc 68 4e b8 ce 21 72 b9 a0 cd d1 b8
       9.034716e-05 -4.921177e-05 -0.00023091512 -0.00010004197
0001b0 c6 f6 9d b7 fb 46 9b b9 d9 5c 06 b9 7f 16 0a b9
       -1.8830771e-05 -0.00029616788 -0.00012813824 -0.00013169086
0001c0 a8 c4 e3 37 5a 1f ae b8 52 fe 0f 39 0c e1 44 b8
       2.7152084e-05 -8.302806e-05 0.00013732284 -4.6939633e-05
0001d0 78 2c 50 38 10 2f 91 b7 fd 61 f0 37 58 4b c1 b7
       4.963248e-05 -1.7307262e-05 2.8655859e-05 -2.3042478e-05
0001e0 b6 54 56 38 78 a8 bf 37 95 54 97 b8 79 c7 d2 b8
       5.110047e-05 2.2847424e-05 -7.215996e-05 -0.00010050735
0001f0 f0 2c 9c b7 f7 eb 04 b8 44 04 32 38 a0 12 04 37
       -1.8617575e-05 -3.1691012e-05 4.244248e-05 7.87215e-06
000200 ad 95 5b 38 7c c5 98 37 04 00 00 80 04 00 00 80
       5.2353065e-05 1.8211773e-05 -6e-45 -6e-45
000210 04 00 00 00 04 00 00 80 04 00 00 00 04 00 00 80
       6e-45 -6e-45 6e-45 -6e-45
000220 04 00 00 00 04 00 00 00 04 00 00 00 04 00 00 00
       6e-45 6e-45 6e-45 6e-45
000230 78 e9 40 38 ec b6 35 b8 06 d6 41 38 c8 e3 f6 b8
       4.5993802e-05 -4.3324122e-05 4.621411e-05 -0.00011772622
000240 09 a5 68 38 df 04 43 38 04 24 3d b7 ec 2e ee 37
       5.546681e-05 4.649616e-05 -1.1273663e-05 2.839366e-05
000250 51 b2 0b b8 6c 31 8c b7 e0 bc 45 b9 30 28 66 b8
       -3.3306253e-05 -1.6712314e-05 -0.00018857745 -5.48737e-05
000260 b0 d1 7d 39 94 99 90 39 30 09 e2 38 a0 90 a1 b7
       0.00024206075 0.00027580245 0.00010778231 -1.9260042e-05
000270 18 23 73 38 e8 ed fc b8 a2 c9 b8 b8 91 e2 a2 38
       5.79684e-05 -0.0001206061 -8.811361e-05 7.766963e-05
000280 0c 65 81 37 de 28 d9 37 54 ea 16 34 f5 1e 4d 38
       1.5425052e-05 2.5887446e-05 1.4055087e-07 4.890464e-05
000290 fa 3e db b7 ca 1e b1 38 3b 5a 6a b7 af f7 12 38
       -2.613616e-05 8.4457526e-05 -1.3968495e-05 3.5039786e-05
0002a0 6f c0 08 b8 7b 13 7b b7 cc 32 c7 b8 b4 85 b0 b8
       -3.2604145e-05 -1.49653015e-05 -9.498521e-05 -8.417238e-05
0002b0 af 86 0c 38 51 e2 37 b8 a0 fc e4 38 f8 4c 9a b7
       3.3504035e-05 -4.3841374e-05 0.00010918942 -1.8394072e-05
0002c0 ec 95 ca 36 ed 20 a2 38 32 72 a4 b8 3a 24 86 38
       6.0375223e-06 7.730895e-05 -7.8414e-05 6.396366e-05
0002d0 ec c6 99 b8 0e 72 bc 38 3e f6 eb 38 78 e6 92 b8
       -7.3326606e-05 8.985783e-05 0.000112515394 -7.004751e-05
0002e0 ae 93 09 b7 4c a8 ec b7 fa b2 52 38 a4 46 11 38
       -8.200221e-06 -2.8211762e-05 5.0234587e-05 3.4636483e-05
0002f0 54 93 b5 b8 25 3b e0 38 bc d7 f9 37 3e 86 5c 39
       -8.6581946e-05 0.00010692169 2.9783572e-05 0.00021030844
000300 3f c6 b0 38 aa 43 94 38 8e 35 11 b9 c8 d2 ae 37
       8.42926e-05 7.069793e-05 -0.00013848228 2.0840569e-05
000310 39 b2 ee b8 5a 4b 40 b9 52 56 ea 38 ed 92 33 b9
       -0.00011381921 -0.00018338618 0.00011174068 -0.00017125504
000320 67 3a 03 39 b0 89 22 39 3f c5 c4 38 89 23 14 39
       0.0001251489 0.00015500817 9.382748e-05 0.00014127618
000330 b0 5b 10 b9 77 04 c0 38 53 a0 b1 b7 16 88 52 37
       -0.00013767066 9.156105e-05 -2.1174701e-05 1.254866e-05
000340 4b 97 12 b8 38 73 b0 b8 a4 dc f8 b7 7c a7 02 b9
       -3.4950015e-05 -8.413795e-05 -2.9666648e-05 -0.00012460159
000350 69 39 05 b9 2a 29 e0 b8 06 f6 8c 38 89 e6 d1 b7
       -0.00012705255 -0.0001068882 6.721546e-05 -2.5022093e-05
000360 5a 29 e3 37 fa 61 0d 38 74 ef ec b7 e9 94 cd 38
       2.7079765e-05 3.3708267e-05 -2.8244896e-05 9.8028984e-05
000370 e3 27 93 b8 ca 80 c2 b8 a4 a6 53 b9 f1 9c 16 b9
       -7.016936e-05 -9.27463e-05 -0.00020184607 -0.0001436358
000380 31 32 75 38 7c aa dc 38 74 a1 62 b6 d4 ff 95 b7
       5.8459296e-05 0.00010522173 -3.3770602e-06 -1.7881313e-05
000390 ef 0c b0 b7 74 ac 89 b8 c0 56 f5 b9 25 d7 33 b9
       -2.0986858e-05 -6.564791e-05 -0.00046794675 -0.00017150918
0003a0 70 c8 05 b9 36 40 3f b8 ec bf 8e 39 58 14 6f 39
       -0.00012758537 -4.559775e-05 0.00027227344 0.00022800395
0003b0 93 64 41 b9 f4 55 97 39 03 92 45 39 8c 9b c8 b9
       -0.00018443381 0.00028865004 0.00018841778 -0.00038262864
0003c0 75 74 27 b9 6e 9b 1d b9 fb 87 f9 b8 cd 97 de b8
       -0.00015969745 -0.00015030589 -0.000118985736 -0.0001061406
0003d0 72 b9 05 39 3e e7 70 38 8f a3 0b 37 2d ac 0a 38
       0.00012752952 5.743582e-05 8.323127e-06 3.3062115e-05
0003e0 a8 40 47 37 4d 76 95 b8 79 87 26 39 12 75 a3 38
       1.1876378e-05 -7.126909e-05 0.00015881461 7.794252e-05
0003f0 b8 e5 9c 38 aa fb 61 38 e6 87 2a b8 a4 14 0c b9
       7.481448e-05 5.387856e-05 -4.0657724e-05 -0.0001335913

exp_avg_sq f4 [32, 10]
000000 e4 1a b1 39 ef 2f bd 39 73 71 99 3a 8e 66 1a 3a
       0.00033780106 0.00036084602 0.0011706784 0.00058899156
000010 f1 49 61 3a 13 fe 0f 39 44 80 4f 3b e8 37 14 3a
       0.0008594087 0.00013732193 0.0031662146 0.00056540826
000020 1e 50 1a 3a 32 19 68 3b 3b 90 3a 38 2f f7 5c 38
       0.0005886572 0.0035415408 4.448018e-05 5.2682295e-05
000030 13 ff c0 3a 17 5a 26 39 00 c3 4c 39 54 57 92 38
       0.0014724456 0.00015864555 0.00019527599 6.978089e-05
000040 25 65 82 3a 1d cc 8b 38 ff c4 23 39 25 c7 7b 3a
       0.0009948356 6.6660556e-05 0.00015618278 0.0009604565
000050 ea f3 03 36 da f6 3d 37 f8 44 6a 36 ab 2a 68 37
       1.9662498e-06 1.13227525e-05 3.4908862e-06 1.3838212e-05
000060 d9 b4 42 37 eb 7e 32 37 d4 ad a9 36 36 10 ba 37
       1.1605408e-05 1.0639177e-05 5.0568287e-06 2.2180477e-05
000070 37 27 9c 36 b8 65 aa 36 2a f7 c5 36 fb 3c c3 35
       4.6537275e-06 5.0782364e-06 5.899831e-06 1.454638e-06
000080 e9 92 1a 36 13 f2 f3 35 ed 92 a5 35 34 b2 80 36
       2.3033301e-06 1.8175364e-06 1.2336219e-06 3.835443e-06
000090 75 ac a3 36 07 99 fe 35 bd b1 50 35 a1 f7 96 36
       4.877855e-06 1.8969012e-06 7.774468e-07 4.499176e-06
0000a0 0e b9 06 37 79 d5 02 37 5c 06 31 37 e9 93 61 37
       8.030109e-06 7.798307e-06 1.0551503e-05 1.3445483e-05
0000b0 2b 63 f5 36 54 87 d2 36 15 cf c6 35 a0 21 5e 37
       7.3131137e-06 6.274242e-06 1.4812418e-06 1.324006e-05
0000c0 4b 77 37 37 4d 52 d6 35 2c 3c 21 37 82 bc 6e 37
       1.0935425e-05 1.5968195e-06 9.610358e-06 1.4229796e-05
0000d0 85 4d 6d 38 5f 5f 59 37 3a 42 15 38 81 6b f3 36
       5.65774e-05 1.2956413e-05 3.5586047e-05 7.2544794e-06
0000e0 cc 50 49 38 44 20 c6 37 28 12 8e 36 b1 36 19 38
       4.7997382e-05 2.3618464e-05 4.2340434e-06 3.6528978e-05
0000f0 e1 af ec 37 86 d5 e5 38 fe 1e ce 37 38 61 e8 37
       2.8215292e-05 0.00010959343 2.4571546e-05 2.7701826e-05
000100 3f 1a 02 39 cc 47 8b 38 45 cb ec 38 25 9c 86 38
       0.00012407544 6.64141e-05 0.00011291219 6.418702e-05
000110 8e 39 7f 37 c4 20 15 39 ba f4 38 37 f6 8d 5b 38
       1.5212585e-05 0.00014221953 1.10242345e-05 5.234588e-05
000120 aa 0b 34 38 05 b6 eb 36 4a 2f fa 37 ef 27 57 37
       4.2926207e-05 7.0247356e-06 2.9824343e-05 1.2824296e-05
000130 16 b2 84 37 57 0a 28 37 cc ed 36 37 ba 6a d3 37
       1.5818554e-05 1.0015988e-05 1.0903412e-05 2.5202859e-05
000140 d3 a0 61 36 ca 41 d5 36 d8 39 88 36 e2 7f 20 36
       3.3621225e-06 6.3555535e-06 4.0598497e-06 2.3916296e-06
000150 c0 c4 9a 36 72 ff 3f 36 2b ce f4 35 95 5a fb 35
       4.6124624e-06 2.8609907e-06 1.823942e-06 1.872732e-06
000160 ed a0 a3 36 a2 6a e9 35 78 74 10 37 62 1d f1 37
       4.876513e-06 1.7390887e-06 8.610186e-06 2.8743121e-05
000170 33 df b9 37 0c d9 84 37 c6 0e 85 37 97 63 b7 36
       2.2157654e-05 1.5836697e-05 1.5861715e-05 5.465419e-06
000180 4b 72 4b 36 fc 9d c6 36 24 fa 28 37 2c 7b f9 36
       3.0315884e-06 5.9192516e-06 1.0071821e-05 7.4351174e-06
000190 93 da e6 36 25 cf 4c 38 d1 05 32 38 7f 97 e7 37
       6.8799795e-06 4.883031e-05 4.2443924e-05 2.7607892e-05
0001a0 8e 23 9e 37 85 ec d0 38 a8 81 c4 38 9e bf 83 38
       1.8851624e-05 9.962268e-05 9.370159e-05 6.282258e-05
0001b0 a4 53 9b 37 bd 0f e2 38 f0 27 b4 36 8b 88 77 37
       1.8516388e-05 0.00010779451 5.3690674e-06 1.4754139e-05
0001c0 f6 3e 88 36 60 23 26 36 ca ea 7e 37 2d b4 e5 35
       4.0604455e-06 2.4756519e-06 1.5194246e-05 1.7114268e-06
0001d0 ec 2c ce 37 67 f3 0e 37 db 6a ac 35 c0 6c f7 37
       2.4578032e-05 8.520531e-06 1.2846098e-06 2.9495335e-05
0001e0 08 90 d9 37 83 17 02 39 63 d6 24 37 79 a3 50 38
       2.5935486e-05 0.00012406525 9.8250775e-06 4.974331e-05
0001f0 1b 80 03 39 60 2d 9e 37 72 b5 2f 36 46 8f df 38
       0.00012540857 1.8856197e-05 2.6182647e-06 0.000106601554
000200 a1 d2 91 37 07 b5 73 36 7f 51 f5 2f 1d da d9 31
       1.7383429e-05 3.6315193e-06 4.4623147e-10 6.340328e-09
000210 92 95 89 31 e2 76 76 30 67 99 93 30 43 b3 65 31
       4.004229e-09 8.966322e-10 1.0739257e-09 3.3425784e-09
000220 f9 c3 a0 30 70 a6 75 32 02 8f cc 30 a5 3f b6 32
       1.1697231e-09 1.429872e-08 1.4883599e-09 2.121653e-08
000230 fe 6e ef 36 ac 0a cf 36 66 11 ba 37 1a 97 03 37
       7.1356762e-06 6.170323e-06 2.218103e-05 7.8433895e-06
000240 c2 11 3c 37 cf 65 86 37 42 15 68 37 2b a2 3c 37
       1.1209808e-05 1.6021453e-05 1.3833227e-05 1.1243431e-05
000250 1e c6 16 37 6d 94 8c 37 e8 55 a3 38 99 e3 a1 39
       8.9868245e-06 1.6758417e-05 7.788447e-05 0.00030877886
000260 98 67 42 39 ab ea 33 38 93 14 c3 39 1d bc bf 38
       0.00018539873 4.2895477e-05 0.00037208627 9.1426286e-05
000270 d2 93 a4 38 69 cc 28 39 6e 80 28 38 25 7a ae 38
       7.847663e-05 0.00016097877 4.017393e-05 8.319718e-05
000280 69 36 a1 37 c0 44 4c 38 b6 b5 e3 38 45 5d 08 39
       1.9218032e-05 4.870142e-05 0.0001085805 0.00013004716
000290 4c 5f f1 38 30 5b 2e 38 04 36 08 39 65 49 45 37
       0.00011509526 4.1569758e-05 0.00012990093 1.17592035e-05
0002a0 8c b0 25 36 8d 87 c8 38 d8 6f 75 37 39 73 95 38
       2.468968e-06 9.5619915e-05 1.4629179e-05 7.1263355e-05
0002b0 88 49 bb 37 0a 9a e9 36 66 da 5f 38 a7 88 60 37
       2.2326378e-05 6.9618736e-06 5.3370743e-05 1.3383257e-05
0002c0 3d a2 01 37 83 51 66 37 f5 f6 77 37 76 ac 39 37
       7.726773e-06 1.3728047e-05 1.4779846e-05 1.10670135e-05
0002d0 24 4f f6 36 58 d1 88 37 25 64 f6 37 69 4b 5a 37
       7.3405845e-06 1.6309947e-05 2.9372119e-05 1.301137e-05
0002e0 40 9a 96 36 71 56 0c 37 dd 91 8f 36 64 fb 19 36
       4.4883054e-06 8.3647765e-06 4.278713e-06 2.2945105e-06
0002f0 0a 26 a1 36 ea 41 b3 36 e8 f4 ec 36 4e 23 72 38
       4.8026022e-06 5.342289e-06 7.061859e-06 5.7730176e-05
000300 1a 62 b0 37 c2 63 4a 36 6f 78 33 38 1b 98 30 37
       2.1026517e-05 3.0158412e-06 4.278909e-05 1.0525832e-05
000310 63 e6 6b 36 63 4f 6a 38 99 2e c9 37 04 74 24 37
       3.5151832e-06 5.5863882e-05 2.3982766e-05 9.802174e-06
000320 bf 35 3d 37 c7 0e 5d 37 e6 fd 5b 36 aa 04 02 37
       1.1277792e-05 1.3176067e-05 3.2781331e-06 7.74969e-06
000330 eb 18 4b 37 bc 2c f2 35 f5 e8 0a 35 0c 30 8b 33
       1.2105545e-05 1.8043424e-06 5.1748003e-07 6.4814316e-08
000340 54 b9 9c 35 07 62 3e 36 b7 d4 9d 37 07 37 07 38
       1.1676843e-06 2.8369266e-06 1.8814912e-05 3.2237756e-05
000350 13 8e 61 38 35 ba e3 37 6e 8f 77 37 b6 ad 5a 37
       5.3776497e-05 2.7147218e-05 1.4755742e-05 1.3034258e-05
000360 23 8e 52 38 8b 8c c6 37 d9 d6 e3 37 35 58 a2 38
       5.0200277e-05 2.3668885e-05 2.7160555e-05 7.741192e-05
000370 45 21 45 36 fc de 68 36 5d 85 b0 37 f1 51 b8 36
       2.9374653e-06 3.4700488e-06 2.1042937e-05 5.4931666e-06
000380 e2 6a aa 36 ed 3b 82 36 a7 4e 8d 36 e5 7c ec 35
       5.0788376e-06 3.881278e-06 4.211284e-06 1.7619719e-06
000390 19 17 66 36 77 b3 96 36 2d 5a d3 38 f8 8e d1 38
       3.4286115e-06 4.491241e-06 0.000100780606 9.9925266e-05
0003a0 cb 2f 1d 39 56 00 86 39 21 3b 3f 39 95 c4 1d 38
       0.00014990491 0.00025558722 0.00018237207 3.76148e-05
0003b0 bb aa d0 3a 90 11 a4 39 ea d3 d0 39 7f f8 df 3a
       0.0015920022 0.00031293603 0.0003983074 0.0017087607
0003c0 18 2d 8a 36 00 67 50 37 88 b3 63 38 7d 91 29 38
       4.11797e-06 1.2421748e-05 5.428822e-05 4.0428236e-05
0003d0 71 70 07 37 d3 ee 25 36 91 9a 7e 35 08 a8 84 35
       8.072807e-06 2.472593e-06 9.48473e-07 9.88367e-07
0003e0 3f 97 2c 36 39 5a 0e 37 c7 dd 0e 38 82 18 66 39
       2.5718034e-06 8.484866e-06 3.4061984e-05 0.00021943639
0003f0 e7 32 0d 38 56 64 98 39 e9 ab 67 39 a5 59 94 37
       3.3664426e-05 0.00029066455 0.00022093918 1.7684719e-05

exp_avg f4 [32]
000000 cd c0 db ba 9d 88 cc ba dd 29 3f b8 ca 43 b7 b8
       -0.0016765833 -0.0015604679 -4.5576937e-05 -8.738747e-05
000010 91 3c 55 b9 80 ca c5 b6 f8 ca ad b9 30 ac a5 39
       -0.00020335826 -5.8946316e-06 -0.00033148355 0.00031599542
000020 40 76 42 b8 df 97 95 b8 08 10 cb b9 20 b3 4c 37
       -4.6363333e-05 -7.133162e-05 -0.00038731121 1.2201053e-05
000030 08 fd de 37 04 00 00 00 ea 8a 07 38 f0 27 fe b8
       2.658229e-05 6e-45 3.2315882e-05 -0.00012119103
000040 72 0b e3 b7 6f 6a df 38 55 9b 10 39 84 cb ad b9
       -2.7065838e-05 0.000106532934 0.00013790776 -0.00033148762
000050 58 f2 2a b9 2e 3e 54 39 2d 36 2b b9 3f 3c 33 ba
       -0.00016302743 0.00020241059 -0.00016328013 -0.00068372855
000060 16 20 ef b8 ee 24 0a ba 08 46 66 38 14 a2 84 b8
       -0.000114023846 -0.0005269785 5.4901495e-05 -6.32444e-05
000070 4e 5f ad b9 cc 16 b3 b8 87 cc 93 b9 9e b7 55 b9
       -0.0003306814 -8.5396314e-05 -0.0002819041 -0.00020381666

exp_avg_sq f4 [32]
000000 95 85 c7 3b e7 97 d0 3a 15 d2 f9 37 47 32 29 37
       0.0060889223 0.0015914411 2.978094e-05 1.0084891e-05
000010 13 fc f2 37 1e d1 e3 38 94 b2 2d 3a 79 3b f9 38
       2.896603e-05 0.000108631546 0.00066260365 0.00011884323
000020 a8 fa 9f 36 ca 15 2c 38 d5 0c cc 39 32 c0 95 38
       4.7677495e-06 4.102829e-05 0.00038919473 7.140673e-05
000030 fa 16 15 39 07 56 dc 32 c0 54 c2 38 0c 8a 61 3a
       0.00014218307 2.5650492e-08 9.266427e-05 0.00086036394
000040 55 f0 6a 39 b3 bd 03 38 8b b6 1c 37 03 14 0e 39
       0.0002240551 3.1409505e-05 9.340826e-06 0.0001354963
000050 48 24 83 37 dc 66 a5 39 0c 2b ce 37 77 eb 2b 3b
       1.5633312e-05 0.0003154789 2.4577159e-05 0.0026232877
000060 c2 d7 7e 38 0b 69 c1 3a 87 0f 99 39 e4 89 2f 39
       6.075926e-05 0.0014756037 0.00029194003 0.00016740669
000070 b0 59 8c 39 31 68 45 37 26 d3 f3 39 c6 7f bf 39
       0.00026769703 1.1766374e-05 0.0004650589 0.00036525558
