model_checkpoints/fourier_tanh/checkpoints/epoch=1999-step=2000.ckpt (torch, 173854 bytes, 30 tensors)

B f4 [5, 2]
-0.53852093 0.87561005 1.6064003 0.15788443 -0.38268337 -0.93868136 -1.9352713 -0.37666747
0.0004947195 -0.4846836
00000000: 82dc 09bf fb27 603f 869e cd3f 75ac 213e
00000010: 13ef c3be 6c4d 70bf f8b6 f7bf 8fda c0be
00000020: 10b0 013a 7328 f8be

lin1.weight f4 [64, 10]
0.030012842 -0.10308893 0.29909486 0.22795242 0.20156778 0.63464266 -0.8679265 0.6637771
0.1900605 -0.023745941 0.097802594 -0.14273502 -0.1431356 0.29489282 0.58510315 -0.2440054
0.9776847 -0.2755684 -0.41950178 -0.24508284 -0.04368435 -0.23885058 -0.29098856 -0.04921148
-0.26325268 -0.064974576 0.09399889 0.3730531 0.13386458 -0.00032487296 0.37544554 0.28144583
-0.11594551 -0.5005795 0.0901207 -0.18682714 0.4919368 0.38164285 0.25536475 0.00051770237
0.5046665 0.07427894 -0.38529795 0.023603361 -0.15547305 -0.30701756 -0.19697148 -0.31056893
0.13026054 0.93575734 0.35301772 -0.1714071 -0.020364076 0.0317711 -0.39471307 -0.18709545
0.18279366 0.040856574 0.26257628 0.6053253 0.50881386 0.040597778 0.0315757 0.18193278
-0.50623333 -0.836496 0.80036163 -0.17522863 -0.48276547 0.014864299 0.0057277884 -0.009445176
-0.41838914 0.3802184 -0.0027635186 0.10836883 -0.047464643 -0.24998137 -0.001016523 -0.35174948
0.7025431 -1.1857023 0.37488946 -0.919691 -0.13664034 0.055479564 -0.13225828 -0.258984
0.28149337 0.2436725 -0.3985849 0.36867577 0.094811045 -0.08824537 0.22369117 -0.4366213
-0.12915531 -0.07623628 0.03696412 0.30056342 0.20436867 0.19854274 -0.26427725 0.10719496
0.014794787 0.4698942 0.25295475 0.29835603 -0.29237914 -1.0844377 0.4138645 0.32860947
-0.236982 0.0831949 -0.42021888 0.351384 -0.7229332 0.35217312 0.48927826 -0.17232414
-0.40777 -0.48575732 0.36786056 -0.3412089 0.36874098 -0.037430283 0.14944474 0.37633497
-0.3622069 0.36784238 -0.14446753 0.22723898 0.182365 -0.7334148 0.3787337 0.65166295
-0.21806619 -0.029168133 -0.27963868 0.0004714205 -0.21328071 0.017549051 0.5241089 -0.31638202
0.5565582 -0.39705577 -0.1948101 0.079968065 0.09644703 -0.307931 -0.58578944 -0.49468702
-0.076644465 -0.3998868 0.038136054 0.38817936 0.016423859 0.32867444 0.10534742 -0.35928068
-0.18510185 0.06530924 0.19691569 0.030188812 -0.20337516 0.5003889 -0.27492774 0.35996175
-0.114231974 -0.1836621 0.34137893 -0.087819465 -0.5093549 0.21910112 0.11815503 0.2494098
-0.5961095 0.32704502 0.56988806 -0.049456723 -0.53988314 0.6490126 -0.84948415 -0.16877346
-0.39634383 0.1487138 -0.6283767 0.435916 0.71430475 -0.054191854 0.6354505 -0.26620793
-0.17599428 -0.291946 -0.6912702 -0.13354634 0.1485774 -0.5250431 -0.6182183 -0.10592749
0.3311621 0.034501147 -0.6425861 0.2950214 0.2226291 -1.1628121 -0.0030829008 -0.5242109
0.2628495 0.5016993 0.34321362 -0.3746244 0.6499941 0.34451893 0.12841375 0.44558653
-0.8272668 0.5827129 0.6304808 0.2049234 0.3909407 0.448055 -0.24272436 -0.05650898
-0.21117297 0.44717178 -0.12914735 -0.43741333 -0.19725688 0.510334 0.4330091 -0.19574061
-0.28852865 0.120928355 -0.8036477 -0.054924984 -0.17127843 -0.28089148 0.18021601 -0.45080176
-0.11444878 0.1854391 -0.20844404 -0.13066606 -0.047657065 -0.30441615 0.076815225 -0.3329097
-0.26631218 0.18571769 -0.03286716 -0.14168563 0.32429558 -0.3629128 0.40401918 -0.7387166
00000000: 7edd f53c 4a20 d3bd f622 993e 5c6c 693e
00000010: c967 4e3e f177 223f 6e30 5ebf 4ced 293f
00000020: 389f 423e d986 c2bc ba4c c83d 2129 12be
00000030: 2492 12be 31fc 963e 52c9 153f 8ddc 79be
00000040: 8b49 7a3f 4d17 8dbe f0c8 d6be fff6 7abe
00000050: 5cee 32bd 3f95 74be 74fc 94be fa91 49bd
00000060: 0ec9 86be 6411 85bd 7d82 c03d d100 bf3e
00000070: cc13 093e b653 aab9 663a c03e ab19 903e
00000080: d774 edbd fa25 00bf 3491 b83d 9d4f 3fbe
00000090: 24df fb3e b166 c33e 2bbf 823e 6bb6 073a
000000a0: d331 013f 8f1f 983d c645 c5be d65b c13c
000000b0: 5434 1fbe 6831 9dbe e4b2 49be e402 9fbe
000000c0: 0563 053e cb8d 6f3f bdbe b43e 5885 2fbe
000000d0: 90d2 a6bc 6a22 023d d517 cabe f395 3fbe
000000e0: 432e 3b3e 3959 273d 6670 863e 99f6 1a3f
000000f0: a041 023f db49 263d 8555 013d 964c 3a3e
00000100: 8298 01bf 9a24 56bf 80e4 4c3f 226f 33be
00000110: 092d f7be 6489 733c 2cb0 bb3b f1bf 1abc
00000120: 1a37 d6be fcab c23e 261c 35bb 7af0 dd3d
00000130: 496a 42bd 1efb 7fbe da3c 85ba 8218 b4be
00000140: ddd9 333f 18c5 97bf 83f1 bf3e df70 6bbf
00000150: 72eb 0bbe 8a3e 633d b76e 07be 8d99 84be
00000160: e61f 903e 4985 793e 5213 ccbe 12c3 bc3e
00000170: 4b2c c23d fdb9 b4bd 4c0f 653e d48c dfbe
00000180: 4a41 04be c421 9cbd b067 173d 73e3 993e
00000190: 0546 513e ca4e 4b3e 594f 87be 0889 db3d
000001a0: d665 723c f995 f03e 4983 813e 1fc2 983e
000001b0: b8b2 95be dbce 8abf 0ce6 d33e 803f a83e
000001c0: 69ab 72be 1662 aa3d ee26 d7be 9be8 b33e
000001d0: 2612 39bf 0950 b43e ae82 fa3e bd75 30be
000001e0: 3bc7 d0be 2fb5 f8be 3858 bc3e efb2 aebe
000001f0: 9ecb bc3e 7f50 19bd 0b08 193e faae c03e
00000200: 2f73 b9be d655 bc3e 4cef 13be 56b1 683e
00000210: e4bd 3a3e 13c1 3bbf 62e9 c13e 62d3 263f
00000220: be4c 5fbe 02f2 eebc cd2c 8fbe fd28 f739
00000230: 4266 5abe 07c3 8f3c 002c 063f d3fc a1be
00000240: 997a 0e3f e54a cbbe 4d7c 47be 4cc6 a33d
00000250: 0586 c53d 22a9 9dbe 4cf6 15bf 9e47 fdbe
00000260: c6f7 9cbd f6bd ccbe 8d34 1c3d 72bf c63e
00000270: 548b 863c 0448 a83e 63c0 d73d a3f3 b7be
00000280: 578b 3dbe dac0 853d 44a4 493e 874e f73c
00000290: 9441 50be 7d19 003f 54c3 8cbe e84c b83e
000002a0: 74f2 e9bd eb11 3cbe 38c9 ae3e b1da b3bd
000002b0: 1565 02bf 0b5c 603e 44fb f13d 4865 7f3e
000002c0: a29a 18bf 7272 a73e 2fe4 113f 2293 4abd
000002d0: c835 0abf b125 263f cb77 59bf f3d2 2cbe
000002e0: 94ed cabe 6e48 183e 4cdd 20bf 6230 df3e
000002f0: addc 363f 47f8 5dbd e2ac 223f 684c 88be
00000300: d837 34be f279 95be 15f7 30bf 5fc0 08be
00000310: ad24 183e 3969 06bf 8e43 1ebf 83f0 d8bd
00000320: 148e a93e 1351 0d3d 8680 24bf 0c0d 973e
00000330: e2f8 633e 07d7 94bf 7e0a 4abb af32 06bf
00000340: 3694 863e 5e6f 003f b2b9 af3e c5ce bfbe
00000350: 0366 263f c964 b03e e57e 033e eb23 e43e
00000360: c2c7 53bf ac2c 153f 3167 213f 71d7 513e
00000370: 6129 c83e 7767 e53e bc8c 78be f675 67bd
00000380: ba3d 58be b3f3 e43e 343f 04be a4f4 dfbe
00000390: b5fd 49be 40a5 023f 5eb3 dd3e 3a70 48be
000003a0: 07ba 93be 49a9 f73d dbbb 4dbf 05f9 60bd
000003b0: 9d63 2fbe 02d1 8fbe 8c8a 383e 7dcf e6be
000003c0: 1f64 eabd bfe3 3d3e 5b72 55be 53cd 05be
000003d0: 0e34 43bd 6fdc 9bbe 4d51 9d3d 2473 aabe
000003e0: 125a 88be c72c 3e3e b79f 06bd 0a16 11be
000003f0: 120a a63e b5cf b9be 9adb ce3e 881c 3dbf

lin1.bias f4 [64]
0.09860904 0.081922844 -0.026998587 -0.24820413 0.037662257 -0.11980238 -0.061643142 0.064865395
0.4959226 -0.27091578 -0.07805129 -0.003098125 -0.10325671 -0.1428174 -0.0644045 -0.16535613
0.19186081 -0.13128617 0.26584673 -0.39184096 -0.044646632 0.16819598 -0.010129498 0.2869649
-0.32467982 0.3150063 0.15528427 -0.16573721 -0.1321192 0.12410271 0.31427854 0.27346152
-0.09765373 -0.0191112 0.107869506 0.14733353 -0.26640913 -0.25176576 -0.027217126 0.0826616
0.17111601 -0.048412003 -0.40473583 0.088452354 0.105437696 0.35056037 -0.26077974 0.23084502
-0.0061372034 0.18913403 -0.044783115 -0.18602178 0.26334232 -0.14089924 0.15404005 -0.3080014
0.1344591 -0.23963767 -0.38823563 -0.034058824 -0.23827423 -0.16365677 0.2740105 0.2391033
00000000: 89f3 c93d 2ac7 a73d 242c ddbc 3929 7ebe
00000010: bd43 1a3d f35a f5bd 857d 7cbd 26d8 843d
00000020: 91e9 fd3e 79b5 8abe 5bd9 9fbd ea09 4bbb
00000030: 4178 d3bd b93e 12be 82e6 83bd 1e53 29be
00000040: 2977 443e e26f 06be 101d 883e 619f c8be
00000050: 63df 36bd 913b 2c3e 32f6 25bc 10ed 923e
00000060: 6f3c a6be 8148 a13e d702 1f3e 04b7 29be
00000070: 414a 07be 9029 fe3d 1ee9 a03e 2603 8c3e
00000080: aefe c7bd 178f 9cbc b0ea dc3d 9ade 163e
00000090: c766 88be 71e7 80be 73f6 debc 7c4a a93d
000000a0: 0939 2f3e aa4b 46bd 8939 cfbe 8226 b53d
000000b0: b8ef d73d a67c b33e ec84 85be a362 6c3e
000000c0: 981a c9bb 5aac 413e 806e 37bd 7e7c 3ebe
000000d0: ced4 863e e447 10be adbc 1d3e 5cb2 9dbe
000000e0: a5af 093e 9463 75be d2c6 c6be 4481 0bbd
000000f0: 29fe 73be a495 27be 1b4b 8c3e 7fd7 743e

lin2.weight f4 [64, 64]
0.0628473 0.079847515 0.075435035 -0.10799118 -0.2910814 -0.1241549 -0.12728715 0.089634076
0.20725767 -0.16055605 0.32709083 0.2424768 -0.22694252 0.012468109 -0.061684947 -0.026099546
0.20722228 0.037330266 0.18052356 0.02983821 -0.09383535 0.17602344 -0.056862477 0.37496743
-0.1204369 -0.08210587 -0.0962853 -0.108776785 -0.033199474 0.16212668 -0.014765994 -0.017187485
0.30562505 0.14667289 -0.42684826 -0.0024697927 0.0075138477 0.022150857 0.2033928 0.27607524
-0.042218264 -0.05350332 -0.23588783 0.11140004 -0.1210507 -0.07265832 -0.032357622 0.03761794
-0.059012044 -0.07782735 -0.2943448 -0.23331746 -0.04938258 0.2297198 0.42064992 -0.3203088
-0.17057872 0.119070776 -0.0895042 0.09491032 0.24170266 -0.3221466 0.1267598 -0.006786624
-9.8440476e-05 -0.30404755 0.2080181 0.1288543 0.08592553 0.24363358 0.008062058 -0.18910727
-0.36423117 0.17604372 0.051852692 0.13188411 0.10674673 -0.0907882 0.04564885 0.0121641215
-0.04371346 0.06882393 -0.16832519 0.2972502 -0.09162866 -0.104551725 -0.12746245 -0.108095996
0.33287916 -0.0023790451 -0.13304317 0.23366952 -0.044827707 0.0039248015 -0.18628106 -0.15105742
-0.2011174 -0.34381086 0.01146176 -0.28132135 0.42090255 0.2293566 0.2138121 0.09014237
-0.21439004 0.21003711 0.34315044 0.04495871 -0.04475875 -0.36654833 0.0101543 0.016617555
-0.13920026 -0.20296168 0.15617318 0.33776808 -0.012054348 0.06445083 0.04999499 0.018353695
-0.16158038 0.15407714 -0.13791855 -0.07112345 0.27319974 0.11962149 0.009169942 -0.17668605
0.12107565 -0.011797845 0.16262552 0.15101556 -0.09107737 0.015562737 -0.07534113 -0.16912729
0.2854168 -0.08834936 0.15358113 -0.015692737 -0.042816207 -0.17574057 -0.057217486 -0.09220964
0.069492124 -0.103304714 0.19367296 -0.26588377 -0.11133643 0.05738147 -0.28668508 -0.0037135824
-0.294165 0.07598203 0.15769623 0.03656918 -0.06360228 0.055647988 0.036615502 0.13296133
0.030454138 -0.0047824993 -0.15683821 0.24868503 0.13430196 -0.0029721982 0.061480317 -0.060779724
0.09539427 -0.015436863 -0.12780148 0.21291943 -0.13144548 0.06186845 -0.03084621 0.13732262
-0.064136945 0.032009777 0.06750972 -0.08681404 0.22366047 0.11056608 0.26816356 -0.12914278
0.11683888 -0.040047497 -0.20116064 0.034036096 0.16209754 0.085412554 0.16281685 0.11194819
0.23464541 -0.08309867 -0.15286146 0.0063178986 -0.66251355 -0.02666456 -0.17180175 -0.092515185
-0.21034323 0.18631586 0.18287335 0.059818994 0.07690114 0.1261229 0.32334816 0.18701366
0.0793329 -0.26882687 0.0359166 -0.14833279 -0.5468183 0.22360484 -0.24474674 0.018090475
-0.09059074 -0.08612537 0.34601736 -0.017289635 0.0063529615 0.13258982 -0.24231039 -0.2946562
0.24779315 0.23312435 -0.029459488 -0.053437248 0.24509479 0.1522858 -0.16283162 -0.18247889
0.07050495 -0.10849559 -0.09872112 -0.19055481 0.06825477 -0.3049514 0.31498563 0.071037464
0.020532167 0.17095174 0.0837682 0.29594052 -0.01730683 0.16733263 0.36249512 0.021232473
-0.2096319 0.039346747 0.18321446 0.08908689 -0.08643973 -0.23788293 -0.16753353 -0.07449437
00000000: 16b6 803d 1887 a33d af7d 9a3d 7b2a ddbd
00000010: 9f08 95be ed44 febd 9057 02be 1292 b73d
00000020: 5b3b 543e ce68 24be 7378 a73e d74b 783e
00000030: 9f63 68be 0a47 4c3c 5ba9 7cbd b7ce d5bc
00000040: 1432 543e 9fe7 183d 2bdb 383e 436f f43c
00000050: bf2c c0bd 7d3f 343e a1e8 68bd bbfb bf3e
00000060: 9fa7 f6bd 1f27 a8bd 3a31 c5bd 5dc6 debd
00000070: 2cfc 07bd 8904 263e 11ed 71bc c5cc 8cbc
00000080: e37a 9c3e 6b31 163e db8b dabe 3fdc 21bb
00000090: b936 f63b b775 b53c 3446 503e bc59 8d3e
000000a0: 0fed 2cbd 4c26 5bbd 948c 71be b425 e43d
000000b0: 6ee9 f7bd e3cd 94bd 6d89 04bd 4515 1a3d
000000c0: 9db6 71bd f263 9fbd 5db4 96be c6ea 6ebe
000000d0: 6345 4abd ab3b 6b3e 6d5f d73e 84ff a3be
000000e0: 30ac 2ebe 61db f33d fa4d b7bd 5860 c23d
000000f0: e780 773e 66f0 a4be 52cd 013e 5462 debb
00000100: d471 ceb8 1fac 9bbe b202 553e 62f2 033e
00000110: b9f9 af3d 157b 793e b916 043c 56a5 41be
00000120: 827c babe ce44 343e 7d63 543d a10c 073e
00000130: 089e da3d 2aef b9bd 4afa 3a3d 064c 473c
00000140: e30c 33bd 90f3 8c3d 705d 2cbe 2e31 983e
00000150: cfa7 bbbd 371f d6bd 8485 02be 6f61 ddbd
00000160: 236f aa3e c1e9 1bbb 783c 08be 1047 6f3e
00000170: 429d 37bd 9f9b 803b 76c0 3ebe ccae 1abe
00000180: b8f1 4dbe fa07 b0be 1bca 3b3c 5a09 90be
00000190: 8a80 d73e 75dc 6a3e 8ff1 5a3e 909c b83d
000001a0: 1089 5bbe f813 573e 6ab1 af3e a026 383d
000001b0: f354 37bd 39ac bbbe 395e 263c 8a21 883c
000001c0: 838a 0ebe 30d5 4fbe ddeb 1f3e f0ef ac3e
000001d0: 9a7f 45bc ccfe 833d 8cc7 4c3d 7d5a 963c
000001e0: 5475 25be 66c6 1d3e 853a 0dbe 2ca9 91bd
000001f0: d6e0 8b3e 1dfc f43d 863d 163c 30ed 34be
00000200: 83f6 f73d c04b 41bc 4e87 263e d3a3 1a3e
00000210: c686 babd dafa 7e3c 734c 9abd b42f 2dbe
00000220: 2722 923e 82f0 b4bd 5f44 1d3e 0e8e 80bc
00000230: 0c60 2fbd 56f5 33be e25c 6abd 68d8 bcbd
00000240: e351 8e3d 6c91 d3bd 3452 463e eb21 88be
00000250: 5b04 e4bd d508 6b3d 63c8 92be 935f 73bb
00000260: cb9c 96be 779c 9b3d 1f7b 213e 91c9 153d
00000270: ea41 82bd 25ef 633d 23fa 153d 0427 083e
00000280: f57a f93c 83b6 9cbb 329a 20be 4aa7 7e3e
00000290: 7486 093e 36c9 42bb c9d2 7b3d 29f4 78bd
000002a0: 125e c33d e5ea 7cbc 64de 02be 8d07 5a3e
000002b0: a599 06be c669 7d3d 31b1 fcbc 4d9e 0c3e
000002c0: 3b5a 83bd af1c 033d 8942 8a3d 8fcb b1bd
000002d0: 4007 653e 7870 e23d bc4c 893e 013e 04be
000002e0: 3949 ef3d d808 24bd 0efd 4dbe 6f69 0b3d
000002f0: e6fc 253e c7ec ae3d 76b9 263e 1845 e53d
00000300: e346 703e a32f aabd b787 1cbe 6006 cf3b
00000310: 7d9a 29bf a36f dabc ccec 2fbe 9a78 bdbd
00000320: 3764 57be 96c9 3e3e 2743 3b3e c304 753d
00000330: 587e 9d3d 5d26 013e e48d a53e 8280 3f3e
00000340: 4a79 a23d ada3 89be 491d 133d 8de4 17be
00000350: 49fc 0bbf abf8 643e e49e 7abe 7a32 943c
00000360: a387 b9bd 7f62 b0bd 3029 b13e fea2 8dbc
00000370: 812c d03b a0c5 073e 3720 78be 2ddd 96be
00000380: 7dbd 7d3e 26b8 6e3e 0655 f1bc 04e1 5abd
00000390: 21fa 7a3e cff0 1b3e 55bd 26be bfdb 3abe
000003a0: e664 903d f032 debd 4c2e cabd cd20 43be
000003b0: 28c9 8b3d 9722 9cbe cc45 a13e 177c 913d
000003c0: 1333 a83c f90d 2f3e a98e ab3d 8485 973e
000003d0: 0ec7 8dbc 3f59 2b3e f698 b93e b9ef ad3c
000003e0: bfa9 56be 0e2a 213d 929c 3b3e 3073 b63d
000003f0: 5007 b1bd 9597 73be e98d 2bbe 8190 98bd

lin2.bias f4 [64]
0.094439134 -0.23997541 0.19691215 -0.003600933 0.26829365 -0.14077993 0.07907176 -0.1226941
-0.062321346 0.055224903 0.05065637 -0.0059871506 0.21878493 -0.29167202 0.21918377 -0.13519956
-0.09014313 -0.10472021 -0.006704874 -0.022275237 -0.03652092 0.1518266 0.25497872 0.01711378
0.11668748 -0.055333372 0.06418157 -0.15690309 -0.07131094 0.11589236 0.29470357 -0.24065048
0.13934971 -0.1184334 -0.0883386 -0.07003354 -0.009841514 0.012988146 0.0007554575 -0.026391417
-0.047920402 -0.09727443 0.15227029 0.024590246 0.17092265 0.0035808734 -0.0075757806 -0.1753569
0.07464957 -0.057471808 -0.010497832 -0.19194102 0.06938988 0.06134783 -0.09400088 0.14267665
0.07471447 0.099229835 -0.15492034 0.021551602 -0.06685109 0.10546597 -0.04545862 -0.15735802
00000000: 4e69 c13d 1dbc 75be 57a3 493e a1fd 6bbb
00000010: c95d 893e 9d28 10be 60f0 a13d 0b47 fbbd
00000020: ab44 7fbd 8233 623d 0e7d 4f3d dc2f c4bb
00000030: 2809 603e 0956 95be b671 603e c171 0abe
00000040: f69c b8bd 8d77 d6bd 8fb4 dbbb 8f7a b6bc
00000050: f696 15bd 6f78 1b3e 928c 823e 3332 8c3c
00000060: d8f9 ee3d 3fa5 62bd a171 833d 34ab 20be
00000070: 780b 92bd f958 ed3d 63e3 963e 146d 76be
00000080: b1b1 0e3e 368d f2bd deea b4bd bf6d 8fbd
00000090: 4d3e 21bc 3ccc 543c e509 463a d032 d8bc
000000a0: 2f48 44bd d137 c7bd beec 1b3e 7c71 c93c
000000b0: 5906 2f3e 16ad 6a3b 413e f8bb c290 33be
000000c0: e0e1 983d 8f67 6bbd 19ff 2bbc 308c 44be
000000d0: 481c 8e3d dd47 7b3d 8983 c0bd d419 123e
000000e0: e603 993d 0339 cb3d 70a3 1ebe fc8c b03c
000000f0: 39e9 88bd 8bfe d73d d132 3abd 7622 21be

lin3.weight f4 [64, 64]
0.046980172 0.42648473 0.020047555 0.09276883 -0.28309405 0.32938284 -0.08246254 0.24358578
-0.23103605 0.19275515 0.24246135 0.094215944 -0.32230306 0.20406282 -0.5416825 0.104965754
-0.11754048 0.095722996 0.22383499 -0.024987403 -0.14826447 0.09205974 -0.17373012 0.12091744
-0.0017590981 0.04189633 -0.21581541 -0.07306325 0.30736163 -0.06773928 0.007634979 -0.004152607
-0.062751666 0.16735956 0.19842967 0.10724426 -0.10363764 -0.10464813 -0.100891136 0.07437744
-0.011831742 -0.03348494 -0.15655471 -0.019587161 -0.16256538 0.32955426 0.15841231 0.000738776
0.06678724 0.08196194 -0.2063351 0.21990958 -0.04920615 -0.023619762 0.27486837 -0.053077497
0.10488259 -0.27805743 0.21420631 -0.07371751 0.15927537 0.09354899 0.13761382 0.033296466
-0.105223745 0.25036907 -0.117712006 -0.039053902 0.040030647 0.1886548 -0.07108493 0.00018255718
0.09050465 0.23013829 0.09354303 0.2558486 -0.20865022 0.17333245 -0.2331268 0.22423603
0.14770566 0.008324981 0.16287008 -0.1493393 -0.18456654 -0.07584279 -0.09306876 0.016195629
0.0118371155 0.2079081 -0.18709385 -0.029785058 -0.0812391 -0.08735052 -0.092074215 0.21871561
-0.007265778 0.17210346 0.092633136 -0.036922712 -0.19465643 0.07342583 -0.03209613 0.009637171
-0.084284596 0.07292171 -0.24284892 -0.17874476 -0.10652957 0.046366595 -0.06579824 0.07267318
-0.19016841 -0.32699916 0.1568431 0.072581805 0.026407203 -0.07025512 -0.041566882 -0.024527445
0.017017126 0.004325515 0.05070086 0.058122195 0.1998129 -0.030558098 0.13171117 0.16936988
0.010559136 0.10649332 0.032679956 -0.092811726 0.12140482 0.13672087 -0.36589658 -0.052389774
0.030503524 0.10899903 0.06922304 0.00011270137 -0.074763276 0.07346997 -0.14875744 -0.13373007
0.010503714 0.10461728 0.033774365 -0.11760154 0.08893174 -0.3748666 0.04351645 0.048760094
-0.25624606 -0.07223476 -0.050334953 -0.3461145 -0.021264136 0.43203402 -0.0060571968 0.099197805
0.025876028 0.28711823 -0.2105897 -0.06696433 0.3075395 0.25749686 0.010517293 0.2078183
0.22457829 -0.002003818 -0.13309817 -0.049150657 0.31500706 0.0708587 -0.21557094 -0.0911654
-0.077086814 0.0607771 -0.013574504 0.15827328 0.1253054 -0.059019458 -0.19114287 -0.1260138
0.058578853 -0.20582975 0.0055667222 -0.18925321 0.2319339 -0.03880442 -0.089812495 0.10023793
-0.19672629 0.1697063 -0.20694359 -0.3128714 -0.0472185 -0.1517153 -0.3678038 0.17397758
0.41179684 -0.13179553 -0.14005132 0.12510246 -0.2067853 0.061883736 -0.11299553 0.029601881
0.13929501 0.25017905 -0.1286266 -0.056702733 0.32123783 -0.37248722 -0.07836676 0.207533
-0.15930553 0.07936168 0.0050161416 -0.124938734 0.2071346 0.22413656 -0.037644923 0.101133764
-0.074617766 0.41189754 -0.095754676 0.21414474 0.0048792767 0.10141732 -0.08648279 0.13104582
0.29134792 0.23236373 -0.19200718 0.1552608 -0.06584145 0.21298042 -0.02451596 0.0025344775
0.038822412 -0.2411334 0.029733207 -0.0057315854 -0.08336238 -0.082465984 0.07051045 -0.081558496
0.34551015 -0.2424185 0.2755255 -0.124748334 0.3918925 -0.09686253 -0.35056016 0.026585931
00000000: 486e 403d 355c da3e c53a a43c 96fd bd3d
00000010: b4f1 90be dea4 a83e 1fe2 a8bd 8d6e 793e
00000020: b794 6cbe 9b61 453e ca47 783e 4af4 c03d
00000030: e804 a5be d8f5 503e b4ab 0abf 49f8 d63d
00000040: 10b9 f0bd 6b0a c43d 0035 653e 62b2 ccbc
00000050: a4d2 17be d189 bc3d 4fe6 31be 90a3 f73d
00000060: 8a91 e6ba 7c9b 2b3d b7fe 5cbe 2fa2 95bd
00000070: 815e 9d3e e4ba 8abd d92e fa3b 9812 88bb
00000080: f283 80bd 4e60 2b3e 2631 4b3e e1a2 db3d
00000090: f93f d4bd c251 d6bd 03a0 cebd 3353 983d
000000a0: ecd9 41bc 8127 09bd e14f 20be 4175 a0bc
000000b0: 8a77 26be 56bb a83e d636 223e 6baa 413a
000000c0: c0c7 883d a9db a73d 8249 53be fa2f 613e
000000d0: 638c 49bd 3b7e c1bc 8cbb 8c3e ca67 59bd
000000e0: afcc d63d 8b5d 8ebe e658 5b3e 35f9 96bd
000000f0: 1519 233e 9d96 bf3d a3ea 0c3e e061 083d
00000100: 8c7f d7bd 6030 803e fe12 f1bd fcf6 1fbd
00000110: 2df7 233d b92e 413e fa94 91bd d26c 3f39
00000120: 805a b93d 5fa9 6b3e 7d93 bf3d 96fe 823e
00000130: 67a8 55be 107e 313e cbb8 6ebe 219e 653e
00000140: 2740 173e 8065 083c 6ac7 263e 67ec 18be
00000150: 03ff 3cbe 7753 9bbd d69a bebd b2ac 843c
00000160: 76f0 413c dce5 543e 8895 3fbe cbff f3bc
00000170: af60 a6bd d4e4 b2bd 6891 bcbd fcf6 5f3e
00000180: c315 eebb e43b 303e 71b6 bd3d 453c 17bd
00000190: 0454 47be 4860 963d 3b77 03bd 3ae5 1d3c
000001a0: 679d acbd fa57 953d 63ad 78be de08 37be
000001b0: 2d2c dabd e6ea 3d3d 3ac1 86bd add5 943d
000001c0: 82bb 42be 6f6c a7be 7a9b 203e c5a5 943d
000001d0: eb53 d83c ebe1 8fbd 0942 2abd c8ed c8bc
000001e0: 8067 8b3c 0dbd 8d3b b4ab 4f3d 8a11 6e3d
000001f0: c19b 4c3e fa54 fabc 4bdf 063e 4c6f 2d3e
00000200: 3a00 2d3c 2b19 da3d 6bdb 053d 1314 bebd
00000210: 17a3 f83d 8e00 0c3e cc56 bbbe a996 56bd
00000220: 87e2 f93c e23a df3d cfc4 8d3d 165a ec38
00000230: 7d1d 99bd 6c77 963d df53 18be 89f0 08be
00000240: c517 2c3c 9641 d63d fd56 0a3d 14d9 f0bd
00000250: d821 b63d 84ee bfbe 4e3e 323d aab8 473d
00000260: af32 83be d1ef 93bd 062c 4ebd eb35 b1be
00000270: 2032 aebc 9033 dd3e 737b c6bb 3828 cb3d
00000280: f7f9 d33c 2901 933e d4a4 57be 9824 89bd
00000290: d175 9d3e a1d6 833e b950 2c3c 52ce 543e
000002a0: daf7 653e 7d52 03bb e34a 08be 3352 49bd
000002b0: 9b48 a13e 5e1e 913d a1be 5cbe edb4 babd
000002c0: b1df 9dbd 69f1 783d 9967 5ebc 6412 223e
000002d0: 0f50 003e 63be 71bd f5ba 43be c309 01be
000002e0: 61f0 6f3d 09c5 52be 0d69 b63b 98cb 41be
000002f0: 1580 6d3e 62f1 1ebd 9def b7bd 8b49 cd3d
00000300: 9e72 49be 7dc7 2d3e 05e9 53be ae30 a0be
00000310: 3068 41bd 415b 1bbe c850 bcbe 2e27 323e
00000320: 09d7 d23e 68f5 06be 9d69 0fbe dc1a 003e
00000330: 87bf 53be cd79 7d3d 336a e7bd a57f f23c
00000340: 5aa3 0e3e 7817 803e b1b6 03be 2041 68bd
00000350: 4979 a43e a5b6 bebe c07e a0bd 8883 543e
00000360: fd20 23be 6088 a23d 725e a43b e1df ffbd
00000370: 181b 543e 0e84 653e 9031 1abd 381f cf3d
00000380: 33d1 98bd 3ce4 d23e 071b c4bd c248 5b3e
00000390: 57e2 9f3b e2b3 cf3d e41d b1bd e030 063e
000003a0: 8e2b 953e c2f0 6d3e 889d 44be b0fc 1e3e
000003b0: e2d7 86bd 8a17 5a3e b2d5 c8bc 7a19 263b
000003c0: 4004 1f3d adeb 76be 0e93 f33c 06d0 bbbb
000003d0: e5b9 aabd ede3 a8bd c867 903d 2408 a7bd
000003e0: b5e6 b03e 8e3c 78be ae11 8d3e 0e7c ffbd
000003f0: 22a6 c83e dd5f c6bd 9f7c b3be bdca d93c

lin3.bias f4 [64]
-0.039283644 -0.24045673 -0.0824213 0.033896152 0.015812567 0.025802469 0.03803377 0.042894524
-0.13173616 0.08020592 0.0978269 0.07162722 0.12469225 -0.2054469 -0.14876014 -0.035047255
0.12364779 -0.11605212 0.22299911 -0.18917023 0.19900696 -0.12169737 0.15825671 0.26608545
-0.1422775 -0.006883659 0.065846115 0.005410602 -0.16670904 -0.13049875 -0.005947455 0.14833623
0.24960151 0.047001395 0.1794281 0.18361577 -0.021312758 0.18425174 -0.081963755 0.23103215
0.10477762 -0.03946695 -0.03493199 -0.21360041 -0.14257732 0.080364235 -0.08387545 0.2165341
-0.17881986 0.11311369 0.21860382 -0.22600017 -0.042082 0.24341021 0.07005981 -0.2502592
-0.24008246 -0.278171 0.18780437 0.10782723 -0.076096416 -0.25414017 -0.0906899 0.023528798
00000000: e3e7 20bd 4a3a 76be 80cc a8bd b1d6 0a3d
00000010: 5b89 813c b35f d33c 4cc9 1b3d 2bb2 2f3d
00000020: d8e5 06be 0043 a43d 7859 c83d 4bb1 923d
00000030: a65e ff3d ac60 52be 9454 18be b68d 0fbd
00000040: 0d3b fd3d bcac edbd e159 643e d7b5 41be
00000050: 7bc8 4b3e 793c f9bd 0c0e 223e 5a3c 883e
00000060: 31b1 11be 5190 e1bb 54da 863d 6b4b b13b
00000070: c6b5 2abe 77a1 05be dee2 c2bb 74e5 173e
00000080: 8a97 7f3e 8984 403d 00bc 373e c605 3c3e
00000090: 1898 aebc 7dac 3c3e 9ddc a7bd b193 6c3e
000000a0: a695 d63d 19a8 21bd d914 0fbd 11ba 5abe
000000b0: caff 11be 0196 a43d e4c6 abbd 1dbb 5d3e
000000c0: 8e1c 37be 26a8 e73d aed9 5f3e 976c 67be
000000d0: 2d5e 2cbd 8740 793e 857b 8f3d f921 80be
000000e0: 2dd8 75be 6e6c 8ebe ca4f 403e 86d4 dc3d
000000f0: 70d8 9bbd a91e 82be a0bb b9bd 77bf c03c

lin4.weight f4 [64, 64]
-0.043346215 -0.090661384 -0.050611783 -0.049994804 0.05856572 0.05967847 -0.05826986 0.018492399
-0.043123644 0.14265715 -0.078713536 0.0026897267 -0.04830576 -0.22439575 -0.04693844 -0.14141643
-0.09952869 -0.02360259 -0.07834126 -0.03180755 0.13109308 -0.06968616 -0.077748515 0.07356526
-0.041738693 -0.01615711 -0.09813056 -0.009271269 -0.018294077 0.025785703 0.016396863 0.23126169
0.1076857 -0.113117635 0.040244114 0.108895354 0.05296102 -0.021850418 -0.117514595 -0.083006695
-0.13151196 -0.017131275 0.034303065 -0.025949417 0.066091344 -0.04448389 -0.008797374 0.10030252
-0.06648508 -0.07865019 0.092000365 0.043598104 0.00076652894 0.10766107 -0.0019613404 -0.11454879
-0.108154014 -0.035226177 0.10655047 0.011186097 0.11648891 -0.016735777 0.08936446 -0.07217779
0.1662769 0.026140813 0.029840034 -0.020535715 -0.13889594 -0.07541822 0.15358053 0.06268503
-0.08367351 0.15136558 -0.042087667 -0.06407331 0.1870695 0.47752574 0.02821341 0.05905394
-0.08998257 0.13265495 -0.10847227 0.4505413 -0.061807428 -0.0075153927 -0.017232487 -0.18819721
0.1781241 0.03477711 0.0002516445 0.199278 0.07948602 0.004332861 0.08140757 -0.24352114
-0.19787084 -0.119872086 -0.08977962 -0.31082594 -0.053373888 -0.27892575 0.050504398 -0.04208946
-0.02695034 0.020899793 -0.0077718715 0.085065804 0.08408238 0.0193216 -0.114840254 -0.46720555
-0.028452158 -0.10168345 -0.011839238 0.045685966 0.090415865 -0.21251161 0.07085172 0.45590767
0.04085722 0.18643309 -0.06440279 -0.14025132 -0.08835914 0.06342336 0.030998845 -0.027884772
-0.09484191 0.10378869 0.013842262 -0.026645854 -0.0065738284 0.11167452 0.0041539213 -0.09842138
0.066444434 0.025883298 -0.032907944 0.027044246 0.14960027 0.16720697 -0.13591795 0.094871104
0.053747367 0.12199148 -0.10689172 0.011484852 -0.07749752 -0.07706253 -0.12367838 -0.14333728
0.13560994 -0.12892215 0.17239878 -0.19132833 0.057699006 0.04800684 0.093016244 -0.09233825
-0.25343555 -0.015082375 -0.009678599 0.06793135 0.06007858 0.2512534 0.14116944 0.037276626
0.012665325 -6.741306e-05 -0.0062622186 0.13687283 -0.066838846 -0.10329612 0.044706926 0.14962007
0.042929623 0.052830733 -0.18755944 -0.0322299 0.2342463 -0.061417427 0.12311532 -0.044788938
0.20171118 0.07896547 0.03899874 -0.10552819 0.08466215 0.15617299 -0.013722371 0.12763281
-0.040736612 0.014382692 0.029307574 0.049737018 -0.016020384 0.07689308 -0.056924444 0.026715385
-0.040135685 0.0116618965 -0.058320507 -0.015177367 -0.13679317 -0.066312164 -0.036833484 0.08321115
0.10922652 0.041093264 0.062192064 0.08009186 -0.18403034 0.010796126 -0.14171633 -0.09973818
-0.023436483 -0.13856953 0.03938328 -0.102010936 -0.0776121 -0.048038077 0.05398695 -0.008023791
0.07561878 -0.035783067 -0.09482064 0.027985644 -0.08239712 -0.08453361 -0.25164065 0.09504612
-0.07158858 0.05167614 0.06488685 -0.06894129 0.14709532 0.0060014143 0.08164469 -0.064053535
0.12177587 0.052245483 0.059802826 -0.037377942 -0.20475829 0.04259009 0.023817405 0.005997162
-0.03480625 0.1343239 0.04325373 -0.029974135 -0.07620037 -0.04955025 0.06768559 0.08619413
00000000: cd8b 31bd adac b9bd 4d4e 4fbd 5ac7 4cbd
00000010: 9ce2 6f3d 6971 743d 60ac 6ebd 5f7d 973c
00000020: 6ba2 30bd b714 123e 9034 a1bd 2046 303b
00000030: 43dc 45bd 00c8 65be 8642 40bd 78cf 10be
00000040: b3d5 cbbd 385a c1bc 6271 a0bd a248 02bd
00000050: 443d 063e 9eb7 8ebd 9d3a 9fbd 62a9 963d
00000060: 31f6 2abd ea5b 84bc adf8 c8bd 85e6 17bc
00000070: 76dd 95bc 8a3c d33c b752 863c ddcf 6c3e
00000080: 528a dc3d 38aa e7bd 03d7 243d 8704 df3d
00000090: a8ed 583d a6ff b2bc 7eab f0bd 6aff a9bd
000000a0: 12ab 06be e356 8cbc 5f81 0c3d df93 d4bc
000000b0: e65a 873d bd34 36bd dc22 10bc 686b cd3d
000000c0: 5429 88bd 5a13 a1bd b06a bc3d ed93 323d
000000d0: e3f0 483a 687d dc3d d589 00bb 8e98 eabd
000000e0: da7f ddbd 5349 10bd 2237 da3d e445 373c
000000f0: bd91 ee3d 7819 89bc b704 b73d f3d1 93bd
00000100: 7e44 2a3e 4225 d63c 1673 f43c 843a a8bc
00000110: bd3a 0ebe de74 9abd 3744 1d3e 0261 803d
00000120: 045d abbd 94ff 1a3e 1e64 2cbd de38 83bd
00000130: 268f 3f3e 417e f43e cf1f e73c 8be2 713d
00000140: c848 b8bd b3d6 073e b626 debd 59ad e63e
00000150: c929 7dbd af43 f6bb 252b 8dbc c5b6 40be
00000160: 2a66 363e 7172 0e3d 27ef 8339 880f 4c3e
00000170: 91c9 a23d acfa 8d3b 03b9 a63d 9b5d 79be
00000180: a79e 4abe 7f7f f5bd 61de b7bd 9424 9fbe
00000190: 949e 5abd 5bcf 8ebe b3dd 4e3d ff65 2cbd
000001a0: f6c6 dcbc 0b36 ab3c 2fab febb fb36 ae3d
000001b0: 6233 ac3d 5548 9e3c 5e31 ebbd 9135 efbe
000001c0: 8014 e9bc 6a3f d0bd 5df9 41bc 3521 3b3d
000001d0: f42b b93d a59c 59be b51a 913d bb6c e93e
000001e0: e659 273d 51e8 3e3e 9ce5 83bd 0b9e 0fbe
000001f0: a3f5 b4bd 1be4 813d 4af1 fd3c 9b6e e4bc
00000200: 7a3c c2bd 2a8f d43d a8ca 623c 6848 dabc
00000210: 4569 d7bb 9cb5 e43d 9e1d 883b 2691 c9bd
00000220: 0514 883d 3609 d43c 7bca 06bd e58b dd3c
00000230: d030 193e 4e38 2b3e 132e 0bbe c84b c23d
00000240: 3326 5c3d abd6 f93d 0cea dabd f62a 3c3c
00000250: 05b7 9ebd f6d2 9dbd 174b fdbd 02c7 12be
00000260: 55dd 0a3e 2b04 04be 4e89 303e 93eb 43be
00000270: cb55 6c3d d2a2 443d 4d7f be3d d61b bdbd
00000280: 4ec2 81be 111c 77bc fd92 1ebc 971f 8b3d
00000290: f514 763d 49a4 803e b98e 103e 60af 183d
000002a0: 3982 4f3c 1c60 8db8 4c33 cdbb 6428 0c3e
000002b0: cee2 88bd eb8c d3bd 9c1e 373d 0136 193e
000002c0: f9d6 2f3d 0a65 583d 950f 40be 8003 04bd
000002d0: 43de 6f3e d790 7bbd e323 fc3d 9b74 37bd
000002e0: 608d 4e3e a6b8 a13d 25bd 1f3d 2a1f d8bd
000002f0: 5963 ad3d d0eb 1f3e ccd3 60bc 2db2 023e
00000300: 6fdb 26bd 62a5 6b3c 7016 f03c 0bb9 4b3d
00000310: 2e3d 83bc 1e7a 9d3d 9b29 69bd 39da da3c
00000320: 5165 24bd 8a11 3f3c 7ce1 6ebd 7eaa 78bc
00000330: 8213 0cbe acce 87bd b5de 16bd 9b6a aa3d
00000340: 27b2 df3d 6951 283d 1bbd 7e3d 3307 a43d
00000350: 7372 3cbe 3ce2 303c 161e 11be 8843 ccbd
00000360: defd bfbc 2ce5 0dbe 5d50 213d 1ceb d0bd
00000370: 18f3 9ebd 93c3 44bd 6c21 5d3d 3876 03bc
00000380: 05de 9a3d 4491 12bd 5331 c2bd 2642 e53c
00000390: d2bf a8bd f51f adbd 0bd7 80be 8aa7 c23d
000003a0: 099d 92bd 5caa 533d 66e3 843d 1731 8dbd
000003b0: 28a0 163e 83a7 c43b 5535 a73d 802e 83bd
000003c0: a165 f93d 5cff 553d cff3 743d 9d19 19bd
000003d0: 28ac 51be f272 2e3d b81c c33c d783 c43b
000003e0: 0091 0ebd 348c 093e d32a 313d 518c f5bc
000003f0: f10e 9cbd 34f5 4abd be9e 8a3d 8c86 b03d

lin4.bias f4 [64]
0.10421811 -0.10677201 -0.21227029 -0.014628541 -0.12780997 -0.050831925 0.046525385 -0.10443255
0.20544212 0.003595138 0.088643275 -0.017416332 -0.23627657 0.1409516 0.011308672 0.07135328
0.069622315 0.033609662 -0.22700879 -0.16338927 0.05396425 0.029298862 -0.18923187 0.22003154
0.008291628 0.17566675 -0.2281572 -0.21845368 0.13543448 -0.015395374 -0.027906863 -0.030831557
0.16481413 0.19466445 -0.23227635 -0.16511682 -0.0017397908 0.07158738 -0.19932023 0.075396374
0.18894628 0.18654104 -0.025320718 -0.07323866 0.07544772 -0.20042348 0.10111014 0.19697407
-0.032554336 -0.011548361 -0.17466387 -0.13077557 0.08340286 0.18266827 -0.028198943 0.06717272
0.082694285 -0.10146049 -0.031693894 -0.10469615 0.034731496 0.13601187 -0.12375056 -0.16725656
00000000: 4e70 d53d 49ab dabd 625d 59be 8cac 6fbc
00000010: 9ee0 02be 2335 50bd 6791 3e3d bce0 d5bd
00000020: 6b5f 523e 689c 6b3b 9b8a b53d b2ac 8ebc
00000030: 7cf2 71be 9e55 103e 0248 393c ab21 923d
00000040: 2596 8e3d 49aa 093d fe74 68be 844f 27be
00000050: 9e09 5d3d 2b04 f03c 00c6 41be f34f 613e
00000060: 9cd9 073c fce1 333e 0ba2 69be 52b2 5fbe
00000070: 56af 0a3e e13c 7cbc ef9c e4bc 7692 fcbc
00000080: 09c5 283e 1e56 473e dad9 6dbe 6214 29be
00000090: b109 e4ba 679c 923d 9a1a 4cbe 6a69 9a3d
000000a0: 227b 413e 9d04 3f3e 656d cfbc 27fe 95bd
000000b0: 5684 9a3d d03b 4dbe d512 cf3d 92b3 493e
000000c0: b257 05bd 5635 3dbc 16db 32be 08ea 05be
000000d0: 1ecf aa3d 640d 3b3e 7801 e7bc da91 893d
000000e0: 9f5b a93d 84ca cfbd 75d1 01bd ef6a d6bd
000000f0: 9d42 0e3d b246 0b3e ef70 fdbd 4e45 2bbe

lin5.weight f4 [1, 64]
-0.009871501 0.12078169 0.0581222 0.010507431 0.25598076 0.1596352 -0.0033900922 0.040101517
-0.34678334 -0.26341656 -0.62179595 -0.11661852 0.39056575 0.09577228 -0.33344424 0.02001674
-0.47186098 -0.46354082 0.23621947 0.19330995 -0.0382278 0.5339019 0.16990872 -0.09881451
-0.28185135 -0.2455888 0.2699159 0.29992306 -0.11854833 0.061935045 -0.42121163 0.09327933
-0.24458772 -0.2770204 0.25336802 0.19511896 -0.07268397 -0.10275734 0.25507843 -0.4364721
-0.1653353 -0.20546621 0.23259504 0.15079151 0.5004476 0.2422524 -0.21835928 -0.2800408
0.09025297 0.013936755 0.28071168 0.17553632 0.32148445 -0.22453071 0.054234132 0.14062323
-0.34625322 0.11988311 0.053645235 0.2210751 -0.17921975 -0.09852843 0.02041489 0.24997334
00000000: 13bc 21bc 645c f73d 8b11 6e3d 5c27 2c3c
00000010: e90f 833e 6977 233e 4f2c 5ebb 7d41 243d
00000020: 968d b1be 89de 86be 052e 1fbf b1d5 eebd
00000030: 3cf8 c73e 4224 c43d 34b9 aabe 25fa a33c
00000040: c397 f1be 3955 edbe 84e3 713e 0bf3 453e
00000050: c194 1cbd cbad 083f 8dfc 2d3e 435f cabd
00000060: d24e 90be a17b 7bbe 6b32 8a3e 848f 993e
00000070: 78c9 f2bd 9aaf 7d3d 0da9 d7be 3c09 bf3d
00000080: 3475 7abe 9ed5 8dbe 74b9 813e 44cd 473e
00000090: 55db 94bd 7172 d2bd a499 823e 4579 dfbe
000000a0: a84d 29be bc65 52be 652d 6e3e 1769 1a3e
000000b0: 551d 003f 0311 783e 9399 5fbe 8261 8fbe
000000c0: 8dd6 b83d fd56 643c 71b9 8f3e cbbf 333e
000000d0: 9c99 a43e 61eb 65be 9c24 5e3d 89ff 0f3e
000000e0: 1a48 b1be 4785 f53d 1bbb 5b3d 8361 623e
000000f0: 6285 37be 46c9 c9bd 213d a73c 03f9 7f3e

exp_avg f4 [5, 2]
0.006021064 -0.004855843 0.0002748248 0.0005880722 0.0051813214 0.004533367 0.00049306604 0.00059267576
-0.0014116648 0.017663993
00000000: 584c c53b c31d 9fbb 5c16 9039 db28 1a3a
00000010: 13c8 a93b a48c 943b 1a41 013a cc5d 1b3a
00000020: 9c07 b9ba 14b4 903c

exp_avg_sq f4 [5, 2]
0.047218446 0.033197474 0.0021550888 0.00013592857 0.02306803 0.010868341 0.0014072341 0.0002219934
0.022870403 0.26029113
00000000: 2168 413d 13fa 073d 643c 0d3b 0c88 0e39
00000010: 2af9 bc3c 2011 323c f172 b83a e6c6 6839
00000020: b65a bb3c e144 853e

exp_avg f4 [64, 10]
6.397997e-05 -4.3711167e-05 5.93374e-05 -2.7731025e-05 -2.486981e-05 1.6787631e-05 -2.4767987e-05 1.841889e-05
-5.003397e-05 4.734651e-05 2.2719358e-05 1.6931936e-05 -4.662129e-06 -3.2423322e-06 4.6950572e-05 5.51181e-05
1.8584451e-05 4.4853543e-05 2.8181375e-07 -2.302103e-05 1.1191345e-05 -2.0303398e-05 3.9713286e-05 5.183151e-06
-4.441638e-05 -6.0325146e-06 -5.715584e-06 4.4882336e-06 -2.0972178e-05 1.1561164e-05 1.0899003e-06 -4.050912e-06
1.6352344e-05 -2.790663e-06 -9.479614e-06 -1.1497048e-06 -5.708712e-07 -4.697817e-06 -8.447687e-06 -1.0378806e-06
-0.00018073282 7.190363e-05 -0.0001127476 6.448236e-05 -8.009815e-06 -0.0001293665 6.564797e-05 -0.00014835014
0.00011482466 -0.000106214444 -6.1079765e-05 1.6598111e-05 -2.9861785e-05 3.5828118e-05 -3.2525684e-05 -7.069199e-05
5.246975e-05 -7.809229e-05 4.4286375e-05 -4.9472546e-05 -5.951138e-05 1.869116e-05 -5.4455937e-05 3.6818314e-05
-8.336077e-06 -1.5509962e-05 3.866429e-05 -4.2089436e-05 5.0763625e-05 -2.1241005e-05 8.777524e-06 -1.213254e-05
2.3228311e-05 1.0517417e-05 -5.3228987e-06 1.7898315e-05 -2.1142887e-06 1.67569e-05 -3.0087153e-06 8.021002e-06
3.573412e-06 -2.0597945e-06 2.5260964e-05 -1.7611725e-05 -1.9893134e-05 2.3241068e-05 1.2148292e-05 2.0961146e-05
-4.8897436e-06 -1.352558e-05 -2.8335984e-05 2.5938934e-05 -4.8814945e-05 -9.437854e-06 7.80029e-06 -3.3405322e-05
-5.178108e-06 -3.9991417e-05 1.2454562e-05 -1.5296011e-06 0.00016519036 -0.00011477526 0.00021080066 -3.451275e-05
-6.770635e-05 0.00013616186 -6.949507e-05 0.00016906875 -0.00012584373 0.00012041228 2.9747745e-05 -5.5806857e-05
7.8166304e-05 4.222355e-06 -4.957874e-05 3.9766324e-05 7.6107585e-06 5.777838e-05 -5.9274764e-05 1.3810046e-05
-1.0762903e-05 1.0676838e-05 -3.724327e-05 -5.9533486e-06 2.5815729e-05 -2.8568344e-05 -2.203097e-05 -3.3324435e-05
-8.0947973e-07 8.7200056e-07 -1.4760091e-05 5.709895e-06 -1.6487838e-05 -6.7645615e-06 2.7449387e-05 -2.636893e-05
-1.7402834e-05 -2.7323611e-05 3.4172922e-06 -9.491466e-07 5.971881e-05 6.139708e-06 -6.5780296e-07 -3.7106154e-05
2.3612329e-05 5.6082394e-05 -8.458308e-06 7.171178e-05 -3.708348e-05 3.1018055e-05 6.5812186e-05 -3.115865e-05
4.9278056e-05 -1.8381454e-05 -6.616727e-06 2.3591656e-06 -5.4692984e-05 1.42631725e-05 -5.2407395e-05 4.00071e-05
3.0275933e-05 -2.8917959e-05 2.5817864e-05 2.9802547e-06 -1.4146482e-05 7.582785e-07 -1.9368665e-05 6.7595865e-06
-2.3927314e-05 2.8905113e-05 6.3330963e-06 -1.9560288e-05 4.2909902e-05 5.9035337e-06 -2.8356255e-05 5.584271e-06
-7.6084493e-06 8.829393e-06 -9.873595e-06 1.121274e-05 4.189941e-06 8.7225635e-06 -1.884218e-05 -1.378321e-07
2.5809054e-06 7.990299e-05 1.5410391e-05 0.00010123089 -1.3500165e-05 4.3565724e-06 -1.9275416e-05 -4.7722096e-06
1.6935439e-05 -4.082901e-06 -3.523992e-05 -2.4502004e-05 -8.02047e-06 -2.4858731e-05 1.17793925e-05 2.814889e-06
-0.00013463992 3.1989013e-05 -3.850677e-05 6.5186556e-05 -7.688719e-05 -3.331702e-05 9.437053e-05 -0.000101660386
8.299632e-05 -6.491692e-05 7.034826e-05 -2.9805928e-05 5.040598e-05 -3.2818563e-05 -1.1698827e-05 2.9850933e-05
-2.6786856e-05 2.995202e-05 -5.4016054e-05 3.4914025e-05 -8.076145e-05 3.574785e-05 -2.8097751e-05 2.5173435e-05
5.688429e-06 -6.552106e-05 1.2364003e-05 -7.259132e-05 4.5211855e-05 -4.1645628e-05 4.9067527e-05 -4.4748438e-05
0.000104095976 -1.4558225e-06 -0.000103226586 6.809575e-05 7.364746e-07 8.892435e-05 -3.8612718e-05 2.66491e-05
-8.0398364e-05 4.051911e-05 -7.426413e-05 1.7835886e-05 1.8247083e-05 -6.9570655e-05 5.2113733e-06 -8.5046726e-05
4.8666705e-05 -1.7249196e-05 -6.353148e-06 9.064517e-06 -1.5097714e-05 -2.3359512e-06 4.5187544e-06 6.7034844e-06
00000000: fc2c 8638 8256 37b8 0ce1 7838 ec9f e8b7
00000010: 839f d0b7 2ad3 8c37 d9c4 cfb7 4482 9a37
00000020: 91db 51b8 ee95 4638 7395 be37 0e09 8e37
00000030: 626f 9cb6 d896 59b6 cbec 4438 9c2e 6738
00000040: cee5 9b37 2021 3c38 304c 9734 491d c1b7
00000050: 76c2 3b37 3751 aab7 d191 2638 eeea ad36
00000060: ba4b 3ab8 e86a cab6 7ec8 bfb6 a299 9636
00000070: 69ed afb7 d2f6 4137 b048 9235 12ed 87b6
00000080: 642c 8937 3a47 3bb6 a20a 1fb7 8e4f 9ab5
00000090: f83d 19b5 f1a1 9db6 8aba 0db7 4e4d 8bb5
000000a0: 1983 3db9 f8ca 9638 e872 ecb8 b43a 8738
000000b0: e561 06b7 8ea6 07b9 7cac 8938 708e 1bb9
000000c0: 05ce f038 72bf deb8 f317 80b8 2c3c 8b37
000000d0: b27f fab7 2646 1638 306c 08b8 7940 94b8
000000e0: f712 5c38 7bc5 a3b8 22c0 3938 be80 4fb8
000000f0: dc9b 79b8 f6ca 9c37 9e67 64b8 5d6d 1a38
00000100: 2edb 0bb7 641b 82b7 772b 2238 3089 30b8
00000110: 07eb 5438 b62e b2b7 2e43 1337 dd8c 4bb7
00000120: 6bda c237 f673 3037 5a9b b2b6 5724 9637
00000130: 34e3 0db6 2b91 8c37 56e9 49b6 f191 0637
00000140: c0ce 6f36 003b 0ab6 82e7 d337 e4bc 93b7
00000150: 2ee0 a6b7 d0f5 c237 84d0 4b37 b8d5 af37
00000160: 9412 a4b6 eceb 62b7 10b3 edb7 7097 d937
00000170: a6be 4cb8 4657 1eb7 fedd 0237 b11c 0cb8
00000180: 9cbf adb6 75bc 27b8 f0f3 5037 b24c cdb5
00000190: f336 2d39 80b3 f0b8 5f0a 5d39 c8c1 10b8
000001a0: 92fd 8db8 acc6 0e39 e2bd 91b8 0c48 3139
000001b0: ebf4 03b9 da85 fc38 cc8a f937 2812 6ab8
000001c0: 37ed a338 c1ad 8d36 c4f2 4fb8 c4ca 2638
000001d0: eb5f ff36 1057 7238 cb9d 78b8 b2b1 6737
000001e0: 5192 34b7 ac20 3337 a835 1cb8 e0c2 c7b6
000001f0: db8e d837 0da6 efb7 26cf b8b7 d7c5 0bb8
00000200: 064b 59b5 6c13 6a35 1ca2 77b7 a097 bf36
00000210: 5d4f 8ab7 24fb e2b6 1c43 e637 d932 ddb7
00000220: 4dfc 91b7 0235 e5b7 a254 6536 dcc8 7eb5
00000230: 957a 7a38 b103 ce36 e093 30b5 6ea2 1bb8
00000240: 1713 c637 033a 6b38 28e8 0db7 f863 9638
00000250: 158a 1bb8 6219 0238 a604 8a38 58b0 02b8
00000260: e9af 4e38 df31 9ab7 4105 deb6 2852 1e36
00000270: 2566 65b8 dc4b 6f37 03d0 5bb8 4ccd 2738
00000280: 12f9 fd37 d894 f2b7 7193 d837 6300 4836
00000290: ad56 6db7 808c 4b35 e479 a2b7 68d0 e236
000002a0: 84b7 c8b7 4279 f237 e280 d436 6615 a4b7
000002b0: 28fa 3338 f816 c636 98de edb7 8660 bb36
000002c0: 154c ffb6 f421 1437 c5a6 25b7 5a1e 3c37
000002d0: 5297 8c36 2057 1237 460f 9eb7 00ff 13b4
000002e0: 9e33 2d36 9791 a738 9045 8137 ec4b d438
000002f0: c47e 62b7 ac2e 9236 a4b1 a1b7 f820 a0b6
00000300: 9410 8e37 daff 88b6 93ce 13b8 a789 cdb7
00000310: a88f 06b7 b887 d0b7 1ba0 4537 6de7 3c36
00000320: 212e 0db9 f12b 0638 5482 21b8 c4b4 8838
00000330: 7f3e a1b8 e1bd 0bb8 cbe8 c538 8132 d5b8
00000340: 4f0e ae38 0224 88b8 ef87 9338 be07 fab7
00000350: 026b 5338 aaa6 09b8 1446 44b7 6468 fa37
00000360: 56b4 e0b7 7941 fb37 4c8f 62b8 a670 1238
00000370: 795e a9b8 f6ef 1538 76b3 ebb7 8a2b d337
00000380: 3cdf be36 5a68 89b8 fd6e 4f37 2b3c 98b8
00000390: dca1 3d38 a7ac 2eb8 dbcd 4d38 45b0 3bb8
000003a0: 1a4e da38 ae65 c3b5 5a7b d8b8 a1ce 8e38
000003b0: 26b2 4535 e67c ba38 17f4 21b8 828c df37
000003c0: 8b9b a8b8 10f3 2938 40be 9bb8 469e 9537
000003d0: 5011 9937 76e6 91b8 5bdd ae36 1d5b b2b8
000003e0: 7a1f 4c38 5eb2 90b7 202d d5b6 ce13 1837
000003f0: 304c 7db7 56c3 1cb6 ce9f 9736 7eee e036

exp_avg_sq f4 [64, 10]
4.8396005e-06 1.2547589e-06 3.8173257e-06 6.687545e-07 4.692338e-06 8.316479e-07 1.381976e-06 1.3517191e-06
7.934603e-07 6.3026226e-07 9.68834e-07 4.879342e-07 1.4932107e-06 6.2433816e-07 4.2299007e-06 7.9661874e-07
1.043776e-06 1.7765627e-06 4.7606537e-07 1.75138e-06 2.8898071e-07 2.6015468e-07 8.6495436e-07 1.0649815e-07
1.8437488e-06 1.7655827e-07 1.2594205e-07 2.5064224e-07 2.7158916e-07 4.3228795e-07 8.5655515e-08 9.154092e-08
2.5982317e-07 4.8524313e-08 6.609063e-08 6.456366e-08 4.2096506e-08 5.8286954e-08 7.0378555e-08 1.1265529e-07
2.258656e-05 5.6249714e-06 1.8316603e-05 2.750988e-06 2.1208187e-05 8.157484e-06 1.1147689e-05 1.8423736e-05
5.26282e-06 4.499385e-06 5.1125667e-06 1.4311328e-06 3.989579e-06 8.1991834e-07 6.8594004e-06 4.190983e-06
5.646297e-06 7.1866843e-06 1.3424798e-06 1.8025602e-06 5.6188956e-06 1.1275137e-06 3.4463508e-06 8.8007795e-07
5.8393202e-06 4.3984437e-07 2.383284e-06 2.0376922e-06 1.1930197e-06 1.1924742e-06 3.7839854e-07 3.3545615e-07
3.7084814e-07 1.6137201e-07 4.6325948e-07 5.573049e-07 1.6450669e-07 6.834939e-07 1.1148918e-07 3.2334e-07
1.6105412e-07 1.1174642e-07 8.171836e-07 2.660616e-07 5.679972e-07 4.3484826e-07 3.4990265e-07 2.13308e-07
5.8077173e-08 5.707437e-07 1.1777502e-06 8.991573e-07 1.8039284e-06 1.7563833e-07 1.5815768e-06 1.180776e-06
3.1399213e-07 1.5842356e-06 2.7264747e-07 2.0688532e-07 2.6520573e-05 1.1569293e-05 2.6165702e-05 3.4772609e-06
3.0111736e-05 1.13427595e-05 1.2565818e-05 2.4308534e-05 6.024826e-06 5.5345117e-06 4.7852445e-06 2.662295e-06
4.2980164e-06 8.688344e-07 6.4761066e-06 1.3063357e-06 1.3785163e-06 2.5446168e-06 1.0866637e-06 9.714151e-07
7.89914e-07 4.1531058e-07 9.620633e-07 2.2754757e-07 1.2498049e-06 8.731086e-07 2.4323433e-07 8.68198e-07
2.85288e-07 2.2048374e-07 1.5223479e-07 1.9010395e-07 2.5860706e-07 1.8929028e-07 3.4713938e-07 2.207312e-07
2.2464512e-07 6.98846e-07 6.444638e-08 4.1355457e-07 2.3405946e-06 6.567277e-07 2.706157e-06 6.6095095e-07
3.7785067e-06 1.5631564e-06 1.2546603e-06 4.285036e-06 9.150428e-07 2.4836045e-06 2.788674e-06 7.3779e-07
1.4990936e-06 2.7799422e-07 1.3298544e-06 3.5113086e-07 2.095667e-06 7.496128e-07 1.1339957e-06 5.1989707e-07
1.1173305e-06 5.3252984e-07 6.769429e-07 1.6274964e-07 9.860768e-07 3.20024e-07 7.6096734e-07 3.1695842e-07
2.2396287e-07 7.721675e-07 2.9777777e-07 4.103905e-07 9.023816e-07 8.79064e-08 9.76874e-07 1.3834136e-07
1.08145414e-07 2.7155724e-07 1.2226324e-07 1.1986789e-07 2.8226127e-06 1.3153292e-06 3.3974954e-06 1.709837e-06
4.448015e-06 6.541931e-06 2.571908e-06 7.242029e-06 1.4761018e-06 3.832068e-06 4.176775e-07 1.2313521e-07
5.148043e-07 2.0755249e-07 1.36438e-06 4.5032337e-07 1.053505e-07 2.941538e-07 1.15254515e-07 1.672619e-07
2.0681578e-05 4.3813016e-06 1.3103157e-05 1.7870323e-06 1.8805962e-05 3.4520504e-06 9.840299e-06 7.0080537e-06
5.774889e-06 1.7673646e-06 4.265315e-06 1.3233292e-06 3.5441171e-06 1.3394169e-06 4.0025006e-06 1.6082172e-06
2.0841273e-06 1.7563548e-06 8.3924857e-07 1.9134702e-06 5.3853605e-06 1.4587544e-06 4.1376948e-06 7.94538e-07
4.8713623e-06 3.473561e-06 1.4787715e-06 6.794095e-06 1.5048968e-06 2.023832e-06 4.4727994e-06 2.5366173e-06
5.616402e-06 8.9884423e-07 1.404496e-05 3.7502778e-06 1.4760353e-06 7.4930385e-06 9.5042424e-07 1.3963959e-06
4.7778594e-06 2.2291647e-06 4.6753075e-06 5.733361e-07 4.4627477e-06 3.2212288e-06 1.5015423e-06 5.5115543e-06
8.468311e-07 7.0142994e-07 2.1611264e-07 1.5131661e-07 2.3119124e-07 5.0943825e-08 2.349981e-07 3.6923076e-08
00000000: da63 a236 3069 a835 9416 8036 7684 3335
00000010: e072 9d36 693e 5f35 557c b935 b76c b535
00000020: 2dfe 5435 4b2f 2935 e208 8235 95fa 0235
00000030: 546a c835 3198 2735 92ee 8d36 39d7 5535
00000040: df17 8c35 3b72 ee35 ed95 ff34 f510 eb35
00000050: 3525 9b34 63ab 8b34 362f 6835 fab3 e433
00000060: ba76 f735 f893 3d34 b03a 0734 0290 8634
00000070: eece 9134 3415 e834 9ef1 b733 2795 c433
00000080: d37d 8b34 0c69 5033 b5ed 8d33 3fa6 8a33
00000090: 99cd 3433 2f57 7a33 0523 9733 e7ec f133
000000a0: 4578 bd37 23be bc36 9ba6 9937 9d9d 3836
000000b0: 3ce8 b137 21dc 0837 f606 3b37 ac8c 9a37
000000c0: 4897 b036 6cf9 9636 9d8c ab36 5915 c035
000000d0: 39de 8536 5c18 5c35 cd29 e636 45a0 8c36
000000e0: 5275 bd36 2625 f136 412f b435 7fef f135
000000f0: f289 bc36 1355 9735 db47 6736 7f3e 6c35
00000100: 61ef c336 c023 ec34 82f0 1f36 49bf 0836
00000110: d81f a035 1a0d a035 b326 cb34 be18 b434
00000120: fb18 c734 9a45 2d34 e6b5 f834 b399 1535
00000130: 41a3 3034 5879 3735 d36b ef33 8397 ad34
00000140: 38ee 2c34 3ef9 ef33 6e5c 5b35 3ad7 8e34
00000150: 7878 1835 1775 e934 41da bb34 a809 6534
00000160: 8770 7933 3535 1935 3013 9e35 9f5d 7135
00000170: 821e f235 1997 3c34 9146 d435 287b 9e35
00000180: c092 a834 eca1 d435 6260 9234 3424 5e34
00000190: 7f78 de37 bc19 4237 6b7e db37 e35a 6936
000001a0: 7698 fc37 c84c 3e37 c7d1 5237 2eea cb37
000001b0: dc28 ca36 18b5 b936 f090 a036 e1a9 3236
000001c0: ae37 9036 d839 6935 554d d936 5a55 af35
000001d0: 7605 b935 2fc4 2a36 7bd9 9135 9261 8235
000001e0: 7a0a 5435 daf7 de34 3e20 8135 cd53 7434
000001f0: f8be a735 915f 6a35 df95 8234 1d0e 6935
00000200: af29 9934 1cbe 6c34 fb75 2334 601f 4c34
00000210: afd6 8a34 b73f 4b34 795e ba34 2102 6d34
00000220: fb35 7134 5598 3b35 c665 8a33 8206 de34
00000230: 1c13 1d36 fc49 3035 6c9b 3536 346c 3135
00000240: 4092 7d36 a5cd d135 cd65 a835 2ec8 8f36
00000250: 43a1 7535 00ac 2636 0e25 3b36 8b0c 4635
00000260: 7734 c935 3c3f 9534 737d b235 0f83 bc34
00000270: 49a3 0c36 0039 4935 cc33 9835 0e8f 0b35
00000280: 2ff7 9535 2cf3 0e35 29b7 3535 48c0 2e34
00000290: 5759 8435 c3cf ab34 4745 4c35 6f2a aa34
000002a0: 727a 7034 f246 4f35 44de 9f34 a453 dc34
000002b0: 313b 7235 0ec7 bc33 231d 8335 fc8a 1434
000002c0: 923d e833 8bca 9134 7747 0334 09b5 0034
000002d0: 1e6c 3d36 5e8a b035 8700 6436 8d7d e535
000002e0: 2840 9536 c282 db36 0b99 2c36 8e00 f336
000002f0: 791e c635 3795 8036 293d e034 2637 0434
00000300: 1531 0a35 98db 5e34 bd1f b735 f9c3 f134
00000310: 0d3d e233 31ec 9d34 d781 f733 9a98 3334
00000320: 5a7d ad37 1803 9336 a1d5 5b37 f6d9 ef35
00000330: 7fc1 9d37 c6a9 6736 c317 2537 b926 eb36
00000340: ebc5 c136 2f36 ed35 c71e 8f36 3f9d b135
00000350: 78d7 6d36 04c6 b335 384d 8636 ecd9 d735
00000360: 09dd 0b36 e4bb eb35 b948 6135 2b69 0036
00000370: e5b3 b436 6bca c335 87d6 8a36 3c48 5535
00000380: af74 a336 531b 6936 347a c635 d5f8 e336
00000390: dcfb c935 2bd1 0736 0e15 9636 c13a 2a36
000003a0: 8774 bc36 1b48 7135 a5a2 6b37 48ad 7b36
000003b0: 301c c635 b66c fb36 a820 7f35 cc6b bb35
000003c0: 8051 a036 c298 1536 96e0 9c36 5be7 1935
000003d0: b6be 9536 4a2c 5836 9a88 c935 e4ef b836
000003e0: ca51 6335 e649 3c35 970c 6834 9879 2234
000003f0: 5d3d 7834 54cd 5a33 c953 7c34 5a95 1e33

exp_avg f4 [64]
-0.00016454772 -0.00010824712 -3.0185354e-05 -6.303414e-06 0.0005348868 0.000247527 0.00019053348 -5.247729e-05
-4.1609506e-05 0.00012492797 -0.00060540554 -0.0002017059 7.5466814e-05 5.410778e-05 -0.00016417974 -9.972415e-05
-7.086978e-05 -4.381831e-05 -0.00023552991 5.9303544e-05 0.00041696412 -0.00016726748 0.00020284625 -0.00025185052
0.00024518956 1.6016427e-05 -0.00018412394 0.00013229117 -0.00015114027 -0.0001897412 -0.00010696004 0.00021371784
-0.00037885024 -0.0003364525 0.0005850881 -4.1866464e-05 -7.588856e-05 4.372187e-05 -0.00019046734 -0.00019484169
-3.683369e-06 6.410987e-05 0.0002785346 6.021864e-05 0.00010413937 8.114302e-05 -0.000165239 -3.0822983e-05
-0.00010348688 4.395784e-05 0.00014989608 1.7241618e-05 -0.00015329602 -0.00039533418 -0.00045162113 0.0001821964
0.00017407477 -0.00015417606 1.4707429e-05 1.6319005e-05 -0.0003161692 0.0004023505 -2.0059354e-06 5.455695e-06
00000000: 718a 2cb9 bb02 e3b8 8e36 fdb7 ea81 d3b6
00000010: a537 0c3a 83c6 8139 f1c9 4739 101b 5cb8
00000020: de85 2eb8 19ff 0239 14b4 1eba 0481 53b9
00000030: f043 9e38 c9f1 6238 aa27 2cb9 ff22 d1b8
00000040: ec9f 94b8 8dc9 37b8 94f8 76b9 b2bc 7838
00000050: fa9b da39 8664 2fb9 20b3 5439 ce0a 84b9
00000060: c98c 8039 045b 8637 6511 41b9 a4b7 0a39
00000070: 687b 1eb9 44f5 46b9 bc4f e0b8 7219 6039
00000080: 6ba0 c6b9 e465 b0b9 9960 193a c699 2fb8
00000090: 5c26 9fb8 0062 3738 30b8 47b9 6b4e 4cb9
000000a0: cc2f 77b6 b972 8638 4808 9239 4693 7c38
000000b0: 6665 da38 542b aa38 0244 2db9 ed47 01b8
000000c0: 1807 d9b8 5f5f 3838 6c2d 1d39 18a2 9037
000000d0: 16be 20b9 db44 cfb9 90c7 ecb9 f90b 3f39
000000e0: d787 3639 52aa 21b9 edbf 7637 cce4 8837
000000f0: 83c3 a5b9 92f2 d239 b59d 06b6 1010 b736
