model_checkpoints/fourier_sigmoid/checkpoints/epoch=1999-step=2000.ckpt (torch, 173854 bytes, 30 tensors)

B f4 [5, 2]
000000 5d 3b 91 3f 8f ac 33 3f 68 9d 42 be d7 ca c9 3f
       1.1346241 0.7018518 -0.19005358 1.5765027
000010 e1 78 a1 3d 34 4d 9a bf 5d d0 0e 3f 0e 67 d2 3f
       0.07884384 -1.205481 0.5578669 1.64377
000020 fd 22 24 3b 20 49 06 c0
       0.0025045269 -2.0982132

lin1.weight f4 [64, 10]
000000 6f 05 29 3f ed 41 0d 40 af 77 bf bf b2 b0 bf 3f
       0.66023916 2.2071488 -1.49584 1.4975798
000010 38 a6 12 c0 13 29 0d 3f 10 43 ee 3f 1d 50 24 c0
       -2.2913952 0.551408 1.8614216 -2.5673897
000020 71 ee 02 40 2e 3c a3 bf 4a cd 04 40 77 23 95 bf
       2.0458033 -1.275274 2.0750299 -1.1651448
000030 91 43 0e 40 c5 f2 e8 bf a0 e8 b1 bf bd 4c 84 3f
       2.222874 -1.8199087 -1.3899117 1.0335919
000040 a9 f6 38 40 51 5e aa 3e 37 0e a4 bf 92 11 96 be
       2.890055 0.33275083 -1.2816838 -0.2931028
000050 47 fa cc be b0 76 10 c0 62 aa cb bf 87 a1 a1 bf
       -0.40034696 -2.257244 -1.5911372 -1.2627419
000060 5a 84 d1 be 44 ac db be 99 ea 05 3f 6c 53 ad bf
       -0.4092129 -0.42904866 0.5231109 -1.3541083
000070 c9 96 05 40 5e b1 5c bf 28 1d 04 40 f6 7c a4 bf
       2.0873282 -0.8620814 2.0642796 -1.2850635
000080 d5 16 4a bc 66 ef d7 bf ef 2b b0 bf 01 6a c9 3e
       -0.012334545 -1.6869934 -1.3763407 0.39338687
000090 0b d3 6f 3f eb 7b 2c c0 0a 47 36 3f fa 07 5c 3f
       0.936814 -2.6950634 0.71202147 0.8594967
0000a0 43 72 58 3f d2 94 1d c0 48 46 be 3f 4c b8 b1 be
       0.8454935 -2.4622083 1.4865198 -0.3471092
0000b0 b6 3b f5 3f ec f9 7f 3f 1e 5b 2b 40 02 53 80 bf
       1.9158847 0.99990726 2.6774364 -1.0025332
0000c0 ba a2 26 40 02 d2 d6 3f 6b b9 cb c0 d3 c7 2b 3f
       2.603682 1.6782839 -6.366384 0.6710178
0000d0 c5 3b 00 be d0 25 b2 3e c8 3f 84 3f 07 9d 8c 3f
       -0.125228 0.34794474 1.0331964 1.0985421
0000e0 75 6c 6a 40 f8 1f 5e bc a9 eb 40 bf 89 ce df 3f
       3.6628697 -0.013557427 -0.7535959 1.7484905
0000f0 c3 3c 9f 3d 5e 1e 47 3f 4d 04 8d 3e 28 64 d0 3e
       0.07775261 0.7778071 0.27542344 0.40701413
000100 ea 72 76 3e 26 24 7a 3e 63 a3 21 40 c9 2a 06 c0
       0.24067274 0.24427852 2.5255973 -2.0963614
000110 57 d2 5c 3e 8a e9 63 bf 51 f0 8e 3f 7f 39 82 3e
       0.21564613 -0.8902823 1.1167089 0.2543449
000120 10 1d 1b bf 4f f7 df bf 6c 68 e1 bf 6e ee 43 3f
       -0.6059122 -1.7497348 -1.7609992 0.7653569
000130 31 bc 74 3f a2 75 22 c0 25 81 fa 3e 34 41 26 3f
       0.9559966 -2.5384297 0.48926654 0.6494324
000140 ad 29 57 3e 4b ba 36 bf 9a fe 99 bf c0 2c 98 bf
       0.21011992 -0.7137801 -1.2030823 -1.1888657
000150 28 4b b4 be 3b b6 6b 3f 4e 64 30 40 9d af 00 bf
       -0.3521359 0.92074937 2.756122 -0.50267965
000160 0d 48 06 3f 0d 3c c8 3f 8d 89 3a 3b 88 39 20 3f
       0.5245369 1.5643326 0.0028463334 0.62587786
000170 26 ec c3 3e 98 a8 67 3e d9 19 28 3f d1 66 d4 bd
       0.38266104 0.22622907 0.6566444 -0.10371173
000180 1a f7 35 40 8d 22 e7 bf 23 5a 8b 3f 70 2e 9f bf
       2.843207 -1.8057419 1.0886883 -1.2436047
000190 18 c6 89 c0 26 ea 7b be 83 ae 40 c0 1e 5e cf be
       -4.3054314 -0.2460104 -3.0106514 -0.40501493
0001a0 b0 de 13 40 bc 35 4f bf 19 4a e9 3f d6 a6 b5 bf
       2.3104668 -0.8094137 1.8225738 -1.4191539
0001b0 42 52 a5 bc 4c 30 07 bf a7 5b 8a 3e cf 70 0a bf
       -0.020180825 -0.5280807 0.2702305 -0.5407838
0001c0 5c 21 1e 3f 70 99 04 c0 d7 3a 50 3d 30 3e 0f 40
       0.6176965 -2.071865 0.050837364 2.2381706
0001d0 56 0d 13 40 aa 68 09 c0 4a 71 00 40 60 47 24 bf
       2.297689 -2.1470132 2.0069146 -0.6417141
0001e0 13 5b aa 3f d1 9b 19 3e 26 21 ca bf 0f af b7 bf
       1.3309044 0.15000845 -1.5791366 -1.4350299
0001f0 c6 5a b7 bf 6e 61 51 3e a2 40 32 40 49 ca 27 bf
       -1.4324577 0.20447323 2.7851949 -0.6554304
000200 30 1e b2 3f af a4 94 3f 13 41 c2 be 5e cc e8 bf
       1.3915462 1.1612757 -0.37940273 -1.8187368
000210 d6 2f 02 40 9a 8d 7a be 80 ad 00 40 c8 75 b6 be
       2.0341697 -0.24468079 2.0105896 -0.35636735
000220 a3 c9 15 40 37 23 ee bf 41 1f 12 40 c8 e5 f6 be
       2.340432 -1.8604497 2.2831576 -0.48222184
000230 32 47 4d bf 02 b1 7d 3f d5 dc c2 be 38 6d 8e bf
       -0.8018676 0.9909822 -0.38059106 -1.1127081
000240 2f 4e 2c c0 b0 83 d9 3e 9b fc 43 40 95 28 28 bf
       -2.692272 0.42483282 3.0622928 -0.65686923
000250 77 53 fa 3f c9 35 a2 be ea 2e 23 bf bf 8f 65 bf
       1.9556721 -0.3168166 -0.6374346 -0.89672464
000260 a3 3d 06 3e e0 80 73 bf e1 cd d5 bf 50 7b 93 3f
       0.1310945 -0.9511852 -1.6703454 1.1522007
000270 07 44 8e 3f 09 19 7d c0 f2 1f 8a bf ba 4a 37 3e
       1.111451 -3.954653 -1.0790999 0.178996
000280 0c 3c 3c bf 9e 51 3f c0 ec 5c c4 3e e3 69 f0 bf
       -0.73529124 -2.9893565 0.38352144 -1.8782314
000290 11 3d 02 3f 71 06 f3 3f a1 b7 57 be 01 84 26 c0
       0.5087443 1.8986341 -0.21066143 -2.6018069
0002a0 57 b5 93 3e 88 9a 5d c0 23 46 93 3d 28 71 8f 3f
       0.2884929 -3.4625568 0.07191112 1.1206408
0002b0 fa df 29 bf b6 d0 85 be ab 15 12 c0 f6 25 3d 3f
       -0.66357386 -0.26135796 -2.2825725 0.7388605
0002c0 79 47 13 40 45 b4 7d bf b7 08 38 40 e6 df 94 bc
       2.3012373 -0.99103194 2.875532 -0.01817317
0002d0 b2 5f 0b bf 3b 72 17 3f 4d c1 21 bf ce 00 91 3f
       -0.54442894 0.59158677 -0.6318558 1.132837
0002e0 fe 2d d9 bf cb 6f 7c 3f 1d f8 34 3f 3b f4 3e c0
       -1.6967161 0.9860808 0.7069109 -2.9836566
0002f0 ea 66 b8 3f 3d 9f 46 c0 1d 1b 09 c0 5a ce fa be
       1.4406407 -3.1034691 -2.1422799 -0.4898556
000300 ed 75 5b bf 4c 68 38 3f ce dd 86 be 75 c8 5f bf
       -0.85726815 0.72034144 -0.263411 -0.8741525
000310 74 ab 82 3f d6 00 14 c0 0d a9 2a 40 28 72 a3 be
       1.0208573 -2.312551 2.666568 -0.31923032
000320 7c 36 d0 bf cb da 83 c0 c8 9d b2 bf 73 33 51 c0
       -1.6266627 -4.120458 -1.3954401 -3.2687652
000330 3c 66 4b 3f 8e 7c d1 bf 83 01 74 40 5f ca 20 c0
       0.7945287 -1.6366136 3.8125923 -2.5123518
000340 fe ba 1c 40 e4 e3 3b 3e 46 94 83 c0 7b 14 3c bf
       2.448913 0.18348652 -4.11185 -0.7346875
000350 bf ad e8 bf e7 cb 5c 3f 0f 42 92 bf 49 3e e7 3f
       -1.8178023 0.8624863 -1.142641 1.8065883
000360 93 e3 06 40 94 44 18 c0 58 7d b4 be aa e7 94 bf
       2.10764 -2.3791857 -0.3525188 -1.1633198
000370 0c 63 2c 3f 79 6f d4 bf f6 5d c7 3f eb 6f b8 3f
       0.67338634 -1.6596519 1.557555 1.4409155
000380 6f 23 85 be 65 6d 81 3e f0 d0 42 40 34 7a aa bf
       -0.26003596 0.25278774 3.0440025 -1.3318543
000390 e9 3b 2a 3f 97 bf f9 3d df 4e 4b be b9 da bd 3f
       0.66497666 0.12194746 -0.19854306 1.4832374
0003a0 ce ca a9 3d cb 61 b3 3e e2 a7 da 3f f8 c1 f6 3f
       0.08290635 0.35035548 1.7082484 1.9277945
0003b0 0a ed 33 40 f1 5e ea bf 9c bc ec 3e ee 7c e1 bf
       2.8113427 -1.8310224 0.46237648 -1.761625
0003c0 ff 6b ca 3f 0d 27 7b bf 9a fa 04 3f 10 dc 20 bf
       1.5814208 -0.9810646 0.5194489 -0.6283579
0003d0 e0 c2 7e be f7 44 c3 3d 3f c9 37 40 29 49 9f 3e
       -0.24879026 0.095346384 2.871658 0.31110504
0003e0 81 ad 5e 3f 56 6e 56 bf 90 0f 6f c0 b6 e7 49 bf
       0.86983496 -0.8376211 -3.7353249 -0.7886919
0003f0 78 2d 9c 3f 2e 9e 35 c0 79 61 18 40 87 d5 65 40
       1.2201376 -2.8377795 2.3809493 3.5911577

lin1.bias f4 [64]
000000 df a8 f3 bf 47 4d 77 bf 87 1b 74 bf ae 9d 04 c0
       -1.903591 -0.9660229 -0.95354503 -2.072124
000010 0c 80 8e bf 43 ae 12 bf 39 57 bc bf 15 0c 10 c0
       -1.1132827 -0.5729715 -1.4714118 -2.2507374
000020 eb f3 1c c0 98 9a 8e bf 70 f4 84 bf bb 58 01 c0
       -2.4523876 -1.1140928 -1.0387096 -2.0210407
000030 9a 70 03 c0 5c cc fb bf 43 f3 de bf f6 51 5a bf
       -2.0537477 -1.967174 -1.7417988 -0.8528131
000040 23 01 cd bf 2c 8a fd bf 04 41 05 c0 b6 c5 19 c0
       -1.6015972 -1.9807792 -2.0820932 -2.4026923
000050 5a 7a d1 bf c5 27 01 bf 4c 5c f2 bf b8 e3 93 bf
       -1.6365464 -0.5045131 -1.8934417 -1.1553869
000060 32 1d 83 bf e5 21 06 bf 5a 4c a9 bf 30 ef 95 bf
       -1.0243285 -0.5239547 -1.3226426 -1.1713619
000070 d7 ac f6 bf c8 43 15 c0 b1 3d b7 bf 11 5a 87 bf
       -1.9271497 -2.332262 -1.4315702 -1.0574361
000080 02 60 f3 bf bc f8 a3 bf a2 b6 d2 bf c9 fc b4 bf
       -1.9013674 -1.2810283 -1.6461985 -1.4139644
000090 b1 58 02 c0 6e c4 f7 bf a2 28 b7 bf 48 bb 7d bf
       -2.0366633 -1.935682 -1.4309275 -0.99113894
0000a0 9e c9 07 c0 38 7c ec bf d3 21 0d c0 ee dc 83 bf
       -2.1216807 -1.8475409 -2.2051895 -1.0301797
0000b0 9d f4 0c c0 90 6d ea bf e6 e8 0b c0 ee f4 a0 bf
       -2.20243 -1.8314686 -2.18609 -1.2574747
0000c0 58 ff 6b bf 1b 1b 89 c0 88 bc ba bf 8d 85 b0 bf
       -0.921865 -4.284559 -1.4588785 -1.3790756
0000d0 1e 32 02 c0 bc b3 99 bf f2 f4 ba bf 7b 85 42 c0
       -2.034309 -1.2007976 -1.4606001 -3.039397
0000e0 ae b0 9b bf f1 10 af bf bf f5 8a bf 99 9e 8b bf
       -1.2163293 -1.3677045 -1.0856246 -1.0907775
0000f0 88 bc 2f c0 dd fb 7e bf 85 8b 3c bf 47 e4 84 bf
       -2.745882 -0.9960306 -0.7365039 -1.0382165

lin2.weight f4 [64, 64]
000000 97 09 85 be 9d c5 e1 be 56 60 76 3e d9 51 b1 be
       -0.2598388 -0.4409608 0.24060187 -0.34632757
000010 88 33 00 3d 1f 32 b4 be a0 38 b4 be 8a 89 2d be
       0.031299144 -0.3519449 -0.3519945 -0.16946998
000020 4a b5 1d bf 0f 2a 92 3d 8c a9 09 3e 06 72 e0 be
       -0.6160475 0.07136928 0.13443583 -0.43836993
000030 15 f2 75 be 58 78 61 3b aa 44 93 be 01 e1 ee bd
       -0.24018128 0.0034404006 -0.28763324 -0.1166401
000040 13 9c 87 3e d4 96 90 be 80 9e c7 3c b1 a1 8b bd
       0.26486263 -0.28240073 0.02436757 -0.068179496
000050 7e 9d eb bc aa 99 17 3e d6 e2 e8 be 46 24 cd be
       -0.028761622 0.14804712 -0.45485562 -0.40066737
000060 8d 4a fe bd ba 81 e2 3e d8 08 61 3e e7 f5 8c bd
       -0.12416563 0.442396 0.2197603 -0.0688284
000070 ed 6c 1a 3c a9 2d aa be f7 b4 26 3e 95 46 75 be
       0.009425384 -0.3323796 0.1627997 -0.23952706
000080 22 87 74 bd d9 c6 26 3e bb 9e 61 be 7b 60 47 be
       -0.059699185 0.16286792 -0.22033207 -0.19470398
000090 1b 08 5c bd 0e c8 42 be d0 ea 9c bd fb 7d fe be
       -0.053718667 -0.19021627 -0.076619744 -0.4970549
0000a0 c3 c5 8a bc ad c5 a9 3e 5d 7a 97 3e da d8 ea be
       -0.016940003 0.33158627 0.29585543 -0.4586857
0000b0 31 50 3a bf a9 54 92 be 09 5c 68 3e 24 09 33 bf
       -0.7277861 -0.28580216 0.22691359 -0.6993582
0000c0 81 73 21 be d5 f1 d5 be 29 d2 b7 be a2 75 04 bc
       -0.15766717 -0.41786066 -0.35902527 -0.0080846865
0000d0 4e 76 bd 3e a9 c4 63 3d c8 47 9e 3d 7f 60 8c be
       0.37004322 0.05560747 0.07728535 -0.2741737
0000e0 86 0b 4d be 02 75 2b 3f 32 9c 56 be 9d 99 34 be
       -0.20023927 0.66975415 -0.20958021 -0.17636724
0000f0 49 32 10 bf 8b 3c 04 be 60 3c d5 bd 41 d6 8e be
       -0.5632673 -0.1291372 -0.10411906 -0.27897838
000100 4c 1e 91 3e 2f e3 ec 3e a1 46 29 bf ea fa e3 3e
       0.28343427 0.46267077 -0.66123396 0.4452737
000110 57 72 1d 3f 3f fb 82 3e 97 e6 de be 6f d3 38 3f
       0.61502594 0.2558231 -0.435353 0.7219762
000120 2c f5 3d 3f 6b 2b b5 be d5 58 f5 3e 40 1c f9 bd
       0.7420223 -0.35384688 0.47919336 -0.121635914
000130 2c 2d 98 3e 96 ea b7 3e 4a 47 e1 3e 0a ae 06 bf
       0.29721963 0.35921162 0.43999702 -0.5260931
000140 8b e7 19 3f 92 40 1d 3f 4f 03 3f 3f a2 44 cd 3e
       0.6011893 0.6142665 0.74614424 0.40091425
000150 f8 a2 13 bf 13 57 da be 37 29 42 3f 81 cb aa be
       -0.57670546 -0.42644557 0.7584414 -0.33358386
000160 2e 57 82 bc 54 4b be be a1 65 3b 3e 2a 1d 20 3e
       -0.015910711 -0.37166846 0.18300487 0.15636125
000170 c3 4b bf 3e 66 f4 04 be f7 83 4a bf 8d 42 14 bf
       0.3736249 -0.12983856 -0.7910761 -0.5791405
000180 72 17 aa 3e ab 4f f9 be ec c8 0a 3f 24 c7 0c bf
       0.33221012 -0.48693594 0.5421283 -0.54991364
000190 48 93 58 3f 3a 1b c8 3e 11 dc 08 3e 62 0b 4d 3e
       0.84599733 0.39083272 0.13365199 0.20023873
0001a0 55 92 07 be 11 47 0d 3f 20 9f 6f 3e 97 7e 25 3f
       -0.13239415 0.55186564 0.23400545 0.64646286
0001b0 b1 d0 ab be 81 8f a4 3e c5 7d 9b 3e 87 21 cc 3e
       -0.33557656 0.32140735 0.30369392 0.3986933
0001c0 4a e6 1a bf d8 e3 b2 be cd a2 db 3d c4 0c 23 bf
       -0.60507643 -0.34939456 0.10724411 -0.63691354
0001d0 2f de 2a 3f 3c 82 6c 3f 98 bd 0d 3f e1 e2 7a be
       0.66745275 0.9238622 0.5536742 -0.2450061
0001e0 9e 1a 2f bf 49 7d 70 bf dc 26 36 bf bc dc 1b 3f
       -0.6839999 -0.9394117 -0.71153045 0.6088369
0001f0 32 a3 7b be 34 76 ba be dd 49 16 bf 80 5a 1b bf
       -0.24573973 -0.36418307 -0.58706456 -0.6068497
000200 cc 2f cb bc d8 b7 e0 3e 18 97 91 be bb 89 ff 3e
       -0.024803065 0.43890262 -0.28435588 0.49909768
000210 60 45 08 3e 30 3b 5a 3e 00 00 9b bd 3c f8 bc 3d
       0.13307714 0.2131164 -0.075683594 0.092270344
000220 f1 8a 07 3f 28 49 d0 bd eb 8b ae be 5c 23 70 3e
       0.5294638 -0.101702034 -0.34091124 0.23450989
000230 b3 7a 96 3e 0c 19 09 3e 2b 4d 6a be b3 54 ee be
       0.29390487 0.13388461 -0.22881 -0.46548995
000240 84 f8 1b bf f7 a3 32 3d 1a 9e a5 be fa 17 37 3e
       -0.6092608 0.0436134 -0.32347184 0.1788024
000250 3b 3d 80 3e ce d8 a2 bf 83 3f 09 3f 04 57 da bd
       0.25046715 -1.2722414 0.53612536 -0.10661128
000260 e8 bf 0c 3e f6 74 e8 be a2 2c 67 3e 01 06 2d 3e
       0.13745081 -0.45401734 0.2257562 0.16896822
000270 11 42 69 be b4 d6 af 3e d3 63 a9 3e ab 9f 84 be
       -0.22779109 0.34343493 0.33083972 -0.25903067
000280 5d 64 ab be 90 5d 5c bd ca 21 34 3d 99 03 c1 3c
       -0.3347501 -0.053800166 0.043977536 0.023561286
000290 f4 b9 a6 be 35 a8 d0 3d 52 96 82 be 8d 31 37 3c
       -0.32563746 0.10188333 -0.2550531 0.011181247
0002a0 f8 fe a2 3e e8 e3 6f be 6e 91 d3 3d 32 13 54 be
       0.3183515 -0.23426783 0.10330473 -0.20710447
0002b0 02 2d 28 3f b1 e3 10 be 7a 91 70 be 7d 6b 04 3f
       0.65693676 -0.14149357 -0.23492995 0.51726514
0002c0 73 1b 51 3d 9e 9a 8c 3f d1 6b e2 3e 38 b5 8e bd
       0.05105157 1.0984685 0.44222882 -0.069681585
0002d0 96 35 cf bd 56 8c 8c be 8d a0 fb 3c 64 4d 86 3e
       -0.101176426 -0.27450818 0.030716205 0.2623092
0002e0 7f 64 82 bd a5 48 6a bf e7 94 e8 3d f3 ac 8f 3e
       -0.06366824 -0.91517097 0.11356526 0.28061637
0002f0 38 78 15 3f 39 2f 58 be 19 31 8a bd 26 05 a3 be
       0.58386564 -0.21111764 -0.06747646 -0.31839865
000300 0d 2c 0a 3e b9 28 f3 be c3 88 d8 be 97 73 9d 3d
       0.13493367 -0.47492006 -0.4229184 0.07688063
000310 40 de 2c bd e0 06 35 be 51 fd a7 3e 68 a7 68 be
       -0.04220414 -0.17678404 0.32810453 -0.2272011
000320 37 a8 c5 3e 47 f1 1e be 13 fb c1 bf 74 60 cf 3e
       0.386049 -0.15521728 -1.5154747 0.40503275
000330 c7 27 84 3e 64 f3 b0 3f 0f 86 a2 be e1 b4 9e 3e
       0.25811598 1.3824277 -0.31742904 0.30997375
000340 76 f1 13 c0 a1 46 1d 3e 00 05 91 bf a6 8b f8 3d
       -2.3116126 0.15358974 -1.1329651 0.12136011
000350 f9 a6 a5 3f cc b4 a6 be f6 ca 6d 3f 17 3c eb 3e
       1.2941581 -0.32559812 0.9288782 0.45944282
000360 b1 8f 21 be e8 11 04 bf 94 ef 2f bf ce e8 17 bf
       -0.1577747 -0.5158982 -0.6872494 -0.59339607
000370 c2 76 6e bf f8 b6 6c 3f 6d 37 4e 3f f4 0c 57 be
       -0.9314996 0.9246669 0.80553323 -0.21001035
000380 1c d1 48 3e 28 9c 82 3f 44 ba d0 3d 58 03 84 3e
       0.19611019 1.0203905 0.10191777 0.257838
000390 e7 72 00 bf 03 39 8b 3c dc 4d 05 c0 fd 4d 2c bf
       -0.5017533 0.016994959 -2.0828772 -0.673065
0003a0 39 57 07 3f 65 c6 87 bf 46 ca d6 3e ea b6 93 bf
       0.52867466 -1.060742 0.41951197 -1.1540196
0003b0 91 8a 05 40 a9 5d 55 3e 18 88 0d bf 92 72 f7 be
       2.0865824 0.2083651 -0.5528579 -0.48329598
0003c0 0d 65 27 3e ae 4d ab 3f 65 18 92 3e b9 2b ff 3f
       0.16347142 1.3383081 0.28534237 1.9935218
0003d0 56 93 6c 3e 74 a3 45 bf 56 90 71 3f 4f 35 d4 3e
       0.23103079 -0.77202535 0.94360864 0.4144692
0003e0 08 49 93 be b2 e6 ee be 10 ca e2 be 44 a2 f2 be
       -0.28766656 -0.46660382 -0.44294786 -0.47389424
0003f0 a8 28 61 3f 3d 8c 68 3e d7 0d 3f bf 03 2f 58 3e
       0.8795266 0.22709747 -0.7463049 0.21111684

lin2.bias f4 [64]
000000 f2 f3 8d 3f bc 04 9a bf 73 e8 a6 bf f8 1c d4 bf
       1.1090071 -1.2032695 -1.3039688 -1.657134
000010 12 53 8a 3f 51 64 2d 3f 05 c9 92 bf cd 76 75 bf
       1.0806601 0.67731196 -1.1467596 -0.958844
000020 64 a5 f5 be 97 ed 80 3f 3f e0 f1 3e 38 96 98 bf
       -0.47977746 1.0072507 0.472414 -1.1920843
000030 ea 50 b8 bf 55 f3 90 bf 8c 17 82 bf e0 26 70 bf
       -1.4399693 -1.1324259 -1.0163436 -0.9380932
000040 45 b8 a5 bf 89 8f 9c 3f 17 29 05 3f 86 b2 64 3f
       -1.294686 1.2231303 0.52015823 0.89334905
000050 5f 2d 83 bf 35 c7 38 3f fd 96 b1 bf 87 ec 87 bf
       -1.0248221 0.72178966 -1.3874203 -1.0619057
000060 e2 d9 8d bf ef bd 8d bf b0 af 94 bf 74 a8 8e bf
       -1.1082118 -1.1073588 -1.1616116 -1.1145158
000070 a4 12 87 bf e2 0b 83 bf 7f dc c9 be b5 19 91 bf
       -1.0552564 -1.0238001 -0.39426038 -1.133597
000080 a2 70 38 bf cb 3c 2d bf 5b 0f 64 3e d0 a6 5a bf
       -0.72046864 -0.6767089 0.22271483 -0.85410786
000090 34 5a 92 bf a3 c4 7c 3f 74 30 b7 3e 8d b0 aa bf
       -1.1433778 0.98737544 0.35779154 -1.3335129
0000a0 3c 98 86 bf 1e c6 8d bf a9 40 76 3f d5 d3 b4 3f
       -1.0515208 -1.1076086 0.96192414 1.4127146
0000b0 a7 ab a6 bf d9 3e 9a bf 92 14 fd be 49 8a a3 bf
       -1.3021134 -1.205043 -0.49429756 -1.2776576
0000c0 03 3c 14 bf 11 c8 a8 bf 03 15 9b bf 38 9a f5 3e
       -0.5790407 -1.3186055 -1.2115787 0.47969222
0000d0 4f 86 aa bf 38 55 6f bf ff 88 13 3f 83 1a 2d bf
       -1.3322238 -0.9348941 0.57630914 -0.6761858
0000e0 e2 f2 9e bf 3a 58 8e bf ae 2b a9 bf 4e fb 99 bf
       -1.2417872 -1.1120675 -1.3216455 -1.2029817
0000f0 35 0a 9b bf 5e 48 05 3f b8 73 b1 bf 4b fc 2c 3f
       -1.211249 0.5206355 -1.386344 0.6757247

lin3.weight f4 [64, 64]
000000 95 72 54 3f 5e d6 68 bf 91 38 35 3e 0c 39 8a 3f
       0.8298734 -0.909521 0.1769736 1.0798659
000010 62 ef 5c 3f 50 2d 21 40 6a 58 f9 3d 9b 23 a4 3e
       0.8630277 2.5183907 0.12175067 0.32058415
000020 03 d0 bc 3f 8f 79 10 3f ca 6d 96 3f 87 b2 b3 3d
       1.475098 0.56435484 1.1752255 0.08774286
000030 7e c5 2a be 04 4e 11 3e 33 92 34 3f 02 6e 30 3f
       -0.166769 0.14189917 0.7053558 0.6891786
000040 5c da 1e bf ff ab 0c 3f a8 43 cb 3f 63 74 c9 3e
       -0.6205194 0.54949945 1.5880022 0.3934661
000050 b0 f2 79 3f 5e 50 15 3f e1 09 ea bf b3 e9 8e 3e
       0.97635937 0.58325756 -1.8284265 0.27912673
000060 88 68 a2 bf ee cb 1d 3e f2 a4 c1 bf 92 87 f7 bf
       -1.268815 0.15409824 -1.5128462 -1.9338248
000070 52 cc f9 bf 8f 01 57 3f ce c5 8c 3f dc 30 b0 be
       -1.9515479 0.83986753 1.0997865 -0.34412277
000080 32 3a 81 3e ab 78 2e 3f 49 98 92 3f 5f 08 d8 3e
       0.25239712 0.68152875 1.1452724 0.42193887
000090 85 73 e6 bf 0c b5 a5 3f 71 0e 0d 3f 27 2c 6f bd
       -1.8004004 1.2945876 0.5510016 -0.058391716
0000a0 4e f7 0c 3e a4 5e 2d 3e b5 7d 8d 3e cf 79 59 3f
       0.13766214 0.16930634 0.2763497 0.8495149
0000b0 07 ea b1 bd c8 c6 19 3f a8 b0 1e 3f 96 e9 c9 bf
       -0.08687215 0.6006894 0.61988306 -1.577441
0000c0 21 4e 13 3f 87 36 18 bf d3 94 37 bf ef 33 cc 3e
       0.5754109 -0.594582 -0.7171146 0.39883372
0000d0 97 9b df bd b3 31 c4 3e 75 db 73 3d 18 7e 16 3f
       -0.10918348 0.38319167 0.059535462 0.58786154
0000e0 95 4e 18 3e 8d 35 97 3f 85 3f 03 c0 79 57 5c bf
       0.14873727 1.1813217 -2.050752 -0.8607097
0000f0 f8 88 bf 3c bd 1f 90 3f f1 1e 81 be d9 97 1f 3f
       0.023380741 1.1259686 -0.2521892 0.62341076
000100 26 1c 88 3f c0 4f 9e 3c e6 00 f8 be fd 71 33 be
       1.063359 0.019325137 -0.48438185 -0.17523952
000110 89 87 a7 3e cd 08 20 3f fa 2e 85 be 32 00 18 bf
       0.32720593 0.6251343 -0.26012403 -0.593753
000120 19 1d 85 bc 5a 61 a9 3e 25 e8 cc 3e 11 84 d0 be
       -0.016249226 0.33082086 0.40020862 -0.4072576
000130 96 68 b8 3c 37 91 11 bf 12 41 ce 3d 94 00 26 bf
       0.022510808 -0.56862205 0.10071005 -0.6484463
000140 f6 a4 8c be b3 18 09 3f 12 7e bb 3e 70 d8 fb 3e
       -0.27469605 0.53553313 0.36619622 0.49188566
000150 10 90 fe bf 7b 98 92 3e 79 ac 11 3e 90 24 4e bf
       -1.9887714 0.28631958 0.1422595 -0.8052454
000160 e9 a7 55 3e ce 82 f4 be 80 86 72 3d e4 4d 7c 3e
       0.20864834 -0.47756046 0.0592103 0.24639088
000170 8f eb 95 3d ee f1 04 c0 2d 0d 61 3e 97 3b 96 bd
       0.0732032 -2.0772662 0.21977682 -0.073355846
000180 51 1e 76 bf 53 93 c2 bf 49 40 ef 3e 53 f1 a2 bd
       -0.9614001 -1.520121 0.46728733 -0.07956185
000190 16 b4 7b bd f3 ee 1a 3f 5c 7d f9 3e 87 77 df be
       -0.06145104 0.6052086 0.48728454 -0.4364588
0001a0 a2 05 a8 be 68 8b 33 bf 07 0a 04 3f db 60 1b 3f
       -0.32816797 -0.7013459 0.515778 0.60694665
0001b0 ad 03 d7 bd 11 fa 77 bf d1 a1 e6 3b 6a e3 e3 bc
       -0.10498748 -0.96865946 0.007038333 -0.0278184
0001c0 21 4d 8e be 3e 5e ec 3c b5 14 09 3d 21 23 61 3f
       -0.2779322 0.028853532 0.033467013 0.8794423
0001d0 e4 b1 7e be 7d d0 d7 be b9 c2 03 3f a2 07 fd bd
       -0.24872547 -0.4215125 0.51469 -0.123549715
0001e0 b0 b4 c5 be cc 78 8a bf f8 e5 79 3d e9 7d 5c 3d
       -0.38614416 -1.0818114 0.06101033 0.053831015
0001f0 5d 9c e5 be 57 4a 20 3f 00 96 87 bd 50 f4 b6 3e
       -0.44845858 0.62613434 -0.06620407 0.3573327
000200 20 76 52 3f 8d 6e d4 bd 51 0f a5 be 82 9c 88 be
       0.82211494 -0.103726484 -0.32238248 -0.26681906
000210 96 94 7d 3f 40 9c 92 3f 6c 4c 1a be 4c 9d 0c be
       0.9905485 1.1453934 -0.15068215 -0.13731879
000220 96 93 ae 3e bf 86 60 3f b0 a7 03 3f 24 9a 42 be
       0.34096974 0.87705606 0.51427746 -0.19004112
000230 d3 d9 96 be 65 8a 81 be 25 1c 54 be 2f c5 cf be
       -0.29463062 -0.253009 -0.20713861 -0.40580127
000240 27 1a a2 be df a9 45 3f 64 f4 0f 3f e6 75 38 3f
       -0.31660578 0.7721233 0.56232285 0.720549
000250 1f 81 76 bf 67 7a 19 3f b5 b3 e1 be 5c 7c 9b be
       -0.96290773 0.59952396 -0.44082418 -0.30368316
000260 03 5b 14 be be ec ac bd 78 f9 f6 be da f4 86 be
       -0.14487843 -0.084435925 -0.48237205 -0.26358682
000270 c6 f4 e1 be 7a 0a 80 bf 77 a6 68 3e d6 c9 71 be
       -0.4413206 -1.0003197 0.22719751 -0.2361215
000280 48 e9 e4 be a2 de 04 bf a3 7e c0 3e 04 c7 30 be
       -0.4470923 -0.5190221 0.37596616 -0.17263418
000290 03 d0 fd be a5 0c 26 3f ef d9 6d 3f d3 f6 6f be
       -0.49572763 0.64863044 0.92910665 -0.23434
0002a0 d8 84 ad bd 62 00 a3 be e4 92 71 3f e7 43 a3 3f
       -0.084726036 -0.3183623 0.9436476 1.2755097
0002b0 2a 90 49 be 19 62 19 bf 60 62 58 38 fa 41 69 be
       -0.196839 -0.5991531 5.1590032e-05 -0.22779074
0002c0 04 53 57 3d 5f 60 d1 bd 16 99 9d be 1e 90 73 3f
       0.052569404 -0.102234595 -0.30780858 0.9514178
0002d0 e8 a6 89 be 41 d6 91 be 6e 94 2f 3f 54 e1 ee bd
       -0.26885152 -0.28483775 0.6858586 -0.11664072
0002e0 56 71 9b be dd 57 1b bf 1d 30 f7 be ca 5b a2 be
       -0.30359906 -0.60680944 -0.48278895 -0.31710654
0002f0 98 57 35 be 6c 3a 0f 3f b0 79 87 be 9a d5 4e 3f
       -0.17709196 0.5594852 -0.26460028 0.8079468
000300 d4 81 a8 3e 86 6c cd bd 48 8e 96 be 37 43 a7 be
       0.3291155 -0.10030465 -0.29405427 -0.32668468
000310 d7 10 0a 3e 7b 7b 98 3e e5 00 52 bc 32 f5 8a be
       0.13482986 0.29781708 -0.012817596 -0.27140194
000320 00 9c 8b 3c 10 6b d0 3d 32 68 1f 3e 2e 1f 1e be
       0.01704216 0.101766706 0.15567091 -0.15441582
000330 89 5e aa be 4d 32 c3 bd 97 d9 b8 be f0 47 ec be
       -0.3327525 -0.095310785 -0.36103508 -0.46148634
000340 27 ab 36 be 2a 5a 4b 3e a9 cf 93 3d 18 a6 7a 3c
       -0.17838727 0.19858614 0.072173424 0.015298389
000350 39 61 0a bf ec 61 d2 3d ff ae c4 bd 76 87 9d be
       -0.540546 0.10272583 -0.0960369 -0.3076741
000360 ac 0f aa bd 4b e1 24 be 3f 35 a8 bd 12 52 0b be
       -0.083037704 -0.16101567 -0.08213281 -0.13605526
000370 c4 9f db bd a8 a1 1c bf 7a ae ba bd 88 f0 27 be
       -0.10723832 -0.6118417 -0.0911531 -0.16400349
000380 a2 52 a0 be 7b 2b 44 bf 8a e0 c3 3d 6a 9b 67 be
       -0.31313044 -0.76628846 0.09564312 -0.2261788
000390 41 5a 0f be 26 f9 c2 3d f5 d4 83 3d 46 26 56 be
       -0.13999273 0.095201775 0.06437103 -0.20913038
0003a0 52 e6 26 be 12 d4 7a be 29 f2 08 3e ff 07 3c 3e
       -0.16298798 -0.24494961 0.13373627 0.18362425
0003b0 26 f6 43 bd 66 6d e0 be 67 c2 21 be 49 98 ed 3b
       -0.047842167 -0.43833464 -0.15796815 0.00725082
0003c0 61 cc 38 be 7a cb 9c bd a3 94 11 be c3 94 ac 3e
       -0.18046714 -0.076559976 -0.14216857 0.33707246
0003d0 23 90 ae bd 5c b1 cb be 9c 58 a5 3d 5d 0f a5 be
       -0.08523586 -0.39783752 0.080735415 -0.32238284
0003e0 cb 12 46 be 28 de 97 be 34 7b 84 bd ca 32 50 be
       -0.19343106 -0.2966168 -0.06468812 -0.20331874
0003f0 0c 29 97 be 5f c0 b4 3d d1 38 0a be f1 d9 b6 3d
       -0.29523504 0.088257544 -0.13498236 0.08928288

lin3.bias f4 [64]
000000 73 42 c8 3e 5a 3d 67 3e 25 05 af 3e 55 08 33 3e
       0.39113197 0.22581998 0.34183612 0.17483647
000010 db 26 c1 3d 37 88 c5 3e dd 5a 3e 3e 30 c8 aa 3e
       0.09431239 0.38580486 0.18589349 0.33355856
000020 03 5f 26 3e c2 65 a3 3c 29 45 a3 3c d3 9b d8 3c
       0.16247182 0.019945983 0.01993044 0.02644149
000030 b5 2c e8 3d e9 62 97 3e a9 7b b3 3d a2 b7 c4 3d
       0.11336652 0.2956765 0.08763821 0.09605338
000040 0b 58 a8 bc 19 24 3f 3e 87 8f 8f bd 53 a6 87 3c
       -0.020549795 0.18666114 -0.070097975 0.016558802
000050 81 28 47 3d b0 c4 b4 3e 90 8b c6 3d f6 44 45 bc
       0.048622612 0.3530631 0.09694588 -0.012040367
000060 2a 01 f0 3d a4 61 9e 3c c0 5b f8 3d e6 86 ee 3d
       0.11718972 0.019333668 0.12126875 0.116468236
000070 13 0c 86 3e e7 e9 68 3e 5b a9 b6 3e 23 ac ad 3d
       0.26181087 0.22745477 0.35676083 0.08480098
000080 17 1e a7 bd b6 35 ee 3d 0a 76 68 3d c6 00 af 3e
       -0.08160036 0.11631338 0.056753196 0.34180278
000090 b8 fb 19 3e b8 5f 3e 3e fe 3e 78 3e 43 76 cc bd
       0.1503743 0.18591201 0.2424278 -0.09983494
0000a0 ba a0 bb bd a3 29 19 bd 7c 55 e0 3e b7 71 58 bd
       -0.091615155 -0.037393223 0.4381522 -0.052842822
0000b0 ff 85 a2 3e 7d 30 77 3e b0 66 dd 3d f6 64 76 3e
       0.31742856 0.2413959 0.10810602 0.24061951
0000c0 9c 94 8b 3e 13 aa 4f 3e 95 d9 19 3e 73 ae 27 3e
       0.27261817 0.20279722 0.15024407 0.16375141
0000d0 c3 a4 42 3e 80 a0 a1 3d 9a 9a e1 bc 1f dd c1 bd
       0.19008164 0.07891941 -0.02753954 -0.094660036
0000e0 27 0b ca 3e 7f 7a 48 3e e0 20 af 3e 53 6a 93 bc
       0.39461634 0.19577979 0.3420477 -0.017995035
0000f0 b0 6e 8f 3c b3 d9 3a 3c 83 5a 35 3e 07 ce 0f 3e
       0.017508835 0.011404443 0.17710309 0.14043437

lin4.weight f4 [64, 64]
000000 32 f2 6c 3f 6a 66 af be 8d c3 8a be 71 18 81 be
       0.9255706 -0.34257823 -0.27102318 -0.2521396
000010 e6 84 6e 3e 34 6d da 3e 66 3e ea be c4 04 71 3e
       0.23292884 0.4266144 -0.4575073 0.23536974
000020 2c 7c 36 3e 30 cb 3b 3d 97 00 33 3f a9 b8 15 be
       0.17820805 0.04584807 0.69922775 -0.14621224
000030 ef 2b d2 bd 18 1a 81 3e b1 18 9b 3e de 7a a4 3e
       -0.10262286 0.2521522 0.30292276 0.3212499
000040 7f ee 32 3d f0 93 e0 3e 2e 9a 39 3d 49 d6 ee bd
       0.04368448 0.43862867 0.045313053 -0.116619654
000050 71 2e 8e 3e 6b dc bb bd 3e c0 5d bd 3b b1 b6 3e
       0.27769807 -0.09172901 -0.054138415 0.3568209
000060 e1 cc 30 bc e1 a2 f5 bd e1 ca 0e bd 6b b7 d5 be
       -0.010791034 -0.11993957 -0.03486145 -0.417415
000070 fd a1 26 3c 61 c3 bd bc d4 8d 31 3f 6b 33 36 3e
       0.010170457 -0.023164453 0.6935704 0.17793052
000080 01 9a 49 bd fa 0b 42 3f 82 1a 5f 3e 9a 1f 20 be
       -0.049219135 0.75799525 0.21787456 -0.15637055
000090 33 9c fc 3e 58 f3 2c 3f 5c b0 4f bd ea 89 1c 3d
       0.4933792 0.67558813 -0.0507053 0.038217463
0000a0 1f b4 fc bd 99 cf 47 3d 90 1c b6 3e 9c 3e 98 3c
       -0.12339043 0.048781965 0.35568666 0.018584542
0000b0 84 74 12 be e0 72 94 bd b8 b8 5d 3e a7 ce df 3e
       -0.1430226 -0.07248473 0.21652496 0.4371235
0000c0 c0 ed fd 3e 17 6a 03 bf 53 a5 ec 3e fc 09 a5 3d
       0.4959545 -0.51333755 0.46219882 0.08058545
0000d0 b1 1e 9e 3e a4 61 b4 be 2b 9d 4b 3d 50 01 f8 bd
       0.3088279 -0.35230744 0.049710434 -0.12109625
0000e0 a3 7b e6 3e d0 16 08 3f b9 41 79 bd e6 ad 04 3e
       0.45016202 0.5315981 -0.060853694 0.12956962
0000f0 ee 29 11 3e cb 2b 56 3e 22 80 2c 3f 55 65 09 bf
       0.14176151 0.20915143 0.67383015 -0.53670245
000100 1d 3a 6c 3f 5f 92 fd be ac f5 33 be ea 01 58 be
       0.92276174 -0.49525735 -0.17574185 -0.2109448
000110 1b 7a 9c 3e 58 a7 eb 3e 56 3c 10 bf c2 1e 52 3e
       0.3056191 0.4602611 -0.56342065 0.20519546
000120 f2 85 b4 3e e1 8a 8d 3e 6f 47 41 3f 0d ca 58 be
       0.35258442 0.2764502 0.75499624 -0.21170826
000130 ae 75 48 bd a4 c6 b3 3e 96 21 4b 3e 58 97 cf 3e
       -0.048940353 0.35112488 0.19837031 0.40545154
000140 28 ba 13 3c e6 0c 1a 3f e9 8d 82 3c 97 f9 e1 bd
       0.009016551 0.6017593 0.015936809 -0.110339336
000150 3e 5d 17 3e 47 8c 12 bd 86 51 2c be 21 f7 9b 3e
       0.14781663 -0.03577831 -0.16827974 0.30461982
000160 0c 1c 38 bb f5 7e 1f bd 00 b3 3f bd 6a 7d 01 bf
       -0.002809289 -0.038939435 -0.046801567 -0.5058199
000170 2c 8a e3 3b ca 2c 2b 3e a6 cc 4a 3f 99 53 a5 3d
       0.0069439616 0.16716304 0.7921852 0.080725856
000180 0d b6 ef bd a7 33 46 3f d9 85 9c 3e a9 b0 2a be
       -0.11704645 0.77422565 0.30570868 -0.16668953
000190 6f c5 d4 3e 45 91 1a 3f 41 d3 9d be c4 40 51 3d
       0.4155688 0.60377914 -0.30825236 0.051087156
0001a0 0f a9 2f be 54 59 80 bd 63 f4 f2 3e 08 d3 dc bd
       -0.17154334 -0.06267038 0.47452077 -0.107824385
0001b0 bf 11 a7 bd 51 fa a8 bd fa 80 bc 3e c5 28 f8 3e
       -0.08157682 -0.08250869 0.3681715 0.48468605
0001c0 9a 05 b9 3e 6d df a7 be 30 af 02 3f f4 65 8c 3d
       0.36137086 -0.32787648 0.51048565 0.068553835
0001d0 25 77 b6 3e 60 34 64 be 9b 15 47 bd 09 6e bc 3d
       0.35637775 -0.22285604 -0.04860459 0.09200675
0001e0 7d fb f3 3e a6 ba d4 3e b3 f3 d4 bd 5d e8 e1 3d
       0.47652808 0.4154865 -0.103980444 0.11030648
0001f0 44 e1 74 3c f7 f4 98 3e 1b 78 14 3f f7 6e 12 bf
       0.014946286 0.29874393 0.57995766 -0.5720057
000200 33 8c 1f 3f 5b 4b 3b be d0 05 63 be 39 8b 81 bd
       0.623233 -0.18290465 -0.22170186 -0.06325383
000210 41 69 d6 3c 34 5e 76 3d 10 68 23 be 3e af 81 3d
       0.026173236 0.060148433 -0.15957665 0.06332253
000220 86 26 c9 3d 8b 95 6f 3e 29 50 57 3e f4 e8 b6 bd
       0.09821801 0.2339689 0.21026672 -0.08931151
000230 af d6 92 3d 5f ca c4 bd 6c 0e d9 3c c4 5d 50 3d
       0.07169854 -0.09608912 0.026496135 0.050870672
000240 69 fc d8 3d 11 3d 91 3e e6 2e 8f bc a2 d6 c5 3c
       0.105950184 0.28366902 -0.017478418 0.024150196
000250 3f 02 3c bd ea 2b 7f bc 22 1e df bc 4f ab 2f 3e
       -0.04590058 -0.015574435 -0.027236048 0.17155193
000260 61 8c d1 bd b3 67 80 bd 24 ec be bc 81 6e 98 bd
       -0.10231853 -0.06269779 -0.02330596 -0.07442952
000270 cd 39 a7 bd 8f b2 b0 3b 8f 69 3a 3e f9 98 88 3d
       -0.081653215 0.0053923796 0.1820433 0.06669802
000280 5c 85 dd 3d 17 9c 71 3e 50 79 91 bc 00 a1 2f be
       0.10816452 0.235947 -0.017758042 -0.1715126
000290 a7 fd e8 3d d5 fc 85 3e 00 d7 1c 3d 2a 14 94 3d
       0.11376505 0.26169458 0.038290977 0.072304085
0002a0 53 18 4f 3c 3b ea f1 bc d5 40 e2 3d 97 c5 e2 3c
       0.012640077 -0.029530635 0.11047522 0.027682109
0002b0 d8 1f c6 bc c5 89 bf 3c 01 bd d3 3d 99 a6 a5 3e
       -0.024185106 0.023381123 0.10338784 0.32353666
0002c0 d4 6c 45 3e 79 c8 12 be 56 f6 7a 3d d8 37 00 3e
       0.19279796 -0.14334287 0.06127008 0.12521303
0002d0 04 e4 9e bc 24 10 0a be 9f 3d 62 3d 74 4c 4d 3d
       -0.019395836 -0.1348272 0.055234548 0.05012174
0002e0 9d 7f 59 3e 40 6e 23 3e ec ca 59 bd 40 ed 82 3b
       0.21240087 0.15960026 -0.053172037 0.0039955676
0002f0 a7 f9 b6 bd 57 c5 b2 3d 48 7e 75 3e c1 e7 03 be
       -0.08934336 0.08729046 0.23973954 -0.12881376
000300 44 c2 a7 3e 3d 91 56 be 6e aa be 3b 44 27 3f 3c
       0.327654 -0.20953842 0.0058186566 0.0116670765
000310 73 e2 36 3d 75 cb 86 bd e8 c5 29 be fb d1 83 3d
       0.044649553 -0.06581775 -0.16579401 0.06436535
000320 95 33 bd 3d 52 b1 14 3e bc cc 80 3e 58 43 cc bd
       0.09238354 0.14520767 0.251562 -0.09973782
000330 ee f9 89 3d e1 c6 69 be f2 d0 5d 3c 09 ab 16 3e
       0.067371234 -0.22829773 0.013538586 0.14713682
000340 1f 3c 4e bd 0b bb 48 3e 7e a8 a8 3d 9d 58 da 3d
       -0.050350305 0.19602601 0.08235262 0.10661433
000350 14 f9 0d bd 64 cb d5 bd ac 48 4d 3d 62 8c b9 bb
       -0.034661368 -0.10439184 0.050118133 -0.005662487
000360 a2 91 4a 3d 18 38 47 bd ba 81 31 bc 2a 51 04 bc
       0.049455293 -0.04863748 -0.010834152 -0.008075992
000370 2a e1 ff bc b0 d4 1a 3d e1 33 b4 3e 54 d6 39 3e
       -0.031235296 0.03780049 0.3519583 0.18148166
000380 9f e3 00 3e 48 48 b9 3d 8b 79 ec bd a8 59 0d be
       0.1258683 0.0904699 -0.1154662 -0.13803732
000390 85 a4 59 3e 62 dc 20 3e 1c 12 82 bc f5 c9 80 3d
       0.21254165 0.1570907 -0.015877776 0.0628852
0003a0 ae 1f e2 3d c6 22 cd 3d 2d 05 25 3d 8c 8a 68 bd
       0.11041199 0.10016398 0.04028814 -0.056772754
0003b0 b1 dc a6 bb e1 f1 fb 3d 08 04 12 bd 7c a0 11 3e
       -0.0050922264 0.12301994 -0.035648376 0.14221376
0003c0 1d d7 1a 3e 46 04 26 bd 53 42 04 3e b0 eb 26 3d
       0.15121122 -0.04053142 0.12915926 0.040752113
0003d0 0d 32 9a 3c ef 73 6a 3b 70 4a 49 3c ad fb f0 3d
       0.018822694 0.0035774668 0.012285814 0.11766753
0003e0 b4 05 53 3e ca 6f 48 3d 1d 6a c6 bd 69 46 15 bd
       0.20607644 0.048934735 -0.09688208 -0.0364441
0003f0 68 91 cf 3d 1c 39 09 3d 4f a2 a5 3d 33 84 3a be
       0.10135156 0.03350173 0.080875985 -0.18214492

lin4.bias f4 [64]
000000 c9 af 23 bf a0 fb 1c bf 22 75 b1 be 67 04 88 be
       -0.639401 -0.6132145 -0.34659678 -0.2656586
000010 df 51 63 3f bc a6 74 be 9a b7 93 3f 51 cb 8e be
       0.887968 -0.23891729 1.1540406 -0.27889493
000020 b6 b4 5d 3f 56 c8 7e be 46 99 b7 be df 29 76 be
       0.8660387 -0.2488111 -0.35859126 -0.2403941
000030 24 12 fe 3e 00 de 14 3f a9 0d 48 3e 27 8b 00 bf
       0.49623215 0.58151245 0.19536461 -0.5021233
000040 34 b0 8b be a6 dc d0 be 2c a1 09 3f 73 f3 d5 3e
       -0.2728287 -0.4079334 0.53761554 0.417873
000050 9b 12 38 3f 21 c3 50 3f 8c a3 ea be 05 89 39 be
       0.7190339 0.81547743 -0.458279 -0.18118675
000060 4b 60 ca be 02 0c 33 3f 2c fa 09 bf e3 f0 2a 3f
       -0.3952659 0.699402 -0.53897357 0.66773814
000070 5c 27 33 be 58 6d 95 3f 41 93 71 be 49 ad 67 be
       -0.17495483 1.1673994 -0.23591329 -0.22624697
000080 b2 ca 97 3f 97 35 9a 3f a0 46 68 3f 0f 11 81 3f
       1.1858733 1.2047604 0.90732765 1.0083331
000090 79 21 5e 3f b7 c1 a7 be e6 3f 65 3f c5 f7 2d be
       0.86769825 -0.3276498 0.89550626 -0.16989048
0000a0 ef 14 d1 3e 4b 08 56 bf 27 40 47 be 4e 5d 0b 3f
       0.40836284 -0.83606404 -0.19458066 0.54439247
0000b0 e2 5d 1a 3f b1 f8 b4 be 1d 13 6b 3f f7 39 64 3f
       0.60299504 -0.35345986 0.9182604 0.8915095
0000c0 14 fb 2b be 0e f9 ae be 58 87 26 be 21 f4 03 bf
       -0.16794997 -0.3417439 -0.16262567 -0.51544386
0000d0 98 99 c5 3e 79 60 2f bf d1 28 b7 3e f2 30 29 3f
       0.38593745 -0.6850658 0.35773328 0.6609031
0000e0 9e 65 e2 be 5a 83 b6 be 7a bf a7 be 1e a3 92 3e
       -0.44218153 -0.35647088 -0.32763273 0.28640074
0000f0 6d 72 94 3f 04 26 cd 3e 1b 3f 42 bf 6b 53 b5 be
       1.159742 0.40068066 -0.7587754 -0.35415205

lin5.weight f4 [1, 64]
000000 9e 60 32 be f8 43 21 be 32 83 c3 bd ed b3 e3 bd
       -0.17419669 -0.15748584 -0.09546508 -0.111183025
000010 92 c1 21 3f 4b d9 17 be 87 91 08 3f cd 47 0e be
       0.6318599 -0.14828984 0.5334706 -0.13894577
000020 2c c8 17 3f ea ed ed bd ba a0 36 be b6 4c b2 bd
       0.59289813 -0.11617644 -0.1783475 -0.08706038
000030 38 5a d1 3e 63 a5 ff 3e 28 5a 80 3e db d3 cc bd
       0.40889144 0.49930868 0.25068784 -0.10001346
000040 90 e2 d0 bd 00 4a f4 bd f4 a3 ee 3e 45 11 ec 3e
       -0.10199463 -0.11928177 0.4660946 0.46106926
000050 19 cf b9 3e a8 50 3c 3f fb d1 13 be c5 b2 4d bd
       0.36290815 0.7356057 -0.1443557 -0.050219316
000060 57 0d 21 be 8c cd e1 3e 98 a8 07 be 98 22 38 3f
       -0.15727745 0.44102132 -0.13247907 0.71927786
000070 86 27 d2 bd 30 26 04 3f 44 cc f6 bd 27 72 c5 bd
       -0.10261445 0.5162077 -0.12050679 -0.096409135
000080 9a 03 11 3f 58 3d 33 3f be 2f ef 3e ee cf 1d 3f
       0.5664612 0.7001548 0.46716112 0.616454
000090 1a 3b 0d 3f d0 9c 01 be c8 07 03 3f 98 d9 cc bd
       0.55168307 -0.12657475 0.5118375 -0.1000244
0000a0 94 2e c5 3e f4 f9 06 be d9 7b 15 bd 83 bc e9 3e
       0.385121 -0.13181287 -0.036495063 0.45651636
0000b0 87 71 e6 3e ec 86 27 be 0a bb e7 3e cc cf 01 3f
       0.4500849 -0.16360062 0.45259887 0.507077
0000c0 1b 97 c7 bd d8 d2 00 be 00 64 02 be ca 57 b6 bd
       -0.09745618 -0.1258043 -0.1273346 -0.08903463
0000d0 10 7d 0d 3f 05 7f 3b be ab 95 b5 3e f0 08 d6 3e
       0.55268955 -0.18310173 0.3546575 0.41803694
0000e0 6a 21 19 be 44 d4 0f be f1 5d 31 be c6 de eb 3e
       -0.14954153 -0.14045817 -0.17320992 0.460684
0000f0 bb 7f 1e 3f c5 96 c3 3e 3d a0 0a be 91 c4 06 be
       0.6191365 0.38200966 -0.13537689 -0.13160922

exp_avg f4 [5, 2]
000000 42 e9 a9 3b da ed 1f ba 62 ef ea 3c ef ab e1 bb
       0.005185277 -0.00061008113 0.0286786 -0.006886951
000010 72 d9 65 3c c5 65 15 3c 43 de a2 bc 51 b5 69 bb
       0.014028894 0.009118502 -0.019881373 -0.0035661052
000020 70 ef a3 b9 38 a1 33 bb
       -0.00031268178 -0.0027409326

exp_avg_sq f4 [5, 2]
000000 85 6e 40 3c 95 fc 6f 39 f3 2d d6 3d 1c 00 39 3b
       0.0117451 0.0002288691 0.10457983 0.0028228825
000010 ec 53 3e 3c a0 10 c7 3c 23 f0 ae 3d fb b8 57 3a
       0.011616688 0.02429992 0.08541896 0.00082291634
000020 e1 a4 4a 3b 86 d7 e4 3b
       0.003092103 0.0069837

exp_avg f4 [64, 10]
000000 b0 8d 8b b7 7e 82 a7 b6 78 81 ad b8 bf 38 df b7
       -1.663607e-05 -4.992179e-06 -8.273398e-05 -2.6610096e-05
000010 a5 3f 68 38 b6 c4 15 38 90 d5 99 38 55 c0 0b b7
       5.5372384e-05 3.570757e-05 7.3353876e-05 -8.329826e-06
000020 2b a7 37 38 25 78 8e b7 f8 35 a4 b8 72 96 fc b7
       4.3786287e-05 -1.6983666e-05 -7.830182e-05 -3.0110798e-05
000030 ce c9 62 b8 c4 b4 8a 37 be a2 95 39 f6 d5 89 39
       -5.4070544e-05 1.6535058e-05 0.00028540747 0.0002629009
000040 c3 7d 97 39 1a b1 08 39 ea 80 d3 b8 be 9c 65 39
       0.00028894664 0.00013035946 -0.00010085276 0.00021897533
000050 78 eb 10 39 d0 e0 d8 b6 52 0b 17 39 e1 4b 1b 39
       0.00013820629 -6.4634733e-06 0.000144047 0.00014810219
000060 49 cd ab b9 55 74 a8 b9 f0 9f 55 b9 50 07 35 39
       -0.0003276861 -0.0003213013 -0.00020372844 0.00017264229
000070 28 84 62 b9 2c 2e 96 b9 bc d7 5f 38 d2 29 0f 38
       -0.00021602272 -0.0002864463 5.336826e-05 3.4132805e-05
000080 48 02 3a b9 98 2f 08 b9 34 51 e2 38 74 6d ba 38
       -0.00017739192 -0.00012987701 0.00010791645 8.8895584e-05
000090 d3 2d 08 39 94 82 06 b9 f5 7e 26 38 5a 06 0a 39
       0.00012987042 -0.0001282788 3.9695722e-05 0.00013163072
0000a0 18 ba e2 b8 0d 05 14 38 40 0a 57 b9 55 de 9f b8
       -0.000108111824 3.5290654e-05 -0.00020507816 -7.6231234e-05
0000b0 bd 8d 51 39 5b 39 ee 38 a0 b6 43 39 8a 26 03 b9
       0.00019984595 0.00011359408 0.00018664682 -0.0001250749
0000c0 7c d5 79 38 92 6c c5 38 2e 92 9b 36 49 12 14 37
       5.956505e-05 9.413915e-05 4.6363775e-06 8.825745e-06
0000d0 bc c6 44 38 7a 99 8a 38 48 14 9f 38 61 dd c0 38
       4.6915127e-05 6.60894e-05 7.5854885e-05 9.1965085e-05
0000e0 5d ef 3e b8 b2 9a 8f b8 84 01 2b b6 04 d7 96 36
       -4.5522454e-05 -6.8475856e-05 -2.5481868e-06 4.4953795e-06
0000f0 da 37 84 38 f0 1f 46 b7 79 62 23 39 c0 a2 ab 37
       6.304654e-05 -1.1809156e-05 0.00015581575 2.0460575e-05
000100 36 75 2d b9 c0 0a 46 b8 6b fb 58 b9 9e 8c da 38
       -0.0001654223 -4.721689e-05 -0.00020693026 0.00010421242
000110 6f be 7e b8 92 5c 70 b8 b8 a9 05 39 96 41 12 38
       -6.0735674e-05 -5.730667e-05 0.00012747094 3.4870194e-05
000120 61 aa 86 b9 19 6c 4e b9 57 15 53 39 fc c1 68 39
       -0.00025685414 -0.0001968596 0.00020130478 0.00022197509
000130 db 3e 1a 39 43 8a 43 b9 c1 2d 70 38 43 1b 5c 39
       0.0001471 -0.00018648156 5.726307e-05 0.00020990991
000140 40 07 cd b8 42 2b 98 b7 1b e0 be b9 c2 e7 38 b9
       -9.776512e-05 -1.8139956e-05 -0.00036406596 -0.00017633944
000150 1a 1a cd 39 35 83 91 39 fe 4f 23 3a 4b 5c a8 b8
       0.00039120094 0.00027754312 0.00062298763 -8.028055e-05
000160 e4 4e 09 38 0f 45 92 39 02 ff 1b 39 5c 9b 67 b7
       3.2736818e-05 0.00027898743 0.0001487695 -1.3804845e-05
000170 9e e5 d9 38 7d a4 15 38 0a 88 87 b9 d5 58 31 b9
       0.00010390136 3.567756e-05 -0.00025850564 -0.00016913128
000180 cd 78 8f b9 d8 1e e2 38 4e 41 ef b8 7a 27 3e b9
       -0.0002736509 0.00010782265 -0.00011408572 -0.00018134518
000190 b0 23 3d 38 54 58 5b 38 a6 15 4c b8 ec 52 98 b8
       4.5094348e-05 5.229593e-05 -4.865755e-05 -7.26337e-05
0001a0 04 0d 88 38 0a b4 b6 38 b6 13 6a 39 72 c3 de b8
       6.48741e-05 8.711971e-05 0.00022323322 -0.000106221894
0001b0 e7 40 98 37 22 79 15 39 e3 30 36 38 ea 39 e8 37
       1.8150035e-05 0.00014254873 4.343771e-05 2.7683524e-05
0001c0 6d 1d 86 38 4d a7 38 38 dc 0f 82 b8 56 d0 cc b7
       6.395099e-05 4.402483e-05 -6.201837e-05 -2.4415709e-05
0001d0 7c 6b 93 b8 e8 8f cc 36 74 6e 8c b8 7a 5a dd b7
       -7.029527e-05 6.0964267e-06 -6.696294e-05 -2.6387384e-05
0001e0 a0 84 f8 b7 30 81 15 b6 ef 90 43 b9 2d 7c 9f b8
       -2.9625662e-05 -2.2277927e-06 -0.00018650641 -7.60484e-05
0001f0 fb ce 22 39 57 d5 65 39 80 2c 78 39 e0 0e b1 b6
       0.0001552663 0.00021918617 0.000236677 -5.2767427e-06
000200 d6 ff 72 38 aa 59 37 39 ea eb 4f b9 5f 4f 2f b9
       5.7935562e-05 0.00017485642 -0.00019828943 -0.00016718869
000210 72 ce 88 38 26 b8 2e 39 bd 24 d0 39 da 4a c9 39
       6.523439e-05 0.00016662534 0.00039700224 0.00038393476
000220 9d cd 95 38 ba c3 c0 b8 ec b9 eb 38 f5 be 0e 39
       7.143172e-05 -9.19173e-05 0.00011240304 0.00013613312
000230 b2 80 69 b8 7c b9 99 38 4e 85 45 b9 75 de b6 b8
       -5.5671386e-05 7.330158e-05 -0.00018837044 -8.719872e-05
000240 c8 6f e3 38 dc 9f 39 39 8b b3 30 39 e8 59 75 b8
       0.000108450244 0.00017702527 0.00016851553 -5.8496284e-05
000250 18 60 98 38 c6 0b c6 38 40 02 7a 36 fc e7 a0 b7
       7.265824e-05 9.443569e-05 3.7254213e-06 -1.9181512e-05
000260 19 12 51 39 5e 65 29 b7 fb 0a 8a b9 3e 72 6a b9
       0.00019938535 -1.0096786e-05 -0.00026329592 -0.00022358538
000270 96 5a a4 b8 e6 ca 11 39 c4 bc c4 b7 01 fd a8 b8
       -7.837002e-05 0.00013903863 -2.3452922e-05 -8.05799e-05
000280 75 fa 5e b8 b4 0a ee 37 76 c7 8d b9 a7 a9 0a b9
       -5.316218e-05 2.8376795e-05 -0.00027042226 -0.00013223906
000290 25 09 6a 39 fe 3c c2 38 9c 46 51 39 98 0f 36 b9
       0.00022319386 9.2620015e-05 0.00019958097 -0.00017362682
0002a0 0f 64 92 39 92 26 87 36 a4 98 af b8 28 79 d1 38
       0.0002792184 4.0278037e-06 -8.373082e-05 9.988464e-05
0002b0 eb 44 90 b9 f0 bd 69 b8 99 9e 56 39 85 be 22 39
       -0.00027517168 -5.5728422e-05 0.00020467713 0.00015520498
0002c0 48 0f 4e 39 87 cf d7 b8 46 6b 74 39 d4 0e a1 36
       0.00019651384 -0.00010290654 0.00023309616 4.7999e-06
0002d0 9f 99 8f b8 4c 61 89 38 d4 d3 dd b9 32 a7 44 38
       -6.8473855e-05 6.550792e-05 -0.0004231023 4.6885754e-05
0002e0 6a b4 ba 39 08 c3 88 39 11 71 71 39 70 d9 47 b9
       0.00035611104 0.0002608525 0.00023025672 -0.0001905912
0002f0 f2 cd 9e 39 70 ec ff b7 d8 72 eb b8 d2 3b 00 b8
       0.0003028955 -3.0508469e-05 -0.000112270645 -3.057329e-05
000300 d0 02 9c 36 8c a4 5d 38 06 48 d8 38 fe bf cf 38
       4.6494897e-06 5.2843752e-05 0.00010313098 9.9062905e-05
000310 d7 01 03 38 eb b8 b2 b8 99 e5 d8 38 36 7f 99 38
       3.1234547e-05 -8.522145e-05 0.000103424485 7.3193034e-05
000320 68 36 35 37 d4 a7 2e b8 18 73 22 39 16 78 82 37
       1.0801108e-05 -4.1641135e-05 0.000154924 1.5553127e-05
000330 8f f7 06 b9 a0 b2 fd b8 30 59 1e b9 01 10 36 38
       -0.00012871459 -0.000120972516 -0.00015101279 4.3407086e-05
000340 31 b8 12 b8 28 a6 a6 b8 26 88 51 39 7a 12 c7 38
       -3.4980654e-05 -7.946446e-05 0.00019982512 9.492501e-05
000350 bc 55 77 38 e8 bf 7e 37 ef 84 e9 b9 7d 43 f8 b9
       5.8969235e-05 1.5184261e-05 -0.00044540266 -0.0004735253
000360 f6 59 63 b9 58 dc 11 b9 31 63 81 38 32 ab 9c b9
       -0.0002168192 -0.00013910362 6.169675e-05 -0.0002988219
000370 e6 bf 70 b9 f5 35 9f b9 68 12 f3 b8 85 4f 83 39
       -0.00022959671 -0.00030367044 -0.000115905714 0.00025045514
000380 b2 bb 27 3a 28 bf dd 39 7c 72 00 3a 07 84 a2 38
       0.0006398513 0.00042294827 0.0004899872 7.749354e-05
000390 f0 96 88 b6 e5 3b a5 39 67 f9 35 38 00 4f 0d b7
       -4.0706873e-06 0.00031515877 4.3386037e-05 -8.4226485e-06
0003a0 ec dc fa 38 d1 53 12 39 98 8c 59 b8 9a 77 87 37
       0.00011962079 0.00013954869 -5.186777e-05 1.6148948e-05
0003b0 ba 4f 12 b9 8a 32 73 38 b0 87 5d b8 60 fc 04 b9
       -0.00013953345 5.7982783e-05 -5.2816875e-05 -0.00012682518
0003c0 59 4b 51 37 94 ca 5a 37 ee 8d 47 36 aa 70 38 b7
       1.2474914e-05 1.3040979e-05 2.9735925e-06 -1.0993486e-05
0003d0 a0 cb 0e b8 a8 c6 01 b8 5a 59 83 b8 d4 98 82 b7
       -3.404508e-05 -3.094101e-05 -6.26321e-05 -1.5568374e-05
0003e0 b0 54 80 b5 08 3f e4 b7 00 0d b5 b5 17 54 97 b8
       -9.56139e-07 -2.720907e-05 -1.3489334e-06 -7.215904e-05
0003f0 54 3c 15 39 f0 e7 72 38 42 2e 68 b8 b3 99 1f b9
       0.00014232221 5.7913305e-05 -5.535619e-05 -0.00015220679
