model_checkpoints/sigmoid/checkpoints/epoch=1999-step=2000.ckpt (torch, 166570 bytes, 27 tensors)

lin1.weight f4 [64, 2]
0.54842544 4.1736383 2.2996027 4.1419697 1.4472401 4.665465 -1.9525983 4.7452054
1.7915972 4.4490376 1.5902762 4.6068873 1.083855 4.2186427 0.8931185 4.1900725
-2.1279783 -4.0443816 -1.0499015 3.9322243 1.9551706 3.8889816 1.0927191 4.818656
-1.5443006 -2.985458 1.2565521 3.8431633 -1.5758796 4.0208316 0.038317285 4.6163154
1.6685833 4.01539 -1.4307166 4.140687 -0.4973136 -2.571317 -0.6033776 5.302014
-0.7164319 -3.6474476 -0.79502016 5.1713047 5.602144 3.601863 -0.3796659 3.3771286
-1.086952 2.9165633 4.4131913 -1.2520168 1.4374526 4.532312 1.2705532 4.3301725
-1.0144798 4.0412517 -0.6323875 -2.5041354 0.91311675 4.099009 -1.5329372 4.422852
-1.5806903 4.350645 -1.3517514 -2.998582 1.5348394 3.418851 0.29700416 3.586622
-6.24465 2.3301682 -1.4557247 3.9258428 -1.1271603 4.9661355 -4.277752 4.787988
-6.299772 2.5371752 -4.3966575 3.7245715 -0.8528978 4.9103947 -3.5579493 -3.4586046
-4.88769 2.8963912 1.4974564 6.08299 -2.70342 4.8205957 -5.836614 -0.86183614
5.863163 -1.4330295 -0.48740536 -3.121759 -1.8548199 -3.9433808 -2.2537026 -2.6341817
1.6135836 4.150049 -1.2343591 3.6370108 0.9503687 4.2082567 1.6504619 3.8785326
-1.7875379 6.115815 -3.1639185 -3.466346 4.592308 0.4147658 -4.36012 2.7500372
-0.7883875 -5.173415 3.0123065 3.4669034 -1.1709337 -4.033936 -0.6963045 3.694039
00000000: 9c65 0c3f 728e 8540 b12c 1340 048b 8440
00000010: 2a3f b93f 7d4b 9540 beee f9bf b9d8 9740
00000020: 0f53 e53f 845e 8e40 2c8e cb3f 9f6b 9340
00000030: c3bb 8a3f 1fff 8640 6aa3 643f 1315 8640
00000040: cc30 08c0 936b 81c0 2c63 86bf 90a9 7b40
00000050: 0843 fa3f 13e5 7840 38de 8b3f 6e32 9a40
00000060: a4ab c5bf be11 3fc0 b3d6 a03f 63f6 7540
00000070: 6cb6 c9bf a7aa 8040 96f2 1c3d dbb8 9340
00000080: 2394 d53f 137e 8040 b921 b7bf 8280 8440
00000090: e39f febe 7590 24c0 f476 1abf 19aa a940
000000a0: 1568 37bf c86f 69c0 7186 4bbf 547b a540
000000b0: c344 b340 ec84 6640 9263 c2be e022 5840
000000c0: 3e21 8bbf f9a8 3a40 dd38 8d40 1642 a0bf
000000d0: 72fe b73f b308 9140 7da1 a23f c690 8a40
000000e0: 79da 81bf ef51 8140 26e4 21bf c143 20c0
000000f0: 05c2 693f 152b 8340 4937 c4bf 0188 8d40
00000100: 0f54 cabf 7c38 8b40 3106 adbf c4e8 3fc0
00000110: 9e75 c43f 74ce 5a40 ee10 983e 378b 6540
00000120: 2cd4 c7c0 7a21 1540 3055 babf 0241 7b40
00000130: ca46 90bf 95ea 9e40 58e3 88c0 3337 9940
00000140: bb97 c9c0 1461 2240 6bb1 8cc0 615f 6e40
00000150: 8357 5abf f421 9d40 71b5 63c0 c759 5dc0
00000160: f567 9cc0 795e 3940 a7ac bf3f dba7 c240
00000170: d504 2dc0 5242 9a40 8bc5 bac0 4ba1 5cbf
00000180: 089f bb40 836d b7bf 328d f9be e6ca 47c0
00000190: bd6a edbf 5a60 7cc0 aa3c 10c0 6f96 28c0
000001a0: e889 ce3f 34cd 8440 7bff 9dbf c9c4 6840
000001b0: 5d4b 733f 0aaa 8640 5642 d33f e139 7840
000001c0: 0bce e4bf c2b4 c340 a47d 4ac0 9dd8 5dc0
000001d0: 30f4 9240 2f5c d43e 1a86 8bc0 9c00 3040
000001e0: c3d3 49bf 9e8c a5c0 a1c9 4040 bfe1 5d40
000001f0: 28e1 95bf 0116 81c0 0341 32bf 236b 6c40

lin1.bias f4 [64]
2.031095 2.7081687 -2.5663557 -2.9940012 2.6657803 2.6553338 2.184318 -2.356201
-2.4751601 -1.9920926 2.3672538 2.6459124 2.5460663 -2.102728 -2.1209977 2.2645342
2.2285469 -2.2846403 2.047181 2.7653782 -1.6281947 2.662252 -4.746836 -1.7744291
-0.82217664 -2.3483894 -2.5263965 2.386519 -2.1696482 -0.26012635 2.0677717 -2.4701293
-2.4375963 2.2223737 -1.4337425 -1.8684 -4.795048 2.101187 2.4468884 4.2269807
2.2781188 -3.514088 2.4487953 -3.1440089 2.4423923 -2.6943154 3.3041952 -4.3360662
-4.672984 -0.8755725 2.9751697 -1.9914699 2.3876927 -1.6148062 2.1872902 2.286408
-3.2264597 -2.8754466 -2.8028831 1.9568467 3.6101494 2.8253856 2.8995304 -1.9642346
00000000: 76fd 0140 a352 2d40 2c3f 24c0 b79d 3fc0
00000010: 259c 2a40 fdf0 2940 decb 0b40 ffcb 16c0
00000020: 0669 1ec0 e4fc febf 1681 1740 a156 2940
00000030: c0f2 2240 1893 06c0 6dbe 07c0 21ee 1040
00000040: 83a0 0e40 8c37 12c0 0305 0340 f5fb 3040
00000050: af68 d0bf 5662 2a40 15e6 97c0 7e20 e3bf
00000060: 2b7a 52bf 034c 16c0 7bb0 21c0 babc 1840
00000070: 84db 0ac0 482f 85be 5f56 0440 9916 1ec0
00000080: 9401 1cc0 5f3b 0e40 e084 b7bf bb27 efbf
00000090: 0971 99c0 d979 0640 d299 1c40 6d43 8740
000000a0: b3cc 1140 d1e6 60c0 10b9 1c40 7137 49c0
000000b0: 2850 1c40 aa6f 2cc0 ef77 5340 0ec1 8ac0
000000c0: 1689 95c0 8525 60bf 2e69 3e40 7ce8 febf
000000d0: f5cf 1840 f8b1 cebf 90fc 0b40 8254 1240
000000e0: 517e 4ec0 5107 38c0 7062 33c0 f479 fa3f
000000f0: b00c 6740 1ed3 3440 e891 3940 0a6c fbbf

lin2.weight f4 [64, 64]
-0.2730402 -0.23753141 -0.15970449 -0.2745838 -0.36011583 -0.15149611 -0.24996151 -0.109164365
-0.14745775 -0.13431366 -0.28570104 -0.28676543 -0.23749273 -0.13629895 -0.1036109 -0.21840692
-0.21001299 -0.1254477 -0.23479338 -0.28884432 -0.15430012 -0.2837481 -0.32835418 -0.094935596
-0.23704097 -0.05826525 -0.24648291 -0.27457795 -0.18506116 -0.061200667 -0.25127995 -0.16693962
-0.23514295 -0.17688343 -0.40899536 -0.124606 -0.1794745 -0.2871689 -0.14061555 -0.31456745
-0.3167401 -0.3031849 -0.13874471 -0.28065866 -0.44917613 -0.3704293 -0.20141692 -0.124300614
-0.010863741 -0.28367144 -0.1811348 -0.22568952 -0.35412553 -0.2655961 -0.170725 -0.3510833
-0.3018806 -0.27841067 0.05337162 -0.45698574 -0.106154755 -0.13891491 -0.34416515 -0.12695223
-0.10012085 -0.17997046 -0.24430653 -0.10071584 -0.2293516 -0.20482294 -0.09053018 -0.20257935
-0.37383115 -0.1946325 -0.10570097 -0.07724139 -0.48110116 -0.26813018 -0.24967375 -0.29959053
-0.0981694 -0.13035469 -0.3207371 -0.30282092 -0.3486622 -0.11914932 -0.027198907 -0.15298355
-0.19518721 -0.25372514 -0.26156008 -0.25524047 -0.14573973 -0.2346314 -0.32885498 -0.1961837
-0.10599437 -0.4371604 -0.34480804 -0.0067969956 0.0026303953 -0.23359263 -0.29796845 -0.29974127
-0.380556 0.15697514 -0.249183 -0.5694716 -0.2477064 -0.18556447 -0.146759 -0.16756873
-0.23729245 -0.46540365 -0.44524235 -0.5017161 -0.24410318 -0.14185797 -0.09449634 -0.19732511
-0.076072596 -0.40755954 0.01040632 -0.28262335 -0.43429318 -0.18109225 -0.34739718 -0.14986633
-0.26600486 -0.07833376 -0.1866509 -0.2429492 -0.2782351 -0.09129171 -0.042458355 -0.14817594
-0.34600583 -0.18734093 -0.19494262 -0.11166411 -0.42127272 -0.020972686 -0.1361484 -0.06619512
-0.26125425 -0.23940127 -0.5340464 -0.19678965 -0.49924943 -0.15034285 -0.042198997 -0.12089804
-0.31703728 -0.16344096 -0.075252704 -0.16033119 -0.13401054 -0.4768579 -0.24366182 -0.22040874
-0.19616725 -0.24196096 -0.2894315 -0.15958844 0.067287594 -0.08119039 -0.077869594 -0.23412243
-0.16720533 0.10235043 -0.20181268 -0.5228452 -0.30325612 -0.23142423 -0.11544683 -0.27795333
-0.14191256 -0.34062132 -0.268247 -0.4275499 -0.054704253 -0.07465391 -0.1418711 -0.163065
-0.15697101 -0.40195027 -0.120619126 -0.32257986 -0.45250282 -0.19460809 -0.48510665 -0.118839115
0.7766236 1.1415838 0.35690346 -0.16493158 0.79823774 0.74548465 0.8297833 0.37655187
-1.4619967 0.02402775 0.67492586 0.9083973 -0.5081088 0.4328836 0.029247472 0.86702234
0.91241616 -0.057961304 -0.697085 0.84966713 -1.237419 0.85824186 0.8422887 0.3373989
-0.05519246 -0.6659001 0.2678536 0.8152672 0.2157484 -0.95185626 0.7932826 0.029766396
-0.18097669 -0.527914 0.22006941 0.20217325 -0.07481157 0.6045007 0.79320735 0.91428626
0.8095091 -0.4572557 0.9075949 -1.6568829 0.9351206 0.7557375 0.77962893 -1.6591166
-0.52041733 -1.025012 -0.49651846 -1.2370536 1.0881394 0.14219128 0.99274725 0.706164
-0.42363003 -1.6187314 -0.19987158 0.52025455 -0.55651426 0.8730083 -0.527399 0.14182246
00000000: edcb 8bbe 6f3b 73be 9389 23be 3f96 8cbe
00000010: 1a61 b8be cc21 1bbe e9f5 7fbe 9191 dfbd
00000020: 2aff 16be 8589 09be 6847 92be ebd2 92be
00000030: 4b31 73be f491 0bbe f431 d4bd 10a6 5fbe
00000040: a50d 57be 5d75 00be ad6d 70be 67e3 93be
00000050: da00 1ebe 6e47 91be 0a1e a8be 986d c2bd
00000060: deba 72be 8ba7 6ebd 0466 7cbe 7b95 8cbe
00000070: ac80 3dbe 8dad 7abd c4a7 80be 38f2 2abe
00000080: 50c9 70be ee20 35be d767 d1be 6e31 ffbd
00000090: 2ac8 37be cd07 93be 86fd 0fbe fc0e a1be
000000a0: c22b a2be 0d3b 9bbe 1813 0ebe 7eb2 8fbe
000000b0: 6afa e5be e9a8 bdbe 3d40 4ebe 5291 febd
000000c0: d5fd 31bc 623d 91be 677b 39be 271b 67be
000000d0: f14f b5be 36fc 87be 89d2 2ebe 31c1 b3be
000000e0: 1890 9abe d88b 8ebe 339c 5a3d 09fa e9be
000000f0: aa67 d9bd b63f 0ebe 6a36 b0be c4ff 01be
00000100: 290c cdbd 2d4a 38be 7e2b 7abe 1b44 cebd
00000110: 25db 6abe 1bbd 51be e367 b9bd f670 4fbe
00000120: cc66 bfbe be4d 47be c079 d8bd bc30 9ebd
00000130: e452 f6be 5c48 89be 7aaa 7fbe ee63 99be
00000140: 0a0d c9bd b37b 05be a737 a4be 580b 9bbe
00000150: da83 b2be 8f04 f4bd 3ed0 debc b8a7 1cbe
00000160: 28df 47be 43e8 81be 34eb 85be e1ae 82be
00000170: cc3c 15be 3743 70be ae5f a8be 61e4 48be
00000180: 9413 d9bd 7dd3 dfbe ae8a b0be 55b9 debb
00000190: b662 2c3b e832 6fbe 528f 98be b077 99be
000001a0: 3cd8 c2be 17be 203e d429 7fbe e4c8 11bf
000001b0: bfa6 7dbe 9d04 3ebe fe47 16be 2397 2bbe
000001c0: cbfc 72be 6349 eebe cef6 e3be 7770 00bf
000001d0: 2ff6 79be 3743 11be 4c87 c1bd 980f 4abe
000001e0: f3cb 9bbd a5ab d0be 457f 2a3c 02b4 90be
000001f0: ad5b debe 3f70 39be 0bde b1be 8f76 19be
00000200: ca31 88be 736d a0bd 6a21 3fbe adc7 78be
00000210: d574 8ebe 26f7 babd d0e8 2dbd 6fbb 17be
00000220: ad27 b1be 4dd6 3fbe 0a9f 47be 27b0 e4bd
00000230: 0fb1 d7be e9ce abbc 7c6a 0bbe 4f91 87bd
00000240: 1ec3 85be 9b25 75be 44b7 08bf 3a83 49be
00000250: 9f9d ffbe 7af3 19be dbd8 2cbd 6499 f7bd
00000260: b652 a2be 115d 27be 171e 9abd dc2d 24be
00000270: 0f3a 09be b826 f4be 7c82 79be d4b2 61be
00000280: 11e0 48be 9dc4 77be 5e30 94be 276b 23be
00000290: 14ce 893d 2647 a6bd 187a 9fbd cabd 6fbe
000002a0: e037 2bbe 1a9d d13d fca7 4ebe 2fd9 05bf
000002b0: 6344 9bbe 79fa 6cbe 636f ecbd e64f 8ebe
000002c0: 8751 11be eb65 aebe ac57 89be d2e7 dabe
000002d0: 9111 60bd 26e4 98bd a846 11be 83fa 26be
000002e0: 02bd 20be 6dcc cdbe 2907 f7bd 3029 a5be
000002f0: 73ae e7be 5847 47be e65f f8be ec61 f3bd
00000300: ced0 463f 6b1f 923f 0dbc b63e d3e3 28be
00000310: 4f59 4c3f 15d8 3e3f ae6c 543f 68cb c03e
00000320: b522 bbbf d8d5 c43c f1c7 2c3f ba8c 683f
00000330: 6b13 02bf eba2 dd3e 6598 ef3c 2df5 5d3f
00000340: 1b94 693f d568 6dbd 2a74 32bf c983 593f
00000350: bf63 9ebf bdb5 5b3f 3ba0 573f 8cbf ac3e
00000360: 7d11 62bd 6e78 2abf 1b24 893e 5ab5 503f
00000370: 26ed 5c3e daac 73bf 9214 4b3f a8d8 f33c
00000380: f451 39be 5f25 07bf e059 613e 8106 4f3e
00000390: cf36 99bd 8fc0 1a3f a30f 4b3f aa0e 6a3f
000003a0: fd3b 4f3f 6b1d eabe 2458 683f bd14 d4bf
000003b0: 1064 6f3f 0378 413f c395 473f ef5d d4bf
000003c0: 123a 05bf 9833 83bf ab37 febe c657 9ebf
000003d0: 2748 8b3f 979a 113e af24 7e3f 2ac7 343f
000003e0: 09e6 d8be 9732 cfbf 23ab 4cbe 672f 053f
000003f0: b877 0ebf 797d 5f3f 9f03 07bf e839 113e

lin2.bias f4 [64]
-0.2768778 -0.3969037 -0.25386685 -0.36123165 -0.039229527 -0.24592318 -0.35746878 -0.061785974
-0.59931326 -0.16270547 0.17701222 -0.1839615 -0.5336247 0.13100693 -0.23887858 -0.08862604
-0.6321417 0.41250235 0.1997884 -0.028383598 0.005099853 -0.3471016 -0.5814744 -0.363407
-0.21076162 -0.2878964 -0.06886205 0.3982118 -0.21118025 -0.48015046 -0.4842055 0.254658
0.6012301 -0.40790585 -0.066948555 -0.1841527 -0.29951605 -0.17225221 -0.62472016 0.0030097596
-0.34794113 -0.48340717 0.48993453 0.2736695 -0.26379675 -0.3296844 -0.1333863 -0.51760364
0.122975186 -0.21879974 -0.37322897 -0.63559467 -0.20764863 -0.2806452 -0.22516538 0.5391827
-0.11625786 -0.31602105 0.37765804 -0.5133237 -0.038691342 -0.13018405 -0.069091685 -0.20479582
00000000: edc2 8dbe f636 cbbe d6fa 81be 5bf3 b8be
00000010: 24af 20bd 49d3 7bbe 2606 b7be 4a13 7dbd
00000020: 986c 19bf 439c 26be b142 353e 6760 3cbe
00000030: a19b 08bf ae26 063e 969c 74be 9281 b5bd
00000040: 0ad4 21bf 8233 d33e 5595 4c3e b884 e8bc
00000050: ab1c a73b 4db7 b1be 82db 14bf 7b10 babe
00000060: e5d1 57be 2867 93be 8c07 8dbd 6be2 cb3e
00000070: a33f 58be 48d6 f5be c9e9 f7be 8962 823e
00000080: 37ea 193f 09d9 d0be 531c 89bd 8692 3cbe
00000090: 2b5a 99be e262 30be a9ed 1fbf 633f 453b
000000a0: 5725 b2be 2581 f7be b3d8 fa3e 691e 8c3e
000000b0: 5e10 87be 65cc a8be 6b96 08be ac81 04bf
000000c0: 6ada fb3d 0a0d 60be de17 bfbe 55b6 22bf
000000d0: d8a1 54be bab0 8fbe c191 66be e107 0a3f
000000e0: 9a18 eebd 83cd a1be 655c c13e 2f69 03bf
000000f0: d07a 1ebd f84e 05be f17f 8dbd ffb5 51be

lin3.weight f4 [64, 64]
0.005000839 0.019371482 -0.10812701 -0.2821018 -0.10278731 -0.112731606 -0.06849718 -0.2985805
-0.647318 -0.16457683 0.044826593 0.068128414 -0.6950723 -0.0039146137 -0.09453949 0.07543031
-0.69477725 -0.14240314 -0.07515404 -0.51941925 -0.17632182 -0.5436577 -0.4803484 -0.47004965
-0.40141848 -0.26088995 -0.06508405 0.14680167 -0.001553058 -0.0398843 -0.54450524 -0.18364376
-0.032869097 -0.05570414 -0.3367455 -0.010390709 -0.13536324 -0.015798213 0.20169143 -0.10006663
-0.44120163 -0.6041923 0.045448802 0.037106026 -0.19302142 -0.55573726 -0.08444913 -0.5590289
-0.019396177 -0.1523166 -0.038340393 -0.54571396 0.025097739 -0.036774445 -0.270966 0.26982632
-0.09939481 -0.54270387 0.021359272 -0.4127753 -0.24354321 -0.30158702 -0.48621926 -0.11209634
0.015979124 -0.06608198 -0.14184172 0.14107956 0.5375798 -0.057830475 -0.03401254 0.0626043
-1.0377849 0.03894212 0.17187618 0.073729776 -1.2990191 0.8884246 0.010990231 -0.11964939
-2.0432506 0.4555844 -0.055700604 -0.099384986 -0.3415036 -1.41288 -1.3815628 -1.5105717
-0.79627305 -1.0713801 0.14026052 1.2314572 -0.046301287 0.081089504 -1.8086239 0.52774185
1.044556 0.4483189 -0.60656554 0.44930074 -0.033575892 0.2247949 0.08877226 0.15930712
-1.268199 -0.86943823 0.87306225 0.73986006 -0.14753848 -1.681633 0.05725139 -2.6178489
0.14616993 -0.015318258 -0.13076122 -1.5071276 -0.0069000325 -0.18917322 -0.5734091 1.4388033
-0.0056833 -0.69393003 0.22054644 -1.1927078 -0.7650345 -0.5325079 -0.3299412 -0.10369556
-0.007568153 0.05379199 -0.05654507 0.6144846 1.2362663 0.1293297 0.13331267 -0.089205846
0.58081466 0.10614178 0.33428562 0.13825618 -0.64419967 1.105336 -0.035767995 0.0070629567
-2.19804 0.75960934 0.51018226 -0.43673676 0.5718809 -1.401252 -1.866147 -1.6913549
-1.824035 -0.15636738 0.19785781 1.0792055 0.22407816 3.9840515 -1.749029 1.153432
0.990725 3.955182 -0.18968147 0.12076216 0.0821146 1.332479 0.22499095 0.3972619
-0.93585694 -1.3411919 0.918833 0.948373 -0.014217246 -2.4406834 0.057297874 -1.2759256
0.47171143 -0.009822927 -0.025317078 -1.2319164 0.009105625 0.087238714 -0.052082375 1.0287628
0.19053152 0.07808231 -0.30849952 -0.73124284 -0.5021637 -0.37082264 0.41222906 0.12557682
0.04156406 0.061570708 0.058047038 -0.3065463 -0.041699495 -0.041381907 0.036482856 -0.1739454
-0.7915294 -0.017607061 0.06643659 0.11814851 -0.8018582 0.739429 0.2627673 0.18603101
-1.229646 0.19954106 0.39976656 -0.5520531 -0.024815852 -1.1420869 -0.8223938 -1.113396
-0.6798782 -0.79421884 -0.005187636 0.97984856 0.15155509 0.15320468 -1.1588998 0.43014732
0.5451846 0.07482254 -0.88235956 0.4282647 0.03854959 0.23299748 0.0010430356 0.07559612
-0.8495978 -0.90351677 0.39935622 0.33973622 -0.08986179 -1.117522 -0.0054196124 -1.4956605
0.19415708 0.0503354 0.0063034594 -0.8608964 0.079880096 -0.013891049 -0.5916673 0.8976456
-0.13133214 -0.940571 -0.16745406 -1.2424016 -0.74680954 -0.53465575 -0.8735792 0.12519374
00000000: 14de a33b f1b0 9e3c b271 ddbd a66f 90be
00000010: 2782 d2bd d4df e6bd 4048 8cbd 8bdf 98be
00000020: a2b6 25bf d486 28be 179c 373d e986 8b3d
00000030: 42f0 31bf 2946 80bb ec9d c1bd 357b 9a3d
00000040: ecdc 31bf 21d2 11be 5cea 99bd a9f8 04bf
00000050: b58d 34be 272d 0bbf 3af0 f5be 59aa f0be
00000060: b986 cdbe 5e93 85be c94a 85bd 2d53 163e
00000070: fb8f cbba b85d 23bd b264 0bbf 1c0d 3cbe
00000080: bfa1 06bd 062a 64bd e869 acbe cb3d 2abc
00000090: a99c 0abe 416b 81bc 3388 4e3e bcef ccbd
000000a0: 2ee5 e1be 59ac 1abf 8628 3a3d 7dfc 173d
000000b0: 68a7 45be cc44 0ebf aaf3 acbd 851c 0fbf
000000c0: bbe4 9ebc e2f8 1bbe d10a 1dbd e9b3 0bbf
000000d0: c699 cd3c cda0 16bd 0ebc 8abe ad26 8a3e
000000e0: 828f cbbd a4ee 0abf a4f9 ae3c 4957 d3be
000000f0: 6463 79be 9d69 9abe bbf1 f8be c492 e5bd
00000100: a7e6 823c fd55 87bd f53e 11be 2977 103e
00000110: d49e 093f a6df 6cbd bc50 0bbd af36 803d
00000120: 23d6 84bf c681 1f3d 4f00 303e a3ff 963d
00000130: 4246 a6bf cb6f 633f 5f10 343c bd0a f5bd
00000140: 9ec4 02c0 5c42 e93e 5126 64bd 5b8a cbbd
00000150: 8fd9 aebe 40d9 b4bf 0dd7 b0bf 6a5a c1bf
00000160: 8dd8 4bbf fc22 89bf 74a0 0f3e 64a0 9d3f
00000170: 6ba6 3dbd 4112 a63d fd80 e7bf 171a 073f
00000180: 03b4 853f 0e8a e53e e147 1bbf bf0a e63e
00000190: e086 09bd a230 663e 3bce b53d 6821 233e
000001a0: 5854 a2bf 8193 5ebf 0281 5f3f 7867 3d3f
000001b0: 5414 17be c03f d7bf 6f80 6a3d d68a 27c0
000001c0: 92ad 153e 6ef9 7abc 45e6 05be 8fe9 c0bf
000001d0: ab19 e2bb a0b6 41be f0ca 12bf b52a b83f
000001e0: fa3a babb 66a5 31bf edd6 613e a6aa 98bf
000001f0: 4dd9 43bf 7052 08bf 0eee a8be 565e d4bd
00000200: 45fe f7bb fd54 5c3d ce9b 67bd dd4e 1d3f
00000210: f93d 9e3f 016f 043e 1e83 083e 8eb1 b6bd
00000220: 45b0 143f dd60 d93d 7c27 ab3e 0793 0d3e
00000230: 45ea 24bf a67b 8d3f 7681 12bd 6070 e73b
00000240: b0ac 0cc0 c275 423f 4e9b 023f f69b dfbe
00000250: c966 123f 3a5c b3bf e8dd eebf 517e d8bf
00000260: fb79 e9bf c51e 20be 3d9b 4a3e 6823 8a3f
00000270: bf74 653e b3fa 7e40 2fe0 dfbf a9a3 933f
00000280: 27a0 7d3f b421 7d40 dc3b 42be 2752 f73d
00000290: b32b a83d ac8e aa3f 0764 663e e965 cb3e
000002a0: 5294 6fbf 2dac abbf a438 6b3f 93c8 723f
000002b0: 74ef 68bc 2834 1cc0 2db1 6a3d 8851 a3bf
000002c0: 2984 f13e 58f0 20bc c365 cfbc 70af 9dbf
000002d0: c22f 153c 36aa b23d 5454 55bd 80ae 833f
000002e0: b21a 433e 9ee9 9f3d a6f3 9dbe bb32 3bbf
000002f0: cd8d 00bf 77dc bdbe b00f d33e 3697 003e
00000300: 133f 2a3d 9131 7c3d bbc2 6d3d a3f3 9cbe
00000310: 17cd 2abd 1380 29bd 0c6f 153d be1e 32be
00000320: aca1 4abf af3c 90bc e80f 883d d9f7 f13d
00000330: 9446 4dbf 384b 3d3f 6f89 863e ea7e 3e3e
00000340: 0a65 9dbf 7e54 4c3e 34ae cc3e 5a53 0dbf
00000350: 9d4a cbbc e72f 92bf 6688 52bf c383 8ebf
00000360: 7f0c 2ebf ed51 4bbf 0bfd a9bb 5bd7 7a3f
00000370: 4231 1b3e b0e1 1c3e d456 94bf 453c dc3e
00000380: 3891 0b3f 8f3c 993d 51e2 61bf 8345 db3e
00000390: 2de6 1d3d e496 6e3e 78b6 883a 23d2 9a3d
000003a0: 3e7f 59bf e04c 67bf 6b78 cc3e e8f1 ad3e
000003b0: 7509 b8bd f60a 8fbf 0197 b1bb ce71 bfbf
000003c0: 1dd1 463e 7e2c 4e3d 408d ce3b b563 5cbf
000003d0: 2d98 a33d 4897 63bc 8277 17bf 1acc 653f
000003e0: ef7b 06be 43c9 70bf 1479 2bbe 0407 9fbf
000003f0: e92e 3fbf 33df 08bf e3a2 5fbf ca32 003e

lin3.bias f4 [64]
0.25285012 1.0401773 0.7413156 0.6228358 0.83132845 -0.04084697 0.31484947 0.2142179
0.032240707 0.04519735 0.60861903 0.52500194 1.176064 -0.09589912 0.37901595 -0.18510544
-0.005866489 0.031612847 0.06400671 0.64577985 0.41313484 0.1360219 0.7249229 0.2225519
0.73011446 0.8112734 -0.099244356 -0.051657375 0.6020617 1.2939198 -0.030087415 -0.008417134
0.43796945 0.14735316 0.35856155 0.9942079 0.0012983612 0.28203565 0.471921 -0.0689101
0.022055896 0.12300089 0.018058883 0.60567224 -0.0088364305 0.06757527 0.24772896 0.48847994
0.17433499 1.3526521 0.70141685 0.48797807 0.6404242 0.6410047 0.655536 0.13181469
1.5657425 0.20911741 -0.08608907 0.3482166 0.5284809 0.533464 0.64525187 -0.13536723
00000000: 9275 813e 8824 853f dcc6 3d3f 2b72 1f3f
00000010: f1d1 543f 274f 27bd f333 a13e f05b 5b3e
00000020: d50e 043d db20 393d 75ce 1b3f 8766 063f
00000030: 4489 963f c266 c4bd 610e c23e 488c 3dbe
00000040: ad3b c0bb 797c 013d f315 833d d451 253f
00000050: 6986 d33e 5349 0b3e 8c94 393f a5e4 633e
00000060: c8e8 3a3f 9daf 4f3f a040 cbbd af96 53bd
00000070: b720 1a3f 2a9f a53f e279 f6bc 05e8 09bc
00000080: 883d e03e bfe3 163e 6195 b73e 6984 7e3f
00000090: c62d aa3a fa66 903e a19f f13e bd20 8dbd
000000a0: 91ae b43c e4e7 fb3d 39f0 933c 560d 1b3f
000000b0: adc6 10bc e764 8a3d a9ac 7d3e 0b1a fa3e
000000c0: df84 323e b423 ad3f 0e90 333f 43d8 f93e
000000d0: d7f2 233f e218 243f 35d1 273f 6efa 063e
000000e0: 406a c83f e022 563e 774f b0bd 7249 b23e
000000f0: 864a 073f 1991 083f 3a2f 253f b59d 0abe

lin4.weight f4 [64, 64]
-0.096994005 -0.2285151 -0.41117328 -0.22541222 -0.12286336 0.40922433 -0.103546046 0.045207273
-0.06386506 -0.053470436 0.40788028 -0.18195829 -0.30377916 -0.14742395 -0.037572283 0.41377532
-0.0240057 -0.08403195 3.179023e-05 -0.18944588 -0.061528552 -0.07352897 -0.093136065 0.04399372
-0.25034845 -0.116882846 0.018255841 0.37038016 -0.10241951 -0.45336717 -0.011444432 -0.100677826
-0.1759766 -0.015158333 0.028888894 -0.27367342 0.24295545 -0.05824662 -0.14575273 0.35565448
-0.05204278 -0.089275576 0.029641695 -0.12667976 -0.12767304 0.030715672 0.0032756617 0.039567366
0.32380977 -0.376291 -0.49191734 -0.0008041579 0.021397313 -0.19941258 -0.30341828 0.08349475
-0.72947544 0.047910005 -0.18589027 -0.027296402 -0.32821852 -0.120849684 -0.073526524 0.01955831
0.058743518 0.18470514 0.18085666 0.030620974 0.30824217 -0.6159306 -0.004045532 0.085790955
0.13202576 0.14003298 -0.14275454 0.04820665 0.14834754 0.04801169 0.17443387 -0.5440192
0.08463786 -0.031209301 0.028483273 0.18882875 0.07889767 0.15898095 0.048441574 0.015325881
0.2476842 0.1383972 0.14837389 -0.33243093 0.049229167 0.2964982 0.17228274 0.07021122
0.23760298 0.14992672 -0.050315995 0.33159348 -0.35547346 0.23367931 0.063738845 -0.44215938
0.17739865 0.010937652 -0.009292674 0.21011868 -0.024254596 0.1635378 -0.03568773 -0.009838025
-0.19302219 0.22581793 0.3198395 0.19764045 0.19208701 0.13697937 0.2208165 0.1222195
0.5773196 -0.06111109 0.047442045 -0.06577021 0.38070896 0.20238511 0.23988995 0.08291749
0.048382092 0.32210967 0.12027206 0.22211193 0.25603142 -0.47457412 0.03887453 0.20724642
-0.046416186 0.020444727 -0.16753237 0.07142509 0.33998173 -0.02042817 0.13625191 -0.33884522
0.12788287 0.01581817 0.17695387 0.17469351 0.28741595 0.06299094 0.23804516 0.0473806
0.3068532 0.07230583 0.028017152 -0.43413216 0.12824373 0.3124475 0.18476528 0.18322545
0.27845237 0.18075736 -0.05215542 0.44533223 -0.35370904 0.18688223 0.07378494 -0.42624
0.15973513 0.027271193 0.035082992 0.33801812 0.17120469 0.013850241 -0.022991693 0.137983
-0.25040647 0.32306135 0.50647205 0.16997431 0.20322092 0.26191148 0.22326086 0.030604953
0.56323963 -0.17384188 -0.029502457 0.07467758 0.20117219 0.24668588 0.0813601 0.008580561
0.06381607 -0.019624801 -0.8686834 -0.0496648 0.029154621 -0.4655216 -0.08701641 -0.00962974
-0.14087668 -0.005468121 -0.14394006 -0.04229089 -0.029434076 0.03638531 -0.054122396 -0.33609724
-0.16753136 -0.046337977 -0.18883243 0.014786161 -0.06910645 -0.1241176 -0.19136623 -0.1893212
0.24874355 -0.08966703 -0.07803648 0.077135965 -0.08258647 -0.125505 -0.06432403 -0.17752808
-0.16523932 -0.04888061 -0.3415103 0.45038757 -0.07906326 -0.15914153 0.0068362127 -0.3647515
-0.086353764 0.034330443 -0.026793927 -0.06910276 -0.04353754 -0.08671023 -0.14031102 -0.13859878
-0.023133622 0.019002108 -0.9210307 -0.049798593 -0.14675611 -0.029112952 -0.050786577 -0.16544242
-0.1806831 -0.29442704 -0.18516038 -0.4654696 -0.21821052 0.041389115 0.073986515 -0.029302394
00000000: cba4 c6bd ddff 69be 4e85 d2be 76d2 66be
00000010: c99f fbbd da85 d13e f30f d4bd 432b 393d
00000020: afcb 82bd d103 5bbd afd5 d03e 4653 3abe
00000030: f188 9bbe 4ef6 16be 65e5 19bd 5cda d33e
00000040: 9aa7 c4bc f118 acbd 8056 0538 1afe 41be
00000050: 5d05 7cbd 5b96 96bd 1fbe bebd c232 343d
00000060: ac2d 80be 4660 efbd 468d 953c 78a2 bd3e
00000070: 52c1 d1bd be1f e8be 6d81 3bbc 2d30 cebd
00000080: 3633 34be a85a 78bc 67a8 ec3c ec1e 8cbe
00000090: 50c9 783e 0294 6ebd 3440 15be 5818 b63e
000000a0: cf2a 55bd 1dd6 b6bd 24d3 f23c 57b8 01be
000000b0: b9bc 02be 6f9f fb3c 7cac 563b 6411 223d
000000c0: 65ca a53e 37a9 c0be 97dc fbbe 20ce 52ba
000000d0: 6b49 af3c d032 4cbe a459 9bbe 4cff aa3d
000000e0: e7be 3abf 483d 443d 055a 3ebe b49c dfbc
000000f0: 420c a8be 0a80 f7bd 1395 96bd c038 a03c
00000100: 0b9d 703d 5823 3d3e 7d32 393e d6d8 fa3c
00000110: ebd1 9d3e a1ad 1dbf 6290 84bb 2bb3 af3d
00000120: c331 073e ce64 0f3e 3f2e 12be 5674 453d
00000130: 6be8 173e e8a7 443d cb9e 323e d844 0bbf
00000140: 9d56 ad3d a6aa ffbc c155 e93c 535c 413e
00000150: 1a95 a13d e7cb 223e ac6a 463d 6719 7b3c
00000160: eda0 7d3e ffb7 0d3e 53ef 173e 6334 aabe
00000170: 86a4 493d 9dce 973e e36a 303e e6ca 8f3d
00000180: 324e 733e 6486 193e 2518 4ebd 9fc6 a93e
00000190: 9e00 b6be a149 6f3e 8389 823d b762 e2be
000001a0: fea7 353e d633 333c 4d40 18bc 5a29 573e
000001b0: 93b1 c6bc 7476 273e 4c2d 12bd ab2f 21bc
000001c0: 9ca7 45be d13c 673e 01c2 a33e 4262 4a3e
000001d0: 75b2 443e 5244 0c3e b81d 623e 384e fa3d
000001e0: 38cb 133f 9f4f 7abd 9752 423d 88b2 86bd
000001f0: 49ec c23e 0b3e 4f3e b6a5 753e a5d0 a93d
00000200: 4d2c 463d 8feb a43e 3351 f63d 4f71 633e
00000210: 8d16 833e 61fb f2be e63a 1f3d 6838 543e
00000220: e61e 3ebd b37b a73c 9b8d 2bbe 5147 923d
00000230: 1612 ae3e fa58 a7bc 9f85 0b3e 1f7d adbe
00000240: baf3 023e 1b95 813c 6533 353e dbe2 323e
00000250: 2f28 933e 6501 813d 1cc2 733e 2912 423d
00000260: dd1b 9d3e 1415 943d 3a84 e53c 9246 debe
00000270: 5352 033e 1ef9 9f3e 1c33 3d3e 749f 3b3e
00000280: 4f91 8e3e 7518 393e eca0 55bd 9602 e43e
00000290: 5a19 b5be 0e5e 3f3e 8f1c 973d 213c dabe
000002a0: 9b91 233e d667 df3c 2fb3 0f3d b610 ad3e
000002b0: 4850 2f3e 1fec 623c 1359 bcbc 6a4b 0d3e
000002c0: 4735 80be 4c68 a53e 27a8 013f bf0d 2e3e
000002d0: 2519 503e 4319 863e 7f9e 643e 3db7 fa3c
000002e0: 7930 103f 9b03 32be 23af f1bc 8ff0 983d
000002f0: 1500 4e3e 399b 7c3e 20a0 a63d 7b95 0c3c
00000300: 00b2 823d 31c4 a0bc 0962 5ebf 516d 4bbd
00000310: acd5 ee3c d958 eebe a935 b2bd 0fc6 1dbc
00000320: fa41 10be ec2d b3bb 0665 13be 3639 2dbd
00000330: bb1f f1bc c308 153d 72af 5dbd f014 acbe
00000340: 578d 2bbe e4cc 3dbd 4a5d 41be a741 723c
00000350: af87 8dbd 5e31 febd 82f5 43be 6bdd 41be
00000360: a1b6 7e3e 59a3 b7bd 97d1 9fbd 76f9 9d3d
00000370: 1823 a9bd 6284 00be 51bc 83bd ecc9 35be
00000380: 7f34 29be 0937 48bd 70da aebe 3399 e63e
00000390: ebeb a1bd fff5 22be 4f02 e03b b5c0 babe
000003a0: 3eda b0bd 149e 0c3d f07e dbbc bf85 8dbd
000003b0: 6b54 32bd 2295 b1bd b1ad 0fbe d7ec 0dbe
000003c0: b982 bdbc 4faa 9b3c abc8 6bbf 9cf9 4bbd
000003d0: 3c47 16be 497e eebc 9605 50bd bd69 29be
000003e0: fe04 39be 24bf 96be af9a 3dbe 0852 eebe
000003f0: 9472 5fbe a287 293d 3e86 973d 930b f0bc

lin4.bias f4 [64]
0.17804003 -0.11847889 -0.31787565 -0.15073417 -0.18195021 0.09079122 0.1944432 0.16121073
0.19355254 -0.33954644 -0.22965045 0.22864336 -0.2917838 -0.26980144 0.10310989 -0.19100276
-0.2103608 -0.12845498 0.21449503 -0.23696409 0.20582983 0.30243754 -0.2920412 -0.2250942
0.15457377 -0.109911606 -0.23411262 -0.16437022 0.26691017 -0.17271334 0.26137125 0.12254909
0.12206504 -0.33959976 -0.24774747 0.19174497 0.23154797 0.24314854 0.30746594 -0.15524712
-0.021003306 0.21797033 0.19807878 0.09932743 -0.26693135 -0.21391046 0.26490462 0.15002173
-0.28391862 -0.23009968 -0.27955216 0.27845132 -0.13150199 -0.423933 0.20315187 -0.27838048
-0.17265093 -0.07853846 -0.32441598 -0.17602964 0.1100972 0.14337015 -0.3498823 0.1375372
00000000: 2050 363e 0fa5 f2bd 99c0 a2be 0f5a 1abe
00000010: 2851 3abe bff0 b93d 1e1c 473e 6d14 253e
00000020: a332 463e 08d9 adbe 7d29 6bbe 7c21 6a3e
00000030: b064 95be 6a23 8abe 472b d33d 3a96 43be
00000040: d268 57be b489 03be 96a4 5b3e b7a6 72be
00000050: 0ec5 523e 18d9 9a3e 6d86 95be 187f 66be
00000060: 9648 1e3e 5619 e1bd 38bb 6fbe ab50 28be
00000070: 73a8 883e c4db 30be 74d2 853e 04fb fa3d
00000080: 3cfd f93d 05e0 adbe 83b1 7dbe cb58 443e
00000090: e91a 6d3e eefb 783e 2d6c 9d3e 1af9 1ebe
000000a0: 200f acbc 9d33 5f3e 2ad5 4a3e 2e6c cb3d
000000b0: 3aab 88be 580b 5bbe 94a1 873e 4c9f 193e
000000c0: c85d 91be 409f 6bbe 7621 8fbe 2c91 8e3e
000000d0: 75a8 06be bf0d d9be 0b07 503e e387 8ebe
000000e0: 68cb 30be c6d8 a0bd da19 a6be 1d41 34be
000000f0: a47a e13d a0cf 123e c623 b3be 8dd6 0c3e

lin5.weight f4 [1, 64]
0.36647925 -0.111191384 -0.15734953 0.10486019 0.014846316 -0.42626306 0.45078838 0.3171839
0.3023473 -0.18592443 -0.14224263 0.5067015 -0.22213627 -0.15992175 0.22066548 -0.31097785
-0.12012691 -0.1661508 0.34268785 -0.311252 0.5072113 0.48910642 -0.15141712 -0.32520375
0.29629487 -0.14044024 -0.20316418 -0.34625372 0.2786671 -0.1949852 0.32663497 0.45469502
0.4164978 -0.16205998 -0.1337385 0.37053463 0.27573586 0.48306507 0.4024549 -0.085374705
-0.88840353 0.4458276 0.33812395 0.4389738 -0.18809706 0.037435435 0.39801186 0.21351695
-0.1928634 -0.20555288 -0.12154644 0.33426428 -0.22279905 -0.2770544 -0.876091 -0.20532271
-0.15913624 -0.06531421 -0.19420929 -0.15738004 0.37603354 0.40950972 -0.29192916 0.3226159
00000000: 2ba3 bb3e 4fb8 e3bd 3c20 21be f0c0 d63d
00000010: f63d 733c 273f dabe bccd e63e ee65 a23e
00000020: 44cd 9a3e f962 3ebe 0da8 11be 31b7 013f
00000030: b177 63be 87c2 23be 22f6 613e 7d38 9fbe
00000040: 1905 f6bd 6f23 2abe c874 af3e 6c5c 9fbe
00000050: 9ad8 013f 286c fa3e 170d 1bbe 1b81 a6be
00000060: f6b3 973e 91cf 0fbe 450a 50be 2b48 b1be
00000070: 74ad 8e3e 33aa 47be b33c a73e c9cd e83e
00000080: 333f d53e 0df3 25be bff2 08be b7b6 bd3e
00000090: 402d 8d3e 4e54 f73e 920e ce3e efd8 aebd
000000a0: 6a6e 63bf 8443 e43e 951e ad3e 2dc1 e03e
000000b0: 849c 40be e655 193d 36c8 cb3e 30a4 5a3e
000000c0: fc7d 45be 747c 52be 57ed f8bd b024 ab3e
000000d0: 6f25 64be 13da 8dbe 8047 60bf 1e40 52be
000000e0: 9cf4 22be 75c3 85bd cdde 46be 3c28 21be
000000f0: 7887 c03e 42ab d13e bd77 95be e92d a53e

exp_avg f4 [64, 2]
6.5922322e-06 -1.4006061e-05 -2.1898402e-05 -6.3138905e-06 -1.7627404e-05 -4.808988e-05 1.3941652e-05 -0.00010508505
-1.1657154e-05 -1.1351572e-05 -7.0787064e-06 -1.3210301e-05 -1.2019627e-06 -7.665722e-06 -7.0155647e-06 -4.109851e-05
2.2116903e-05 2.4379206e-05 3.704808e-06 -4.6468864e-05 -9.983424e-06 -4.916274e-06 -6.0301927e-06 -1.697851e-05
2.8605473e-06 2.8359236e-05 -1.1249589e-05 -3.936974e-05 1.4294221e-05 -6.065492e-05 1.3944646e-05 -2.2685961e-05
-5.1916236e-06 -3.5158764e-06 1.1898824e-05 -6.4980806e-05 1.0977601e-08 1.6877178e-05 1.9606126e-05 -2.3785451e-05
-7.260267e-06 4.4806002e-05 2.422122e-05 -2.3846074e-05 -0.00013733658 -8.4556836e-05 3.9902197e-06 -3.4545563e-05
2.3069228e-05 -2.3324184e-05 -3.802444e-05 -1.0424124e-05 -1.3772756e-05 -4.4047443e-05 -7.836827e-06 -1.1428563e-05
7.912968e-06 -6.227444e-05 8.760853e-07 4.7641668e-05 6.9290445e-07 -1.1736012e-05 9.296296e-06 -7.170366e-05
1.4088344e-05 -7.389264e-05 7.970312e-06 3.337061e-05 -3.7312362e-05 -3.8804923e-05 -3.7513687e-06 -4.3000553e-05
0.00010218564 5.293962e-05 1.4681729e-05 -1.950353e-05 1.7105529e-05 -2.2013815e-05 7.1623253e-06 7.4203845e-06
5.463423e-05 4.260499e-05 -4.827768e-05 1.2815894e-05 1.8248606e-05 -2.4435036e-05 6.212725e-05 2.26514e-05
2.0913165e-05 2.637557e-05 -2.7707567e-05 -4.28033e-05 1.50641445e-05 -2.4685047e-05 9.237505e-05 -1.0813525e-05
-0.00013591742 1.1708653e-05 -4.228039e-06 4.6162328e-05 1.8989267e-05 3.6981513e-05 2.0273117e-05 2.1310185e-05
-1.3273646e-05 -1.0167979e-05 1.3977403e-05 -4.6124707e-05 -2.639023e-06 -1.2489831e-05 -1.0013275e-05 -9.360479e-06
3.337489e-06 -8.917655e-05 5.144012e-05 1.619582e-05 -4.7134163e-05 -4.8024456e-05 1.9975378e-05 7.985824e-06
1.8353634e-05 4.4771896e-05 -2.526502e-05 -1.7178318e-06 2.1341075e-05 4.297799e-05 4.9208124e-06 -5.006608e-05
00000000: d832 dd36 93fb 6ab7 76b2 b7b7 e8db d3b6
00000010: 90de 93b7 1eb4 49b8 f0e6 6937 1b61 dcb8
00000020: 1893 43b7 a172 3eb7 a085 edb6 d0a1 5db7
00000030: 2053 a1b5 069c 00b7 3e67 ebb6 3061 2cb8
00000040: b087 b937 f281 cc37 1ea0 7836 90e7 42b8
00000050: 7b7e 27b7 79f6 a4b6 f656 cab6 136d 8eb7
00000060: d4f7 3f36 ffe4 ed37 9ebc 3cb7 f020 25b8
00000070: 36d1 6f37 b967 7eb8 ccf3 6937 bb4d beb7
00000080: b533 aeb6 4cf2 6bb6 0fa1 4737 4e46 88b8
00000090: 0098 3c32 7793 8d37 d677 a437 de86 c7b7
000000a0: 389d f3b6 14ee 3b38 ad2e cb37 0e09 c8b7
000000b0: 0202 10b9 1b54 b1b8 bae3 8536 04e5 10b8
000000c0: ca84 c137 4ea8 c3b7 6e7c 1fb8 46e3 2eb7
000000d0: 8911 67b7 95bf 38b8 ea7a 03b7 4ebd 3fb7
000000e0: f0c1 0437 5699 82b8 202c 6b35 dad2 4738
000000f0: 0800 3a35 cae5 44b7 4af7 1b37 9c5f 96b8
00000100: fa5c 6c37 cff6 9ab8 3bb8 0537 6bf7 0b38
00000110: d87f 1cb8 78c2 22b8 06c0 7bb6 7e5b 34b8
00000120: 7f4c d638 7c0b 5e38 8c51 7637 839b a3b7
00000130: d87d 8f37 4faa b8b7 e853 f036 9efc f836
00000140: 0f27 6538 c2b2 3238 c47d 4ab8 d803 5737
00000150: 9514 9937 d7f9 ccb7 504a 8238 8303 be37
00000160: ae6e af37 1b41 dd37 8c6d e8b7 b287 33b8
00000170: 02bc 7c37 bc12 cfb7 7ab9 c138 bc6b 35b7
00000180: 0e85 0eb9 4870 4437 94de 8db6 6c9e 4138
00000190: 244b 9f37 991c 1b38 3010 aa37 46c3 b237
000001a0: e0b1 5eb7 2397 2ab7 7d80 6a37 0776 41b8
000001b0: 121a 31b6 6a8b 51b7 b0fe 27b7 f40a 1db7
000001c0: a0f9 5f36 4c04 bbb8 69c1 5738 42dc 8737
000001d0: ecb1 45b8 de6d 49b8 cc90 a737 dafa 0537
000001e0: 21f6 9937 75c9 3b38 38f0 d3b7 4090 e6b5
000001f0: 9c05 b337 4443 3438 751d a536 0bfe 51b8

exp_avg_sq f4 [64, 2]
1.690103e-07 8.7094804e-07 1.1792478e-06 1.0773504e-06 4.7035675e-07 1.6313892e-06 6.5601616e-06 6.0842876e-06
5.3255644e-07 8.227662e-07 4.363759e-07 8.6191454e-07 2.0827251e-07 5.8695656e-07 2.1178468e-07 1.1292808e-06
2.8254708e-06 3.0036126e-06 5.438842e-07 1.2843235e-06 3.3627686e-07 3.6540843e-07 3.4452242e-07 1.3091308e-06
6.962696e-08 6.400603e-07 2.5188098e-07 8.412877e-07 1.9286897e-06 1.8816647e-06 1.6553521e-07 1.6996821e-06
2.8620673e-07 4.1422888e-07 1.6862957e-06 2.308624e-06 1.08789514e-07 4.2547785e-07 1.560088e-07 2.0147374e-06
1.0029578e-06 3.6057254e-06 1.9973233e-07 2.0068514e-06 5.164171e-05 3.4376033e-06 5.271849e-08 6.764801e-07
9.371217e-08 8.220881e-08 8.081443e-06 1.1301655e-06 3.9657013e-07 1.2539682e-06 4.0866294e-07 1.0196885e-06
1.005799e-06 2.3643458e-06 4.443485e-07 7.831512e-07 2.4810336e-07 7.945614e-07 2.1342282e-06 2.7809856e-06
2.4605408e-06 2.8837142e-06 8.57637e-08 6.600949e-07 3.9093874e-07 7.476415e-07 8.804096e-08 9.845926e-07
3.4846413e-05 1.8293885e-06 2.9895511e-07 8.776398e-07 2.1644664e-07 1.309238e-06 2.53763e-06 1.1799235e-06
2.3043084e-07 1.4611408e-07 2.5431576e-05 3.5218286e-06 2.0324228e-07 1.6810146e-06 8.517016e-06 2.7885228e-06
7.082057e-07 3.6912812e-07 4.720614e-07 2.4285764e-06 1.3130583e-06 1.4574705e-06 4.028595e-05 8.777072e-07
6.353095e-05 2.6289117e-06 5.2188614e-07 1.5818047e-06 2.2358148e-07 8.6471766e-07 2.2987651e-06 1.205769e-06
5.786226e-07 9.340212e-07 5.7794614e-07 7.437699e-07 3.0462525e-07 1.0468893e-06 4.4978316e-07 6.2632853e-07
6.0151247e-06 5.111351e-06 6.3810944e-06 2.63392e-06 2.4975567e-05 9.893041e-07 3.519353e-07 1.9006825e-07
3.3687792e-07 1.1521162e-06 1.0983396e-06 4.6921528e-07 3.639453e-07 1.0454185e-06 3.0154112e-07 1.5360055e-06
00000000: 3379 3534 18cb 6935 a546 9e35 7a99 9035
00000010: 5785 fc34 1bf6 da35 5c1f dc36 a227 cc36
00000020: 00f5 0e35 10dc 5c35 0c47 ea34 515e 6735
00000030: 83a1 5f34 598f 1d35 ee66 6334 cb91 9735
00000040: 389d 3d36 ac91 4936 70ff 1135 0561 ac35
00000050: 8a89 b434 5a2d c434 cdf6 b834 64b5 af35
00000060: d385 9533 9cd0 2b35 423a 8734 dad4 6135
00000070: a36e 0136 828d fc35 f9bd 3134 a220 e435
00000080: f4a7 9934 2f63 de34 ae54 e235 dced 1a36
00000090: ab9f e933 3b6d e434 5f83 2734 ed34 0736
000000a0: 5e9d 8635 e4f9 7136 0176 5634 72ad 0636
000000b0: dd99 5838 93b1 6636 986c 6233 5c97 3535
000000c0: cf3e c933 c58a b033 8995 0737 31b0 9735
000000d0: 2fe8 d434 054e a835 3566 db34 3bdc 8835
000000e0: fefe 8635 27ab 1e36 cb8e ee34 be39 5235
000000f0: 1133 8534 d849 5535 c339 0f36 f8a0 3a36
00000100: c51f 2536 d585 4136 182d b833 6031 3135
00000110: 36e2 d134 88b1 4835 0811 bd33 5826 8435
00000120: 0d28 1238 4f89 f535 1480 a034 f396 6b35
00000130: 6668 6834 13b9 af35 274c 2a36 dd5d 9e35
00000140: 596c 7734 88e3 1c34 e555 d537 8e58 6c36
00000150: d03a 5a34 399f e135 4ee4 0e37 7522 3b36
00000160: 861b 3e35 952c c634 a06f fd34 a0fa 2236
00000170: 573c b035 4e9e c335 b6f8 2838 949b 6b35
00000180: eb3b 8538 5c6c 3036 be17 0c35 654e d435
00000190: 9c11 7034 f21e 6835 7c44 1a36 e8d5 a135
000001a0: a452 1b35 73b9 7a35 2824 1b35 7aa7 4735
000001b0: 608b a334 d882 8c35 ba79 f134 f820 2835
000001c0: 87d5 c936 2c82 ab36 2f1d d636 67c2 3036
000001d0: 9f82 d137 3bc8 8435 9ff1 bc34 9015 4c34
000001e0: 26dc b434 69a2 9a35 a96a 9335 75e8 fb34
000001f0: 4364 c334 4e50 8c35 7fe3 a134 bf28 ce35

exp_avg f4 [64]
2.3307843e-05 3.126957e-05 -4.423459e-05 -0.00017615172 2.3422508e-05 2.4478679e-05 1.3092488e-05 -1.7811723e-05
-4.6618552e-05 -5.302763e-05 1.5059524e-05 2.5186255e-05 3.7885307e-05 -3.0237366e-05 -9.7357326e-05 4.6650912e-05
5.517215e-06 -0.00010281034 1.6258702e-05 4.3944303e-05 -6.4551954e-05 4.6394234e-05 -0.0003567293 -1.490986e-05
-3.2207332e-05 -5.1497023e-05 -2.8696319e-05 2.104658e-05 -8.6257605e-05 7.5802363e-06 2.2487346e-05 -0.000110702065
-0.00012064881 4.7536523e-05 -8.327486e-05 -2.411503e-05 -0.00012854583 3.144204e-05 3.6782116e-05 -2.0976397e-05
2.7533342e-05 4.090165e-06 4.280881e-05 -4.5880453e-05 1.37583065e-05 -7.6078635e-05 3.2935088e-05 -0.00010379598
-0.00012230381 -3.378462e-05 6.0446826e-05 -9.541356e-06 2.2257751e-05 -6.418062e-05 2.2276296e-05 2.0068017e-05
-0.00015022667 -3.5065917e-05 -0.00013880746 3.723951e-05 6.763474e-05 1.3785759e-05 6.991748e-05 -5.3882468e-05
00000000: 3685 c337 7227 0338 8888 39b8 5eb5 38b9
00000010: 747b c437 9057 cd37 cfa7 5b37 626a 95b7
00000020: 4a88 43b8 fc69 5eb8 2aa8 7c37 1247 d337
00000030: 0ae7 1e38 40a6 fdb7 512c ccb8 09ab 4338
00000040: 8420 b936 e29b d7b8 4c63 8837 d650 3838
00000050: 1160 87b8 6e97 4238 6507 bbb9 5c25 7ab7
00000060: 5c16 07b8 82fe 57b8 e0b8 f0b7 308d b037
00000070: 33e5 b4b8 bc59 fe36 35a3 bc37 b828 e8b8
00000080: d604 fdb8 f461 4738 daa3 aeb8 a24a cab7
00000090: 42ca 06b9 a2e0 0338 7f46 1a38 78f6 afb7
000000a0: 67f7 e637 403e 8936 9c8d 3338 c36f 40b8
000000b0: 7ad3 6637 688c 9fb8 c823 0a38 0bad d9b8
000000c0: ae3e 00b9 f6b3 0db8 4988 7d38 d013 20b7
000000d0: 28b6 ba37 b598 86b8 fbdd ba37 bd57 a837
000000e0: 2a86 1db9 be13 13b8 d88c 11b9 9f31 1c38
000000f0: 20d7 8d38 6249 6737 a9a0 9238 dcff 61b8

exp_avg_sq f4 [64]
6.018928e-06 8.111887e-06 9.401675e-06 3.5795165e-05 5.346715e-06 5.2946884e-06 4.096367e-06 6.0252287e-06
2.2683496e-05 9.50302e-06 2.9403952e-06 7.2938387e-06 7.3574404e-07 5.4516463e-06 1.50643145e-05 9.856807e-06
3.2661035e-06 1.538876e-05 7.2431504e-07 9.773098e-06 2.8850396e-05 1.0111935e-05 0.00010258643 3.726123e-06
1.9875956e-06 3.0581192e-05 7.400118e-06 6.661181e-06 1.4819808e-05 8.167956e-06 5.685293e-06 1.7983199e-05
1.911862e-05 9.766017e-07 1.146548e-05 6.106527e-06 6.839989e-05 6.0040566e-06 7.413104e-06 9.135502e-06
1.8579709e-06 6.323527e-05 9.164959e-06 3.113416e-05 4.2639927e-06 1.8660621e-05 8.703381e-06 8.0705424e-05
0.00012189412 1.7881212e-05 2.2042852e-06 1.3486001e-05 6.665281e-06 7.6142123e-06 7.055149e-06 4.7919643e-06
3.349269e-05 2.7103211e-05 6.7167166e-05 2.5512677e-06 3.3758422e-06 4.8681063e-06 2.7317292e-06 8.774534e-06
00000000: 33f6 c936 4a18 0837 e3bb 1d37 c422 1638
00000010: ef67 b336 07a9 b136 8673 8936 522c ca36
00000020: 7048 be37 296f 1f37 9b53 4536 99bd f436
00000030: f27f 4535 49ed b636 bdbc 7c37 aa5e 2537
00000040: 3b2f 5b36 1c17 8137 8d6e 4235 23f7 2337
00000050: c103 f237 6ea6 2937 ac23 d738 4e0e 7a36
00000060: a262 0536 4e44 0038 884e f836 1c83 df36
00000070: 97a2 7837 1b09 0937 4cc4 be36 a0da 9637
00000080: ec60 a037 c713 8335 dd5b 4037 abe6 cc36
00000090: e971 8f38 7476 c936 14be f836 af44 1937
000000a0: 655f f935 2d9d 8438 33c3 1937 0d96 0238
000000b0: 6b13 8f36 6189 9c37 bd04 1237 6540 a938
000000c0: 68a1 ff38 9cff 9537 55ed 1336 ef41 6237
000000d0: 54a6 df36 967d ff36 45bb ec36 a9ca a036
000000e0: 817a 0c38 b45b e337 19dc 8c38 7236 2b36
000000f0: 878c 6236 b758 a336 c052 3736 5636 1337

exp_avg f4 [64, 64]
7.004916e-08 9.333842e-08 6.103995e-09 2.6477802e-09 8.684207e-08 8.385624e-08 7.5224705e-08 5.6889053e-09
4.533569e-08 5.355315e-09 8.707672e-08 7.939407e-08 1.2631781e-07 8.151191e-09 5.014064e-09 6.8421194e-08
8.0733265e-08 4.343554e-09 1.2582265e-07 6.97617e-08 6.672447e-08 6.7852845e-08 1.42171634e-08 6.9282637e-09
1.4888812e-08 3.9473704e-08 6.2754e-09 7.9754315e-08 4.6403885e-09 8.9771774e-08 7.325023e-08 3.8229766e-09
3.9295918e-09 1.2502502e-07 1.4758017e-08 7.160993e-09 2.080533e-09 6.566134e-08 6.2847135e-08 9.8815946e-08
7.070222e-08 2.8478222e-09 6.5275756e-08 1.9578565e-08 7.024507e-08 5.6558105e-09 8.084089e-08 4.1426462e-09
1.9673278e-08 8.1489695e-08 1.277881e-07 3.806276e-08 8.316592e-08 7.317306e-09 7.5144044e-08 8.44178e-08
2.6864213e-09 2.5641208e-08 2.469995e-08 6.0808084e-08 1.313029e-07 1.0639896e-07 1.2923533e-07 5.573133e-09
5.0589286e-08 6.2560204e-08 9.01772e-09 3.4404306e-09 5.950028e-08 5.8045053e-08 5.3561738e-08 8.080238e-09
2.1384093e-08 6.6398074e-09 5.9497207e-08 5.575079e-08 7.27609e-08 1.0623045e-08 6.032696e-09 4.9463324e-08
5.6419083e-08 5.460253e-09 7.3479214e-08 4.9753833e-08 3.2682664e-08 4.8381303e-08 1.736272e-08 7.901326e-09
1.3354886e-08 3.36937e-08 9.125504e-09 5.5896788e-08 5.960901e-09 4.6986358e-08 5.244516e-08 4.9965068e-09
5.042766e-09 7.146165e-08 1.7033914e-08 8.807328e-09 1.7225013e-09 4.4492676e-08 4.4918743e-08 5.5811714e-08
3.7835747e-08 2.3834374e-09 4.6696158e-08 1.0042983e-08 3.733261e-08 9.214068e-09 5.0782297e-08 3.0175338e-09
2.2048003e-08 4.1438405e-08 7.3532206e-08 1.8495053e-08 5.7621737e-08 8.20159e-09 5.344707e-08 5.8164773e-08
4.125645e-09 1.2632996e-08 2.636345e-08 3.429505e-08 7.748544e-08 6.822439e-08 7.528064e-08 6.774687e-09
2.3819798e-08 2.7660764e-08 2.6794775e-09 4.1569406e-09 2.6384797e-08 2.584608e-08 2.4019073e-08 3.1944958e-09
1.4962895e-08 6.7836177e-09 2.5814142e-08 2.5521889e-08 3.8815184e-08 3.323808e-09 7.1432815e-09 2.47062e-08
2.431798e-08 6.2749645e-09 3.753022e-08 2.6339816e-08 1.8768125e-08 2.606324e-08 6.844993e-09 5.849858e-09
1.16417995e-08 2.8728557e-09 2.7094371e-09 2.5028463e-08 6.0881518e-09 2.612094e-08 2.3790147e-08 5.9005734e-09
6.000444e-09 3.8199165e-08 4.8556936e-09 4.6173056e-09 1.261108e-09 2.5537133e-08 2.4975677e-08 3.2990602e-08
4.1789114e-08 2.3391131e-09 2.5372369e-08 7.3313453e-09 3.1354084e-08 2.5658666e-09 2.9289875e-08 3.1381404e-09
7.499664e-09 2.2645848e-08 3.9095685e-08 1.3837166e-08 2.5310008e-08 8.592725e-09 2.4305375e-08 2.547143e-08
5.0784643e-09 9.3979935e-09 2.8525582e-09 3.040338e-08 3.8826197e-08 3.1156517e-08 3.8850523e-08 5.9910445e-09
-8.700773e-06 -8.080559e-06 -1.1476383e-07 -5.2511405e-07 -8.63429e-06 -8.808418e-06 -8.343671e-06 -2.0008703e-07
-5.17481e-06 -9.667539e-07 -7.861793e-06 -9.397817e-06 -1.2734046e-05 -2.677455e-07 -1.2064723e-06 -9.859053e-06
-7.780386e-06 -8.933303e-07 -1.2402117e-05 -1.1232567e-05 -5.468879e-06 -1.11339305e-05 -6.2586295e-08 -9.085954e-07
-3.6188749e-06 -3.311183e-06 -1.2684288e-07 -8.657959e-06 -7.6705015e-07 -8.803418e-06 -8.3215955e-06 -7.276575e-07
-7.978744e-07 -1.2642631e-05 -5.9211044e-07 -5.242297e-07 -4.8388033e-06 -1.0528354e-05 -1.089706e-05 -1.0467229e-05
-8.913834e-06 -2.7439671e-06 -1.0876425e-05 -6.3273146e-06 -9.325266e-06 -5.327643e-08 -1.04058545e-05 -8.5721285e-06
-1.3842166e-06 -7.251074e-06 -1.2874079e-05 -5.9573867e-06 -8.271711e-06 -1.7105531e-06 -8.584169e-06 -8.106017e-06
-2.1172556e-07 -5.9883314e-06 -1.6560133e-06 -9.246027e-06 -1.293662e-05 -7.1814393e-06 -1.2862438e-05 -8.4196733e-07
00000000: ef6d 9633 5771 c833 4fbb d131 3ef4 3531
00000010: ef7d ba33 7514 b433 388b a133 2478 c331
00000020: 1eb7 4233 d901 b831 effe ba33 5a7f aa33
00000030: faa1 0734 5109 0c32 2c48 ac31 f3ee 9233
00000040: 955f ad33 4e3e 9531 de19 0734 e6cf 9533
00000050: 2a4a 8f33 7fb6 9133 bf3f 7432 a70d ee31
00000060: b0c9 7f32 cc89 2933 019f d731 6645 ab33
00000070: 4a71 9f31 8ec8 c033 bd4d 9d33 425b 8331
00000080: 0e05 8731 9e3e 0634 728a 7d32 c30c f631
00000090: 20f9 0e31 b401 8d33 94f6 8633 a434 d433
000000a0: f5d4 9733 6bb3 4331 ba2d 8c33 b82d a832
000000b0: a3d9 9633 0955 c231 c09a ad33 1a57 8e31
000000c0: fffd a832 6fff ae33 2036 0934 727a 2333
000000d0: f398 b233 b46b fb31 e05e a133 2d49 b533
000000e0: 069c 3831 9d41 dc32 c42b d432 9995 8233
000000f0: 44fc 0c34 727d e433 f0c3 0a34 cc7d bf31
00000100: 8247 5933 d658 8633 5aec 1a32 b26c 6c31
00000110: 408d 7f33 364d 7933 c10b 6633 43d1 0a32
00000120: 1eb0 b732 5d24 e431 df89 7f33 a472 6f33
00000130: ba40 9c33 a580 3632 2848 cf31 8071 5433
00000140: 7051 7233 e59c bb31 a0cb 9d33 ebb0 5533
00000150: f85e 0c33 cecb 4f33 0625 9532 66be 0732
00000160: 696f 6532 9db6 1033 64c6 1c32 2b13 7033
00000170: a4d0 cc31 0cce 4933 1040 6133 bdad ab31
00000180: a444 ad31 7576 9933 f951 9232 0a4f 1732
00000190: 20bd ec30 3718 3f33 aeec 4033 a1b5 6f33
000001a0: d880 2233 e0c9 2331 f88e 4833 8289 2c32
000001b0: a457 2033 e64b 1e32 ba1b 5a33 045d 4f31
000001c0: 1264 bd32 02fa 3133 c2e8 9d33 0ddf 9e32
000001d0: c57b 7733 f9e6 0c32 ad8d 6533 d8d0 7933
000001e0: 8fc1 8d31 8108 5932 d775 e232 ce4b 1333
000001f0: 1266 a633 c182 9233 f8a9 a133 c7c6 e831
00000200: 4a9c cc32 aa9a ed32 de21 3831 d6d4 8e31
00000210: c8a4 e232 2204 de32 8052 ce32 2a86 5b31
00000220: c187 8032 5515 e931 e6bd dd32 3a3b db32
00000230: bfb5 2633 0c69 6431 f870 f531 8239 d432
00000240: cee3 d032 2c9b d731 ea30 2133 de41 e232
00000250: 8b37 a132 ace1 df32 3231 eb31 e5ff c831
00000260: 2d01 4832 d06b 4531 ec30 3a31 2cfe d632
00000270: f32f d131 8e60 e032 165b cc32 febd ca31
00000280: 772c ce31 6d10 2433 22d7 a631 40a6 9e31
00000290: 4b53 ad30 c05c db32 188a d632 8db1 0d33
000002a0: 9e7b 3333 1dbe 2031 6ef2 d932 32e7 fb31
000002b0: 2eaa 0633 3453 3031 1e99 fb32 c0a6 5731
000002c0: dfd7 0032 bf86 c232 29ea 2733 80b8 6d32
000002d0: 4c69 d932 349f 1332 16c8 d032 44cc da32
000002e0: a57e ae31 d074 2132 bc06 4431 df94 0233
000002f0: dbc1 2633 f4d0 0533 9adc 2633 c9d9 cd31
00000300: 89f9 11b7 bd91 07b7 1574 f6b3 90f5 0cb5
00000310: fedb 10b7 dec7 13b7 cbfb 0bb7 81d7 56b4
00000320: 48a3 adb6 69c1 81b5 25e6 03b7 51ab 1db7
00000330: 50a4 55b7 a9be 8fb4 13ee a1b5 4f68 25b7
00000340: 8188 02b7 31cd 6fb5 b012 50b7 8273 3cb7
00000350: 5081 b7b6 decb 3ab7 2e67 86b3 33e6 73b5
00000360: ccdb 72b6 b135 5eb6 4e32 08b4 a741 11b7
00000370: 49e7 4db5 64b2 13b7 fb9c 0bb7 3e54 43b5
00000380: 832d 56b5 b01b 54b7 85f1 1eb5 cab8 0cb5
00000390: 015d a2b6 f0a2 30b7 84d2 36b7 689c 2fb7
000003a0: a08c 15b7 ff24 38b6 e479 36b7 384f d4b6
000003b0: b673 1cb7 0ed2 64b3 ce94 2eb7 03d1 0fb7
000003c0: 52c9 b9b5 404e f3b6 c0fd 57b7 90e5 c7b6
000003d0: bac6 0ab7 2896 e5b5 ba04 10b7 14ff 07b7
000003e0: ae56 63b4 60ef c8b6 2f44 deb5 621f 1bb7
000003f0: 5c0a 59b7 18f8 f0b6 c0cb 57b7 8e03 62b5
