model_checkpoints/relu/checkpoints/epoch=1999-step=2000.ckpt (torch, 166570 bytes, 27 tensors)

lin1.weight f4 [64, 2]
000000 8f d7 b9 3d b8 18 a6 3e 3d d7 ac bc 66 7c 12 bc
       0.09074318 0.32440734 -0.021098727 -0.008940792
000010 0b ee fd 3d 31 dd 44 3f be e8 2d bf 4c 46 43 3f
       0.12398919 0.7690001 -0.6793326 0.7627914
000020 59 20 39 be 4f 56 e6 be e0 d8 f5 bc 60 f9 2f 3e
       -0.18078746 -0.44987723 -0.03001064 0.17184973
000030 15 1d bd 3e cf 32 94 3e 9e 46 46 3e 96 7e 1d 3f
       0.3693625 0.28945014 0.19362876 0.6152128
000040 1a 0f c5 3d 21 3b 54 bf d0 2a 6b bd 5b 05 f9 bd
       0.09622021 -0.82902724 -0.057413876 -0.121592246
000050 4e 70 e9 be 3c 04 04 be b2 ca a9 be 84 b9 0a bf
       -0.45593494 -0.1289224 -0.33162457 -0.54189324
000060 00 d7 ac bb 58 f1 17 3e 98 7e 6b be c6 2b b1 3e
       -0.0052746534 0.14838159 -0.2299751 0.3460371
000070 d4 c3 72 3e 4c 78 d8 3e e5 1b 31 bf 92 c4 69 be
       0.23707515 0.4227928 -0.6918319 -0.22828892
000080 e7 20 3d be d5 d2 35 bf e0 9a 20 be d4 9e 44 3f
       -0.18469582 -0.7102483 -0.1568408 0.7680485
000090 29 49 2d bf 63 30 6f be f5 b0 0a 3f 15 4d 63 bf
       -0.6768976 -0.23358302 0.54176265 -0.8878949
0000a0 4c 1f 08 3f 8e b7 f6 be fb 7f bc bd f2 45 09 bf
       0.53172755 -0.48186916 -0.09204098 -0.53622353
0000b0 50 42 5a 3d 50 ee 24 be 52 44 f4 be fd 2e 54 3f
       0.053285897 -0.16106534 -0.47708374 0.828842
0000c0 b1 7a 1e 3d 15 0d 07 be 03 a1 3a 3d 8b ec 38 3d
       0.038691226 -0.13188584 0.04556371 0.04514746
0000d0 3c 15 77 be 7c c4 5b 3f 29 36 4b bf 29 86 fe 3e
       -0.24129194 0.85846686 -0.79379517 0.4971173
0000e0 13 a4 d3 3d e4 ff 07 bf 4b 83 72 3e 39 4d c1 3e
       0.10334029 -0.53124833 0.23682897 0.3775423
0000f0 4b 1f 9a be 2a e4 15 3f bf 7c dc 3e 1a d6 18 bf
       -0.30102 0.58551276 0.43063924 -0.59701693
000100 c6 5a c4 3e 7d ad 65 bf 7e 70 9e bb fb f9 26 bf
       0.38350505 -0.8971785 -0.0048351875 -0.6522519
000110 84 6d cd 3e 66 3a f5 be 15 54 7f 3e 9f 98 b8 3d
       0.40122616 -0.47896117 0.24934418 0.09013485
000120 40 82 37 3f 47 8b 01 3f 34 7f aa 3e b5 a3 30 3e
       0.7168312 0.50603145 0.33300173 0.1724995
000130 6a 2a d7 be 2d 02 3e bf 0e 4e 84 be bd a9 83 be
       -0.42024547 -0.7422207 -0.258408 -0.25715438
000140 00 ed 01 3d 1e 0f 73 be bc 2c 31 bf 81 7b aa 3e
       0.03172016 -0.23736235 -0.69208884 0.3329735
000150 8d 1f 29 3f 5f ed 10 bf 0f 91 f3 3d 91 e4 1b 3f
       0.6606377 -0.566122 0.11892902 0.6089564
000160 71 35 4b be 86 ee 5f 3f 2f c0 91 3e cf 98 43 3f
       -0.19844605 0.8747333 0.28466937 0.7640504
000170 8d 3e f6 3e 31 b8 44 bf d0 4c 61 bc 88 b2 e7 3e
       0.48094597 -0.76843554 -0.013751224 0.45253396
000180 97 9f f9 be 30 f1 e7 be f2 e6 2c bf d9 f9 af 3e
       -0.4875457 -0.453012 -0.67539895 0.34370306
000190 d1 bd 1d be a4 6c 10 bf 00 4a f6 be dd 01 a3 3d
       -0.1540444 -0.5641577 -0.48103333 0.0795934
0001a0 5b 02 77 3e 9e 3d 94 3e 9e da b2 3e a3 b6 a0 be
       0.24121992 0.2895326 0.34932417 -0.3138934
0001b0 59 1f 33 3d c7 72 96 be 24 ee 49 3e d3 b8 7c 3e
       0.043731067 -0.29384443 0.1971975 0.2467988
0001c0 3d 01 e6 3e bb f8 f6 3e 73 b3 19 3f 3a be af 3e
       0.4492282 0.4823664 0.6003944 0.3432482
0001d0 67 0b be 3e 54 8e 32 3f 0a ee a9 be b3 a1 e1 3e
       0.37118074 0.69748425 -0.33189422 0.4406868
0001e0 28 c3 5a 3f a6 b9 b3 3e 01 99 1d bf 54 e6 9d 3e
       0.85454035 0.35102576 -0.6156159 0.3083979
0001f0 c5 b6 2c 3f ca 30 00 3e c6 b3 74 3d 91 fc e3 bd
       0.67466384 0.12518612 0.059741758 -0.111321576

lin1.bias f4 [64]
000000 91 58 c2 3e 72 25 e9 3a e2 18 dc be 67 b2 48 bf
       0.37958196 0.0017787649 -0.42987734 -0.7839722
000010 d2 1e b0 3e df 23 e4 be ae 4a 19 3f b2 ff c4 be
       0.34398514 -0.44558617 0.5987958 -0.3847633
000020 2d 2f ec be 18 d3 b2 be f8 8e 8d bd ab f7 a6 be
       -0.46129742 -0.34926677 -0.06912035 -0.3261083
000030 cc 89 46 be ad 7e 24 bf 38 3f 93 be 09 a3 02 bf
       -0.19388503 -0.6425579 -0.2875917 -0.5103002
000040 8f 54 d8 be ee 6c c9 be d1 ab 0e bf 5e 46 32 bf
       -0.42252013 -0.3934092 -0.5573092 -0.6963862
000050 22 99 9f 3d ce 03 81 be be 54 00 bf 90 c2 2f bf
       0.0779288 -0.25198215 -0.50129306 -0.68656254
000060 30 b5 b0 3d 13 09 35 3e a4 e3 1d bf 34 b0 42 bf
       0.08628309 0.17679243 -0.6167548 -0.76050115
000070 fb 22 8d 3d 6f 77 a4 3e d4 ff cb be 4f 2d b5 be
       0.068914376 0.3212237 -0.3984362 -0.3538613
000080 b7 42 01 bd 22 c3 6d be b4 19 59 be 24 ff 33 be
       -0.031557765 -0.23218969 -0.21201211 -0.17577797
000090 a4 7e 26 be a8 58 a9 3e 76 0c 05 bf 8c bc 96 3e
       -0.16259247 0.33075452 -0.5197214 0.29440725
0000a0 02 dd 14 bf b0 a2 a2 39 90 45 20 bf e9 79 ec 3d
       -0.5814973 0.0003102026 -0.62606144 0.1154669
0000b0 7a c6 0b bf 04 47 8b bd da 70 24 be e9 26 7d be
       -0.54599726 -0.068006545 -0.16058674 -0.24721874
0000c0 07 6f ee be 23 8f 14 bf 95 fe 94 be f6 97 45 be
       -0.46569082 -0.5803091 -0.2910048 -0.1929625
0000d0 d4 73 08 3f 5f cf 0a be e9 e4 5d 3e 75 d8 eb 3e
       0.5330174 -0.13555668 0.21669354 0.4606358
0000e0 85 7d ec be 38 af 36 3c 2a de 06 bf 2d 80 ae be
       -0.46189514 0.011150174 -0.52682745 -0.34082165
0000f0 1e ae 38 bf 66 97 e5 be 00 08 e2 be 7d 3c e8 3d
       -0.7214068 -0.4484207 -0.4414673 0.11339662

lin2.weight f4 [64, 64]
000000 14 32 20 be c0 a5 92 3d 80 30 4f 3e a2 59 c5 3e
       -0.15644103 0.071605206 0.20233345 0.38544947
000010 68 90 c5 bd 00 37 b8 bc 96 b5 11 be 2c d4 5e bc
       -0.09646684 -0.022487164 -0.14229426 -0.01360039
000020 1f e3 6a bd 22 31 ed bd 78 85 89 bd 2a e6 f3 bd
       -0.057345506 -0.11581637 -0.0671491 -0.11909135
000030 2a 6a dc bd 8e de f3 3d 22 26 93 bc d8 7c 34 3d
       -0.10762437 0.11907683 -0.01796252 0.044064373
000040 46 41 d1 3d 37 f8 83 3d 5c 75 7f 3d 59 16 48 3e
       0.10217528 0.064438276 0.062367782 0.19539775
000050 76 d7 1f bc 81 b3 58 3d 76 e8 b2 3d 77 c5 fe 3e
       -0.00975596 0.052905563 0.08735745 0.4976003
000060 a3 fe f6 bd b8 d6 38 bd a5 ae 42 3e 01 22 de 3e
       -0.12060287 -0.045126647 0.19011934 0.43385318
000070 1d d8 dd bc ed 02 09 be 39 c7 69 3d 87 91 19 bd
       -0.02708059 -0.13380022 0.05707476 -0.0374923
000080 5b 84 ab 3d 4e 97 e2 3c 07 b1 e1 bd 5a b3 14 bd
       0.08374854 0.027660038 -0.110200934 -0.036303855
000090 92 97 f0 3c 60 3a 45 bd 39 07 5e bd e5 93 75 bc
       0.02936915 -0.048151374 -0.054206107 -0.014988874
0000a0 2a 91 9f bd 71 60 a9 3c c0 d7 6a 3d d4 cf 8c 3d
       -0.0779136 0.02067587 0.05733466 0.068755776
0000b0 c3 60 63 3e a8 cf 35 3d ca ff ef bd a4 73 95 bc
       0.2220488 0.04438749 -0.1171871 -0.018243618
0000c0 62 aa 82 bc 51 c0 bf 3e 71 db 0f bc 74 67 02 3d
       -0.015950385 0.37451413 -0.008780346 0.03183694
0000d0 7d c8 29 3d bf c8 b9 bc d7 40 0b 3b d5 22 23 bd
       0.041450966 -0.022678731 0.0021248364 -0.03982814
0000e0 dc 01 c5 3e de db a0 3c c0 67 6a 3e 7d 02 00 bd
       0.3847798 0.01963609 0.2289114 -0.031252373
0000f0 74 cd b1 3e 70 a0 e4 3c 70 c9 bf bb 2d 54 aa bd
       0.3472706 0.027908534 -0.0058528706 -0.083168365
000100 dd e5 2e bd cf d9 aa bc 78 54 13 be 3d 88 f7 bd
       -0.042699683 -0.020855812 -0.14387691 -0.12086532
000110 30 93 37 3c 72 66 a9 bd 3e c3 af bc b9 c9 1e bd
       0.011204526 -0.08271493 -0.021455403 -0.038766596
000120 93 01 81 bc c8 d5 1d bd 1a 40 69 bd 84 50 ff ba
       -0.015747821 -0.038533956 -0.056945898 -0.0019478952
000130 72 96 c8 3d 6c 64 42 bd c3 3a 53 ba 85 54 2b bc
       0.0979432 -0.04745905 -0.00080577674 -0.010457163
000140 48 6b 4b bc 44 6a f3 bc 2a 54 06 3d a5 c9 35 be
       -0.012415715 -0.029713757 0.03279511 -0.17752703
000150 6c 81 80 bd 18 55 67 bd 4e 84 b0 3d d5 ba a4 bd
       -0.06274685 -0.056477636 0.08618985 -0.08043448
000160 93 d2 a0 bd 9b 7a 6b bd 43 c9 c8 bb 42 27 0e 3d
       -0.07852664 -0.057489973 -0.006127508 0.034705408
000170 05 68 21 be 91 75 60 bd 95 85 0b bc f1 b7 29 bd
       -0.15762337 -0.05479962 -0.008515735 -0.041435186
000180 5b bd 88 bc 49 df 29 3c 10 8e e0 bd c6 6b 84 3b
       -0.016691854 0.010368177 -0.10964596 0.004041168
000190 de 33 d3 bd 57 e6 25 be 4a 54 1e be 43 c0 3e be
       -0.10312627 -0.16201149 -0.15461841 -0.1862803
0001a0 70 b5 ad 3c 98 bc 18 be c3 ba 33 be 6d 89 51 bd
       0.02120468 -0.14915693 -0.17551713 -0.05115645
0001b0 f0 f9 65 3d 2a 28 cb bd d6 d5 fc bd e8 25 af 3c
       0.056146562 -0.0991977 -0.123454735 0.02138038
0001c0 33 2f 7f bc 52 89 ae bb b6 73 a6 bd 30 0f 10 be
       -0.015575218 -0.0053264285 -0.08127539 -0.14068294
0001d0 28 25 ae bc a8 ba 12 be 45 09 19 bd 4e 86 ca bb
       -0.021257952 -0.14329016 -0.037362356 -0.006180561
0001e0 8e 45 52 3d 63 8c 33 be 71 11 01 be 72 02 ab bd
       0.051335864 -0.17534022 -0.1260431 -0.08350076
0001f0 d8 94 b0 bd 3d 9c 16 be dd 3d f8 bd e3 5e a9 bd
       -0.0862214 -0.14708038 -0.121211745 -0.08270051
000200 cd 4b 73 bd 6c 5c e9 bd f9 ad 59 3f 47 e5 16 3f
       -0.05939846 -0.11394581 0.85031086 0.589436
000210 4a 69 93 be f8 0f f7 3c 4a e3 63 3c a5 83 61 3f
       -0.28791267 0.030158982 0.01390917 0.880915
000220 e0 59 a4 3d 56 2f e0 3d fe 2a d2 3d 8f 3d 30 bc
       0.08024955 0.109465286 0.10262106 -0.010756864
000230 2e a8 9c 3d 14 ed c6 3d 72 63 7d 3f 13 81 b7 bc
       0.07649265 0.09713188 0.98979867 -0.022400415
000240 91 33 b6 3d aa 57 5b 3f 10 44 a4 3d bd 54 90 be
       0.08896554 0.8568064 0.080207944 -0.2818965
000250 14 d9 7f bd 83 eb 89 3c 82 bb 86 bd a5 f5 5f 3f
       -0.06246288 0.016835934 -0.06578733 0.874842
000260 cf be f1 bd 70 1d 96 3b 02 6f 6f be b9 da 07 3e
       -0.11803972 0.004581146 -0.2338219 0.1326703
000270 24 2e bb bd 3d cd f2 3c a1 6d 89 3e 67 89 a1 3f
       -0.0913966 0.02963888 0.26841453 1.2620057
000280 c1 cf 13 be 1d 7d d3 bd 12 f7 03 3f c1 25 3a 3f
       -0.1443472 -0.10326598 0.51548874 0.7271386
000290 2e 3e 58 bd e1 63 3e 3c 18 68 6e 3e 85 8b 8f be
       -0.052793674 0.011620493 0.23281896 -0.28036132
0002a0 00 25 4d 3d 67 9f 81 3e 4c 0e a7 bf 6d c5 01 3e
       0.050084114 0.25316927 -1.3051238 0.12672968
0002b0 21 87 09 3f bf 04 2a bd 51 be e3 3e 84 d8 1d 3f
       0.53721815 -0.041508432 0.44481137 0.616585
0002c0 56 42 0b 3c 3d 98 a1 3e 1e b6 f8 3d c5 b5 0c 3e
       0.008499702 0.3156146 0.12144111 0.13741215
0002d0 6f f0 cf bd 13 d1 9c 3e a0 a5 65 be 60 3e bf bc
       -0.10153281 0.3062826 -0.22426462 -0.023345172
0002e0 79 85 c4 3f be b2 94 3d 83 3c c7 3f e6 39 68 3d
       1.5353233 0.07260655 1.5565342 0.05669584
0002f0 89 0f b2 3f 27 85 9d 3e ff e1 30 3f 0d cf 04 bc
       1.3910991 0.3076565 0.6909484 -0.008106005
000300 7a 81 47 3d 55 ab e8 bd 79 56 8a 3e 1b 60 d9 3e
       0.048707463 -0.11360804 0.27019098 0.42456135
000310 68 5b 44 ba 30 c0 37 3d 55 4c 07 bd 3c f8 41 3e
       -0.0007490427 0.04486102 -0.03303178 0.1894235
000320 a8 dc 9d 3e fe a9 c2 bd ff 3c 60 3c 58 5a be bd
       0.3083241 -0.0950508 0.013686418 -0.092945755
000330 cc 3f a9 bd 16 33 e1 bd b2 be 91 3e a6 4f dd 3d
       -0.082641214 -0.10996072 0.284658 0.10806207
000340 ae db 08 3e 26 cb 5e 3e 36 ce 35 3e e8 0a e5 3e
       0.13365051 0.21757182 0.17754444 0.44734883
000350 c3 30 f7 bd fc fa 30 3e 18 88 17 3d 06 4f c2 3e
       -0.120698474 0.17283243 0.036995023 0.37950915
000360 a8 06 d4 bd b3 51 df 3c 9e 12 d6 3e 55 15 d7 3e
       -0.10352832 0.027260637 0.4181108 0.42008463
000370 6a cd 98 bd 51 0f 86 bd 64 ab e6 3d ca 38 3f ba
       -0.074610546 -0.0654589 0.11263159 -0.0007294534
000380 be 1f 52 3d d5 7b 3e 3c de b4 ed 3b 0c 34 ae 3c
       0.051299803 0.011626204 0.007254227 0.021265052
000390 d6 8f c5 bd e4 ff 9a 3d db 7a 7f 3e c1 3c c8 bc
       -0.09646575 0.075683385 0.2494921 -0.024443032
0003a0 12 20 e2 bd 33 53 52 be 6f 99 6e 3e 77 43 b9 bd
       -0.11041273 -0.2053955 0.23300718 -0.09046071
0003b0 76 58 2f 3e 03 46 4e 3d a8 3d 02 be cd 54 96 bc
       0.17123589 0.050359737 -0.12718832 -0.018350983
0003c0 e0 15 f0 bd c9 68 e9 3e 12 e8 92 bd a7 23 84 bd
       -0.11722922 0.45587757 -0.0717317 -0.06452113
0003d0 cd 96 ee bc 5f 60 ac bd ee 5b 0d bd 83 3d 93 bd
       -0.029124642 -0.08416819 -0.0345115 -0.07189467
0003e0 ed 1c e0 3e e8 14 84 3d 2b 3f c7 3e 7d 61 fe 3c
       0.4377207 0.064493 0.3891538 0.031052345
0003f0 48 4e b8 3e f0 1b d9 3b 12 8e 35 3d 04 39 6e 3d
       0.35997224 0.006625645 0.044324942 0.058159843

lin2.bias f4 [64]
000000 0a 71 e0 bd 72 c4 5a 3d ff 71 3d be 04 35 d0 ba
       -0.109590605 0.05341 -0.18500517 -0.001588494
000010 b2 3c 0f bd 5e a3 fd 3d 07 bc bf 3b c8 d1 6c 3d
       -0.034969993 0.123846754 0.005851272 0.05781725
000020 5b 7a 2e 3e d8 36 86 3b 48 79 06 3c 98 b2 f3 bc
       0.17038862 0.0040958934 0.008207627 -0.029748246
000030 b5 3b ac 3d bf 4a a7 bd 10 4e 45 3c 6a d3 8c bd
       0.08409826 -0.081685536 0.012042537 -0.068762615
000040 0d d8 26 be 55 d8 1f 3c e5 c7 79 bc 75 ae 8e be
       -0.16293354 0.009756167 -0.0152454125 -0.27867475
000050 c0 b0 ef bd f8 b4 19 3e 72 f6 8c ba d7 9a e5 3c
       -0.11703634 0.1501044 -0.0010754599 0.028027935
000060 ca b2 02 be 59 a9 c5 bd 09 a7 a1 3d 57 50 20 3d
       -0.12763515 -0.09651441 0.078931876 0.039139118
000070 e3 e7 27 bd 20 54 97 bd 6c 34 e8 3d e4 5c 5f bc
       -0.04099263 -0.073890924 0.11338124 -0.013632987
000080 3a af 85 bd b0 9c 07 be 2e 1e a9 bd fd 2d 83 bd
       -0.065275624 -0.13243365 -0.082577094 -0.06405256
000090 98 0b 50 bd f6 df dd bb 12 0f 9f 3d 7a 35 5d 3d
       -0.050792307 -0.006771083 0.07766546 0.054006077
0000a0 5e 2f 73 bc 7b 4a ba 3d 7a 24 88 bd 7e 60 2a be
       -0.014842836 0.09096237 -0.06647582 -0.16638371
0000b0 84 ad 55 bd 31 dd 2b 3b 17 5b 9b bc 44 94 fc bd
       -0.05216743 0.002622437 -0.018964333 -0.12332967
0000c0 5a 0f 39 3e ca 25 d0 bd fa 33 2a bd 6d 06 8c bd
       0.18072262 -0.10163458 -0.041553475 -0.06837163
0000d0 a6 74 1b be ca ca c9 bc de 5e dd bd 96 ca 33 bd
       -0.15181217 -0.02463283 -0.1080911 -0.043894373
0000e0 3a 89 6a 3b 58 81 6d bc 2d bd a6 bd fb 52 c8 bd
       0.003578736 -0.01449617 -0.08141551 -0.09781452
0000f0 6c 50 cb bd bb c1 1a be e8 43 32 3d dd bc ce bc
       -0.09927449 -0.15112965 0.04352179 -0.025236541

lin3.weight f4 [64, 64]
000000 5c b4 0a 3d aa c3 0f 3d b1 40 14 3c ee ee bb bd
       0.03386341 0.03509871 0.009048627 -0.091764316
000010 85 bf 48 3d 19 ee c9 bd 44 1f 62 3d d4 7b 9a bd
       0.049010772 -0.09859867 0.0552056 -0.075431496
000020 42 4d 1a be b2 18 bc 3d ae b9 19 be e4 87 51 bd
       -0.15068534 0.09184398 -0.15012237 -0.051154986
000030 4e 37 01 be e4 f5 02 bd e8 27 e9 3d 30 7f d2 3c
       -0.12618753 -0.03197278 0.11384565 0.025695413
000040 50 39 d4 bd 7d a1 5f 3d af c8 1b be 92 1f e7 3c
       -0.10362494 0.054597367 -0.15213273 0.028213296
000050 fd d2 93 3c 40 9d ae bd 52 da 21 be b4 d0 c8 3d
       0.018044943 -0.08526087 -0.15805939 0.09805432
000060 54 e7 1e 3d f9 d0 ce bc 0a 6a 2d 3d f8 55 db bd
       0.03879483 -0.02524613 0.042337455 -0.107097566
000070 c8 3a 70 3d 70 f1 2d bc d0 6c bd bd 33 ca 82 bd
       0.05864981 -0.010616645 -0.0924927 -0.06386223
000080 e6 b2 df bd a8 31 be bc 10 43 c2 bd fe b6 37 bd
       -0.10922794 -0.023217037 -0.094854474 -0.04485225
000090 90 49 fe bc 5a 9d b1 bb 6d 4f 0c be 6c 55 a8 3c
       -0.031040937 -0.005420369 -0.13702174 0.020548545
0000a0 5c e0 19 be 48 e0 95 3c fb 35 1a bd 2d 51 df bd
       -0.15026993 0.018295422 -0.037649136 -0.10904155
0000b0 eb 72 e1 bd a8 da 14 be 1f b7 b7 bd 67 c7 eb bc
       -0.11008247 -0.14536536 -0.089704745 -0.028781606
0000c0 15 6f 21 bc 20 76 81 bc 80 d0 28 bb fe 44 24 3c
       -0.009853144 -0.015803397 -0.0025759041 0.010026215
0000d0 bd 52 ba bd 6d af db bd 92 aa ec 3d cc c9 84 3d
       -0.09097812 -0.10726819 0.11555971 0.06483802
0000e0 26 ee 31 be 9b d9 b8 bd 51 8f 20 be 05 71 58 bc
       -0.17376003 -0.0902588 -0.15679671 -0.01321054
0000f0 00 f1 89 3b 59 60 be 3c 00 9f 3c be 40 d8 83 3c
       0.0042096376 0.023239302 -0.18420029 0.016094327
000100 46 2a 88 3d 38 6b 03 bd 6a 9d e2 3d 90 37 59 3d
       0.06648688 -0.032084674 0.110651806 0.053031504
000110 c4 00 dd bd c0 9a 7a 3c 38 65 4e 3d e4 2a ca 3d
       -0.10791162 0.015295684 0.0503895 0.09871462
000120 30 01 42 bc c8 2e 80 3c d0 1f ee bd 18 55 5e bd
       -0.011841103 0.015647307 -0.116271615 -0.05428037
000130 d8 d6 97 3c 64 7f 39 bd 08 d3 bb bd 50 60 04 3d
       0.018535063 -0.045287505 -0.091711104 0.032318413
000140 d2 3a 8d bd ba 6b ea bd 96 3b de 3d 48 bf a8 3d
       -0.06895985 -0.114463285 0.10851209 0.08239609
000150 3a 94 ac 3d 60 b6 63 3c d0 0e 37 3c e0 cd ff bb
       0.084267095 0.013898462 0.011172965 -0.0078065246
000160 a8 0f b3 bc 7a c4 8a 3d d8 5a a9 bc e8 1e c5 3c
       -0.021858051 0.06775756 -0.0206732 0.024062589
000170 28 37 fc bc a8 81 cc 3d 3e 32 c7 bd e4 0f 92 3d
       -0.03078802 0.099856675 -0.0972638 0.07131937
000180 da 51 cc bd 3e 95 b9 bd 80 cf 07 bc 00 54 5c 3d
       -0.099765494 -0.09061669 -0.008289218 0.053791046
000190 c0 2f e4 3c fc c8 72 3d c4 b6 a0 3d b8 80 9f bc
       0.0278548 0.059273705 0.0784736 -0.019470558
0001a0 fc 3a 1e 3d f4 ee 09 3d 00 6f e0 3a 32 fb aa bd
       0.03863047 0.03367515 0.0017122924 -0.08348693
0001b0 9c bc 65 bd 40 b3 3f 3b 66 65 de bd 80 df c4 3d
       -0.056088075 0.0029251128 -0.10859184 0.09612942
0001c0 d2 00 fb bd 64 f3 27 bd fc 93 6e bd 4a d9 c5 3d
       -0.12256016 -0.0410036 -0.058246598 0.09660585
0001d0 9c eb 08 bd 12 94 9e 3d 44 39 31 3d 40 40 66 bd
       -0.03342782 0.07743086 0.043267503 -0.056213617
0001e0 00 18 69 3c 58 2b 9d 3d 26 e2 e9 bd 78 32 ca bd
       0.014226913 0.07674283 -0.114200875 -0.098729074
0001f0 20 a7 be 3b 68 de d7 bd 00 d8 f5 3b 58 4c 88 bd
       0.0058182627 -0.105404675 0.007502556 -0.066551864
000200 46 07 b3 3d ca 25 df 3d 54 06 2b 3d d8 94 1f 3d
       0.08741622 0.108958796 0.04175408 0.038960308
000210 1c 52 be bd f4 0c 4f bd d6 b2 a8 bd 88 d6 aa 3d
       -0.09293005 -0.050549462 -0.08237235 0.083417
000220 12 43 f6 bd a0 48 7e bd d8 20 76 3d 06 7d d6 3d
       -0.120245114 -0.06208098 0.060089916 0.10473065
000230 b4 af c7 bd d8 bb 42 bd 36 5f 82 bd 08 28 66 bd
       -0.097503096 -0.047542423 -0.06365816 -0.05619052
000240 58 c4 af bd 8c 3a 96 bd 1c 0f a8 bd 50 64 ec 3c
       -0.085823715 -0.07335386 -0.08206007 0.028856426
000250 18 81 75 3d a0 84 11 bd e8 57 94 bc 28 07 43 bd
       0.059937567 -0.03552687 -0.018108323 -0.047614247
000260 24 cf 82 bd d0 5c dc bc 0c 96 9b 3d 60 bb eb 3b
       -0.06387165 -0.026899725 0.075969785 0.0071939677
000270 9e 98 fb 3d 4e e6 b8 bd b0 0b 6b bc 70 8a 28 3d
       0.12284969 -0.09028302 -0.014346048 0.04114765
000280 b8 4a 18 bd f6 e2 ee 3d 9c 41 68 bd d4 d4 ed 3d
       -0.037180632 0.11664383 -0.056703195 0.11612859
000290 d4 09 7c 3d 4e a0 ce bd 40 e0 bf bc 3c 70 81 bd
       0.06153281 -0.100891694 -0.02342236 -0.06320235
0002a0 c0 78 df bc f0 28 47 bc 00 46 3f bc e8 a8 d0 bc
       -0.027279258 -0.012155756 -0.011674404 -0.025471166
0002b0 be 89 a9 3d 92 e1 84 bd b0 e2 ba 3d 90 f0 17 3d
       0.08278225 -0.064883366 0.091252685 0.037094653
0002c0 50 3f 25 3c 04 7e c9 bd ea df c9 3d 18 3e 96 bd
       0.010085896 -0.09838489 0.09857161 -0.07336062
0002d0 e0 0e 27 3c 10 70 8f 3c 58 48 8c bc 30 b6 c2 bd
       0.010196418 0.01750949 -0.01712434 -0.09507406
0002e0 00 83 ac 3c e0 58 66 bc 40 44 f6 3d 64 e8 df 3d
       0.02105856 -0.014059275 0.120247364 0.10932997
0002f0 42 a4 e2 bd 3a 3d d6 3d a4 21 39 3d f4 09 82 bd
       -0.11066486 0.10460897 0.045198098 -0.06349555
000300 74 a7 fc 3d 7c 93 05 bd c0 26 70 bc 22 7e bd bd
       0.12336627 -0.032611355 -0.014657676 -0.092525735
000310 40 4c 32 bc e8 6c e1 bc f0 72 c4 bc 24 71 32 bd
       -0.010882437 -0.02751775 -0.023980588 -0.04356493
000320 30 5a 54 bd 84 bb 10 3d 78 e8 a2 bd f0 39 08 bc
       -0.051843822 0.03533508 -0.07954496 -0.008314595
000330 98 27 9d bc cc 9d 65 3d 2c df 72 3d 64 60 04 3d
       -0.019183919 0.05605869 0.059294865 0.032318488
000340 70 5e c8 bd 40 40 1d bd 78 b7 b3 3c 60 0e 05 bd
       -0.097836375 -0.03839135 0.02193807 -0.032484412
000350 5a 48 be bd 24 16 c3 bd b8 bc 99 bc 44 7c 49 bd
       -0.09291144 -0.09525707 -0.018766746 -0.049190775
000360 3c 91 1e bd 20 a1 4f bc c6 65 f8 3d 0a 3c d8 bd
       -0.038712725 -0.012672693 0.12128787 -0.105583265
000370 0e 12 ba 3d 6c 41 9c 3d 02 35 cc 3d 5e 17 ce bd
       0.09085475 0.07629666 0.09971048 -0.10063051
000380 ac b6 78 bd 06 35 ce 3d 56 22 ae bd e8 4d e4 3c
       -0.060721084 0.10068707 -0.08502643 0.02786918
000390 ae db 99 3d f4 f2 e1 3d fe f5 8f bd cc 80 3d bd
       0.07512604 0.11032668 -0.07029341 -0.04626541
0003a0 64 37 1a bd 8e ec b2 bd fe dc cc bd d4 d2 e3 bd
       -0.03765048 -0.087365255 -0.100030884 -0.11124197
0003b0 1a 88 91 bd 72 f6 df bd 22 5f 9b bd ee dc 90 3d
       -0.071060374 -0.109356776 -0.075865045 0.07073389
0003c0 c8 32 df bc f0 27 f0 3d 10 89 4e bd 5a cb e8 3d
       -0.027245894 0.117263675 -0.05042368 0.11366911
0003d0 70 74 8a 3d a4 ce 29 3d d2 22 ed 3d 8a 6a 8c bd
       0.0676049 0.041456833 0.11578907 -0.06856258
0003e0 c2 37 f6 3d 40 f5 22 bb 6e 82 fa 3d 80 c0 cd ba
       0.12022354 -0.0024865419 0.12231909 -0.0015697628
0003f0 60 65 68 3d c0 3c f6 bc e0 73 aa 3b 6c a7 71 3d
       0.056737304 -0.030058265 0.0052018017 0.058997557

lin3.bias f4 [64]
000000 c5 6a c3 bd 10 39 a5 bd 2c 67 2b bd a4 62 9f bd
       -0.09541849 -0.080675244 -0.04184644 -0.07782486
000010 04 f4 02 bd 93 8e 38 3d 0e 3d c7 3d ee eb 10 3e
       -0.031970993 0.045057844 0.09728442 0.141525
000020 9b 52 c6 bd a5 fe 07 be ac 92 3e be 43 c5 39 bd
       -0.096837245 -0.13280733 -0.18610638 -0.04535414
000030 80 e3 92 bb a5 57 a1 3d 05 9b 89 bc 79 92 66 bd
       -0.0044826865 0.07878045 -0.016797552 -0.05629203
000040 6e b4 b1 3e 5e 7e 8b 3d c4 e9 23 bc 9e 03 4c 3e
       0.3470797 0.06811212 -0.010004465 0.19923255
000050 35 57 e0 bd 89 c0 ad bd e6 28 b6 bd 8e e8 41 be
       -0.109541334 -0.08483989 -0.088945195 -0.18936369
000060 4f fb 17 bd a8 6a ea 3c e1 cf 1a be 7b 5c b3 bd
       -0.0371049 0.02861531 -0.15118362 -0.087578736
000070 b1 38 2f bd 22 2b 26 3e ba 65 80 bd 8d 3e 0f be
       -0.042778675 0.16227391 -0.06269403 -0.13988705
000080 97 a9 8e 3d 9d bb 49 bd dd 43 e5 bc 7e e2 3c 3e
       0.069659404 -0.049251188 -0.027986461 0.18445775
000090 2b dd 03 be 66 c2 90 bc cc 7b a3 bd e2 29 45 3e
       -0.12877338 -0.017670821 -0.07982597 0.19254258
0000a0 e3 e3 22 ba f0 0a f1 bd 65 6f d6 bd 3d 9a 1d 3d
       -0.00062137673 -0.11769664 -0.104704656 0.03847717
0000b0 5b 27 33 3d 01 fe 1f 3c eb 82 87 bd 28 36 ab 3d
       0.043738704 0.009765149 -0.066167675 0.08359939
0000c0 ce cd c8 bd 8f 5c ab bd 0c 44 c0 bd fe 44 3f 3e
       -0.09804879 -0.083672635 -0.09387979 0.18678662
0000d0 14 fb bd bd d6 8d 4c bd 18 9a 26 bd 75 c4 35 3c
       -0.09276405 -0.049939953 -0.0406743 0.011094202
0000e0 e8 7a b7 3c 2d 88 2d bc fe c7 bf 3b 81 72 e2 3d
       0.022397473 -0.010591549 0.0058526983 0.11056996
0000f0 b9 eb 2e 3d 03 78 d0 bd c7 c0 81 3d 93 ed 82 3c
       0.04270527 -0.101791404 0.063355975 0.015982425

lin4.weight f4 [64, 64]
000000 83 42 ce 3d f6 d3 cf bd 30 01 c0 3c 4c a9 74 3d
       0.1007128 -0.1014785 0.023438066 0.059731767
000010 e8 86 18 3e 40 dc 80 3e 6d 3d 9e bf dc 1e 15 3e
       0.14895213 0.25168037 -1.2362496 0.14562553
000020 93 eb 60 bc e8 0d a0 bd df 08 e6 3c e9 c6 21 3e
       -0.01372804 -0.078151524 0.028080402 0.15798534
000030 2f e6 64 3d be 11 fb 3d 26 dc e6 3d 17 9b 30 bb
       0.055883583 0.122592434 0.11272459 -0.002694791
000040 ab 36 fc be 83 18 70 bd 73 e7 6e 3d a5 79 1a 3e
       -0.49260458 -0.058617126 0.058326196 0.15085466
000050 59 09 e7 bd 7f 11 be 3d 00 e4 d7 bd 84 c5 1d be
       -0.1128108 0.09280681 -0.105415344 -0.15407377
000060 2d 99 07 3d a1 17 86 3e 90 e5 39 3d 9b 63 3d 3d
       0.033105064 0.26189902 0.045384943 0.04623757
000070 b8 2e d7 3d 8a 52 87 3e a2 4d 88 3d 1c fe 29 bc
       0.10506958 0.2643016 0.06655432 -0.010375526
000080 69 80 21 3f cd 66 0d 3e cb e6 46 3c 1a 24 b3 3e
       0.63086563 0.13808747 0.012139986 0.3498848
000090 de 00 f0 3c 34 f5 5d bd 33 fa 23 3e c2 85 a4 3e
       0.029297289 -0.054188922 0.16013412 0.321333
0000a0 a5 84 92 3c c8 91 53 bd 3a 56 c7 3d f9 5f 87 3e
       0.017885515 -0.0516527 0.09733243 0.2644041
0000b0 6a 9f 1d 3e fe 95 d7 3d 14 79 3a 3d 7e 6c 24 3e
       0.15392843 0.105266556 0.045525625 0.16057011
0000c0 fb 1b 1f bd db b0 a3 3e 31 fd 9f 3d c7 89 9d 3e
       -0.038845044 0.31970868 0.07811964 0.30769178
0000d0 ec 88 34 bc a9 d0 29 3e 06 b4 47 3d dd 42 45 3e
       -0.011018973 0.16583504 0.048755668 0.19263788
0000e0 af a0 dc 3b c9 2e 15 3e ea 3b 43 3d 38 6d 22 3d
       0.006733022 0.14568628 0.04766456 0.03965494
0000f0 4f 7e ab 3c 05 27 cd 3d f5 c5 c0 3e 27 b7 47 3e
       0.020934252 0.10017208 0.3765103 0.19503461
000100 3a 07 de 3a 1e 72 e2 bd d0 e8 a8 3d b4 9b d4 bd
       0.001693941 -0.110569224 0.082475305 -0.103812605
000110 b5 b5 0d bd b3 4c 12 be 08 2e 32 bd 7a bd 9a 3b
       -0.034597117 -0.14287071 -0.04350093 0.0047222944
000120 cb ce 96 bd 06 86 e8 bd 52 4a 8c bd 29 8a c9 3c
       -0.073636614 -0.11353688 -0.06850113 0.024602013
000130 9e 61 ab 3c b7 2c 21 be 42 76 86 bc 35 be bd bd
       0.020920571 -0.15739714 -0.016413812 -0.09264795
000140 9c c8 9e bd 3e 4e 8e ba 58 f7 b4 bc 5e 29 22 be
       -0.07753107 -0.0010857058 -0.022090599 -0.15836093
000150 8c 59 54 be 83 ae 11 be 3c 9f 29 3d 00 bb 85 3b
       -0.20737284 -0.14226727 0.041411623 0.00408113
000160 a8 4d df bc 40 50 c7 3d c2 64 b8 bd 16 25 93 bd
       -0.02725871 0.09732103 -0.09003593 -0.07184808
000170 07 37 85 3b d4 e9 fb bd d0 07 8e 3c 23 8b b6 bd
       0.0040653977 -0.123004586 0.01733771 -0.08913257
000180 8c aa ad bd 6d 53 08 b9 96 58 fc bc 8d 02 1b be
       -0.08479795 -0.00013001049 -0.03080396 -0.15137692
000190 c8 04 e9 bd c5 d7 28 be 15 0e 35 3c 06 ea 24 bd
       -0.11377865 -0.1648856 0.011050721 -0.040262245
0001a0 e9 48 32 bd a8 12 03 bd d8 d2 9f b9 54 97 8b 3c
       -0.043526564 -0.032000214 -0.00030483934 0.017039932
0001b0 45 33 db bd 1d 44 09 be e4 4b fa bc e5 e3 19 3b
       -0.10703138 -0.1340489 -0.030553766 0.0023481783
0001c0 b0 bc 21 bc d1 8a 24 be c8 bb d2 bd 65 50 f9 bd
       -0.009871647 -0.1606858 -0.10289723 -0.12173537
0001d0 48 56 94 bd a9 d8 57 be 20 93 3b be 75 45 2c be
       -0.07243019 -0.21078743 -0.18317842 -0.16823371
0001e0 04 e5 ac 3c 0c d2 21 be 93 3b 3b bd dc f2 24 3c
       0.021105297 -0.15802783 -0.04571111 0.010067668
0001f0 7c bf cc bd d1 2d d9 3c 52 94 3e bd 9c 36 47 bd
       -0.0999746 0.026511105 -0.046528168 -0.048636064
000200 ea c6 6d 3d 96 7d bf bd 50 cc 4d 3c dc 42 fd 3d
       0.058051027 -0.093501255 0.012560919 0.12366268
000210 06 bd 20 be 6b a1 4b be 18 22 70 bd a9 e3 ff bc
       -0.15697107 -0.19885795 -0.058626264 -0.031236487
000220 66 6b cf bd 38 94 e0 bd da 8d 63 3d 1b d6 29 be
       -0.101279065 -0.109657705 0.055555202 -0.16585581
000230 f9 c4 17 be 94 98 8c bb a8 d8 2c be 47 65 b7 bd
       -0.14821233 -0.0042906497 -0.16879523 -0.08954864
000240 10 36 a0 bd ae 4b 1b be b9 39 8b bd bc 94 58 bd
       -0.078228116 -0.15165588 -0.06798119 -0.05287622
000250 17 dd 40 bd e2 b0 0f be e0 72 9e bb 90 80 46 3c
       -0.047085848 -0.14032319 -0.0048354715 0.012115613
000260 11 90 54 3d 1b 77 f8 bd 58 f0 f1 bc 53 74 85 bc
       0.051895205 -0.121320926 -0.02953355 -0.01629082
000270 ba 8c 13 be ba 55 d3 3c b0 bb d1 bc e0 34 2e 3d
       -0.14409152 0.025797714 -0.025602192 0.042530894
000280 ca 7e 14 3b 16 bd 6b bd 2a 27 30 3d bb cc a9 bd
       0.002265858 -0.057553373 0.0430061 -0.08291002
000290 78 b8 eb 3d ad a4 f6 3c 2b 29 e9 bb 38 9d 29 be
       0.11509794 0.03010782 -0.0071155033 -0.1656388
0002a0 b2 54 13 3d e6 be 95 3d c8 ec d1 bc d8 df 36 be
       0.035969444 0.073118016 -0.025625601 -0.17858827
0002b0 cb 8e 37 be 05 92 d1 bd aa b7 f5 bc 6f 8e 4b be
       -0.17925565 -0.10232929 -0.029994804 -0.19878553
0002c0 30 1c 80 3d da 7c ef 3c fd ff 87 bd 41 3a 1c bd
       0.06255376 0.029234339 -0.06640623 -0.038141493
0002d0 68 02 3a be c7 f7 06 bd ee 91 4f 3d 80 29 94 bc
       -0.1816498 -0.032951143 0.05067628 -0.018086195
0002e0 6f 3c f8 bc 9b 9f a2 3b 88 ba c9 bc 19 92 23 3d
       -0.030302254 0.004962874 -0.024625078 0.03993425
0002f0 e3 21 3f be d0 b5 18 be 1c c3 9c bd 8a 4c 06 be
       -0.1866527 -0.14913106 -0.07654402 -0.13115135
000300 00 e0 9b 39 6e 88 a0 3d 70 03 44 bc 68 f3 c9 3d
       0.00029730797 0.07838522 -0.01196371 0.09860879
000310 bc 99 f8 bd c8 7d f1 bd 10 8c d2 3d c0 c7 e4 bc
       -0.121386975 -0.11791569 0.10280621 -0.02792728
000320 f8 33 86 bc 90 f4 af bd 00 de 98 3a e8 39 0e bd
       -0.016382203 -0.085915685 0.0011662841 -0.034723192
000330 62 5e b7 bd 64 a3 50 bd a8 b1 fd 3c dc 64 41 bd
       -0.08953549 -0.05093707 0.030968502 -0.047215328
000340 e0 1b d9 3b 0c f3 83 3d 50 6b b3 bd 34 b9 fe bd
       0.0066256374 0.06442842 -0.087607026 -0.124376684
000350 80 b8 e5 3c ea 1b b5 3d 6a f7 d7 3d 80 cd f9 3a
       0.028042078 0.08843215 0.10545237 0.0019058436
000360 fc d7 c0 bd e0 e0 17 3d 6a e7 cb bd d8 10 4f 3d
       -0.09416196 0.037079692 -0.09956248 0.050553173
000370 92 7c 96 3d 64 a2 b8 3d c0 d3 fa 3d 1a e4 d2 bd
       0.07347979 0.090153486 0.12247419 -0.10297413
000380 34 c3 f0 bd bc af b9 bd bc 6f a9 bd 68 a8 05 bd
       -0.11755982 -0.09066722 -0.08273265 -0.032631308
000390 e4 33 b9 bd 88 60 53 bd 34 18 cb 3d 6c 31 a8 bd
       -0.090431005 -0.05160573 0.09916726 -0.082125515
0003a0 e8 43 aa 3d 88 93 c7 bc 6e 7c 85 bd 9a 27 8e 3d
       0.08313733 -0.02436234 -0.06517874 0.06941147
0003b0 e0 a9 e3 bb 80 21 08 bb 80 ff c9 bd 60 79 9e bc
       -0.006947741 -0.002077192 -0.09863186 -0.019344985
0003c0 00 99 57 bc a8 e2 86 3c e0 fa dc bd 56 2d da 3d
       -0.013159037 0.0164655 -0.10790038 0.106531784
0003d0 40 4e fb bb f0 e3 73 bc d0 8f 52 3d f0 df 91 bc
       -0.0076692402 -0.0148858875 0.05140668 -0.017806977
0003e0 a6 3f 90 3d 26 1c 9b bd 54 46 97 3d e8 60 bb 3c
       0.0704339 -0.07573728 0.07386461 0.022873357
0003f0 40 d1 e2 3c 4c c4 f1 bd 6c 7f 16 3d 9e c5 bb bd
       0.027687669 -0.11805019 0.036742613 -0.09168552

lin4.bias f4 [64]
000000 14 e7 9c 3d 32 47 13 3d af 71 4a 3d 54 e8 c3 bd
       0.07661262 0.03595657 0.049424823 -0.095657974
000010 bb 88 aa bd 53 e3 ac bd 66 3b 31 3d f7 d4 d3 bd
       -0.083268605 -0.08441796 0.043269537 -0.10343354
000020 09 11 05 bd c7 bb f2 3d 9d 51 ad 3d c0 55 6a bd
       -0.03248695 0.11852222 0.08462832 -0.057210684
000030 01 6d 67 bb 24 b9 0a 3e b5 b6 51 be 5d 99 04 3e
       -0.0035312774 0.13547188 -0.20479853 0.12949128
000040 e6 64 25 be 26 82 44 be fa d7 35 3e 31 cd 0c be
       -0.16151771 -0.19190273 0.1775817 -0.1375015
000050 2a 9a dd bd 87 3e 86 bb 03 a4 f0 3d 72 b9 1e 3e
       -0.1082042 -0.0040968093 0.11750033 0.1550043
000060 b7 b1 11 3c a4 95 c7 bd 03 7b 0a be 36 9b b2 3b
       0.008892468 -0.097453386 -0.13523488 0.0054506315
000070 fa d5 27 bd 3e 13 32 be 6d b7 51 bd e3 d1 7c 3d
       -0.04097555 -0.17390153 -0.05120032 0.0617236
000080 f0 39 8d bd 52 92 b5 bd ef 31 07 3e 52 9b 89 3c
       -0.06895816 -0.08865799 0.13202642 0.016797695
000090 8a 82 8c 3d a5 16 02 3e c6 1e d2 bd 6e e1 d6 bd
       0.06860836 0.1270395 -0.10259776 -0.10492216
0000a0 b7 d0 3c bd 4a 80 6f bd 99 76 23 bd 2c e1 21 bd
       -0.046097483 -0.058471955 -0.039908025 -0.03952138
0000b0 58 2e 1c bd d0 f3 64 3d 62 50 2d 3e 60 77 ef bc
       -0.038130134 0.05589658 0.16925195 -0.029231727
0000c0 62 5e b8 3d 9c 2e de bc 88 d1 f6 3d 17 55 a7 3d
       0.09002377 -0.027121834 0.12051684 0.081705265
0000d0 1a bd a9 3c 01 05 05 be 05 d3 c3 3e 93 8a aa bd
       0.020720053 -0.1299019 0.38246933 -0.08327212
0000e0 ab 08 9f 3d 26 f4 33 3d 37 ec 01 3e 2c 7d ff bd
       0.07765325 0.04393401 0.12687765 -0.124750465
0000f0 62 3a 3d be df b2 38 3e 87 be 4d 3e 9a a5 e3 3b
       -0.18479303 0.18036984 0.20092212 0.0069472315

lin5.weight f4 [1, 64]
000000 10 bc 3c be 12 2c 55 bd 66 7a f4 3b 0e f1 bf 3d
       -0.18431115 -0.05204398 0.00746088 0.093721494
000010 2b 45 8d 3c 81 c9 0d bd ad 49 40 be d0 5b 4a 3d
       0.017244896 -0.034615997 -0.18778105 0.049403965
000020 8a 08 19 bf 06 1d 5a be 76 0c 8d be b4 df 75 3d
       -0.59778655 -0.21300134 -0.2754857 0.060027793
000030 b7 77 37 bd 31 b0 3c be f2 7a 6e bf 2b c7 3c be
       -0.044791903 -0.18426587 -0.9315635 -0.18435352
000040 76 23 20 bd 78 55 92 bd 9d 09 1c 3f 7b d1 da 3c
       -0.03909632 -0.07145208 0.6095217 0.026711216
000050 58 c7 f5 bd b3 98 b5 bc 6b 56 76 be b6 8c 68 be
       -0.120009124 -0.02216754 -0.24056403 -0.22709927
000060 82 7c 38 3d 14 94 14 3d 03 9f 5d 3c ce 29 13 bc
       0.045040615 0.03627403 0.013526681 -0.008982135
000070 ad 1e 9a 3c 98 4f c5 3c e1 e9 0d 3d b0 93 8e be
       0.018813455 0.024085805 0.034646872 -0.27847052
000080 3d 73 a0 bb 65 70 54 bd 01 b6 e5 be 4e cf ae be
       -0.00489655 -0.051865 -0.4486542 -0.34142536
000090 55 48 ae be 13 14 9b be 7a 94 72 3d 12 a2 b3 bd
       -0.3403956 -0.30288753 0.05922363 -0.08771147
0000a0 1f 89 67 3c b7 24 2d 3d 34 db 1c bd 31 56 4c 3d
       0.014131813 0.042271342 -0.038294986 0.049886886
0000b0 d4 f4 9a bd db 10 da be 18 89 92 be 0c 4a 68 bd
       -0.075662285 -0.42590985 -0.2862022 -0.05671124
0000c0 44 8c 7d be e0 13 dc 3c 5e b5 a4 be 31 8a 9a be
       -0.24760538 0.026864946 -0.32169622 -0.30183557
0000d0 9d 87 48 bc ad cc 0c 3d a8 d8 53 3f 0b 29 13 3d
       -0.012239364 0.03437488 0.82752466 0.035927814
0000e0 fc 64 c9 be 9c f8 ae be d1 24 4c be eb 62 eb bc
       -0.39334857 -0.3417405 -0.1993592 -0.028733691
0000f0 12 a2 33 bd 01 75 42 be 26 36 fc 3e 1f 28 ab be
       -0.043855734 -0.18989946 0.49260062 -0.33429047

exp_avg f4 [64, 2]
000000 82 bb 2e ba 5f 96 7c ba 3a 75 f8 b6 be cd 29 b8
       -0.0006665514 -0.0009635444 -7.404623e-06 -4.0484352e-05
000010 ac eb de ba ef d7 b7 bb ae e1 bf 3a 10 91 81 ba
       -0.0017007492 -0.005610458 0.0014639401 -0.0009885151
000020 d6 49 f4 b8 98 4a e4 39 00 00 00 00 00 00 00 00
       -0.0001164858 0.00043543126 0.0 0.0
000030 3a 86 c9 ba 3d 6c 4b ba 56 b1 49 bb 63 34 b6 bb
       -0.0015375086 -0.0007759964 -0.0030775866 -0.005560444
000040 b8 69 96 ba 27 e7 d9 3b 04 00 00 80 04 00 00 80
       -0.0011475598 0.00664987 -6e-45 -6e-45
000050 1c 38 4c 3b f7 63 41 3a 37 51 43 3b 2a 6d 4a 3b
       0.0031161373 0.00073772616 0.0029803046 0.003088782
000060 00 00 00 00 00 00 00 00 00 00 00 00 00 00 00 00
       0.0 0.0 0.0 0.0
000070 29 db a6 bb 44 6f a3 bb 50 04 33 3c ad 33 17 3b
       -0.005092044 -0.004987629 0.010926321 0.0023071573
000080 0d 1c 65 3b 53 f5 f8 3b 04 31 0e 3b ce 00 e2 bb
       0.0034959347 0.0075976043 0.0021696696 -0.0068970686
000090 6c cf 52 3c 17 a6 3d 3b ea d7 ac bb cb a4 97 3b
       0.012866836 0.0028938109 -0.0052747624 0.004627799
0000a0 9f 7a 2a ba 0a 79 ea 39 95 77 05 3b 0c 91 c9 3b
       -0.00065032573 0.0004472214 0.0020365466 0.006151324
0000b0 00 00 00 00 00 00 00 00 63 df d9 3a bb 48 e3 ba
       0.0 0.0 0.001662236 -0.0017340401
0000c0 04 75 4e ba e3 7f be b9 f4 37 11 ba be 3e 7c ba
       -0.0007875713 -0.00036334907 -0.00055396487 -0.00096223864
0000d0 dd c0 57 3a 62 c4 eb ba 85 6f b3 3b 93 c4 d4 ba
       0.0008230338 -0.0017987604 0.0054759406 -0.00162329
0000e0 ac d8 de 38 be df 57 3a 42 a4 f1 37 40 c0 6e ba
       0.00010626143 0.00082349393 2.8805927e-05 -0.0009107627
0000f0 2f 60 89 3b d7 b6 96 bb 93 a4 c6 bb f7 84 87 3b
       0.004192374 -0.004599433 -0.0060620992 0.0041357237
000100 02 8b cf 39 32 cd 6c 39 e2 40 22 39 c0 e8 46 3b
       0.00039585686 0.00022583155 0.00015473695 0.0030351132
000110 44 9f b3 bb 72 58 7b 3b 9f d8 00 bc ec 53 a3 ba
       -0.0054816324 0.0038352278 -0.0078641465 -0.0012460924
000120 0c ea 8a bb 66 d2 e7 b9 ed ea 68 b9 77 2f 88 ba
       -0.0042393263 -0.00044216512 -0.00022212761 -0.0010390122
000130 e8 34 f6 3b 38 a5 ec 3b 7e 4c 21 b9 26 fb 2e 39
       0.007513631 0.007221844 -0.00015382652 0.00016687493
000140 00 00 00 00 00 00 00 00 ad cf 9c 3b 46 81 d3 b9
       0.0 0.0 0.004785499 -0.00040341372
000150 e1 9f 09 bc 59 c9 7e 3b ba ce 7c ba 3a 7a f6 ba
       -0.0083999345 0.0038877337 -0.0009643842 -0.0018804737
000160 92 f9 0e 3b 5a e4 af bb 8f eb 8e ba c4 2a b5 ba
       0.0021816236 -0.005367798 -0.0010903942 -0.0013821949
000170 e6 eb f0 ba 7d b9 28 3b 92 31 ff 38 8e bb 34 bb
       -0.001838085 0.0025745325 0.00012168581 -0.0027577612
000180 9a 46 bf 3b 62 2c 46 3b 94 ae 07 3c 34 64 1e bb
       0.005837274 0.0030238857 0.008281369 -0.0024168612
000190 1c 53 28 3b fa f3 ba 3b 60 a6 aa 3a ac ae 0e b9
       0.0025684303 0.005705354 0.0013019554 -0.00013607246
0001a0 ee f3 0a ba 24 6b 6d ba 98 e6 85 bb 3b b9 2e 3b
       -0.00053006306 -0.0009056798 -0.004086327 0.00266607
0001b0 a7 22 28 ba 5b 35 5a 3a e0 b1 77 38 ce 36 a9 ba
       -0.0006413855 0.00083239906 5.9055048e-05 -0.001291001
0001c0 52 24 d4 bb 38 15 80 bb 75 41 0e bb 3e 46 2d ba
       -0.0064740563 -0.0039087795 -0.0021706496 -0.0006609893
0001d0 ab da b2 bb ee aa b5 bb 08 6f 47 3b 76 b4 0b bb
       -0.005458196 -0.005544058 0.003043117 -0.002131728
0001e0 54 d4 25 bc e6 89 1e bb af 17 07 3c ab 85 04 bb
       -0.010121424 -0.002419108 0.008245393 -0.0020221274
0001f0 0a fa 24 bc ed ff e9 b9 00 c5 19 36 ee c8 7d ba
       -0.01006938 -0.00044631903 2.2913446e-06 -0.0009681125

exp_avg_sq f4 [64, 2]
000000 39 20 8a 38 5d 47 b2 38 41 20 ea 35 34 61 85 35
       6.586355e-05 8.500994e-05 1.7443746e-06 9.937562e-07
000010 35 58 1d 3a 8b f4 7b 3b 27 f7 65 39 fb 4f be 38
       0.00060022186 0.003844532 0.00021931213 9.0748035e-05
000020 76 e4 07 38 70 7e f0 37 00 00 00 00 00 00 00 00
       3.239928e-05 2.8669107e-05 0.0 0.0
000030 04 8f 0a 39 26 1d e1 38 f4 b9 ad 3a aa 90 67 3b
       0.00013213983 0.000107342654 0.0013254271 0.003533403
000040 d4 26 9d 39 0a b8 95 3b 11 81 45 24 c8 10 47 24
       0.00029974303 0.0045690583 4.282689e-17 4.316546e-17
000050 c9 6d 0d 3a 09 55 69 38 97 b5 08 3a 2e 49 0d 3a
       0.00053950824 5.5630724e-05 0.0005215047 0.0005389628
000060 00 00 00 00 00 00 00 00 00 00 00 00 00 00 00 00
       0.0 0.0 0.0 0.0
000070 20 60 71 3b 48 10 4d 3b a9 ad f6 3b b0 f9 cf 39
       0.0036830977 0.0031290222 0.007528026 0.00039668148
000080 cf 37 73 3a 15 fd a2 3b 67 de cc 39 3b 2a 8a 3b
       0.00092780305 0.0049740174 0.00039075615 0.00421646
000090 81 e9 20 3c 1c d3 fa 39 cc 8d 6e 3b 6a fe 36 3b
       0.009821297 0.00047841005 0.0036400435 0.0027922639
0000a0 f1 83 26 39 12 d0 4e 38 15 54 83 39 a2 45 65 3b
       0.00015880146 4.9308008e-05 0.00025048913 0.0034984131
0000b0 00 00 00 00 00 00 00 00 42 a0 95 39 fc c9 9d 39
       0.0 0.0 0.00028538896 0.00030095864
0000c0 35 f7 49 38 5a 3f 82 37 2d f4 0e 39 2f b4 f8 38
       4.8152364e-05 1.5526708e-05 0.00013633138 0.00011859123
0000d0 c6 51 97 38 0a ec b4 39 9e 30 dd 3a 46 fa 3f 39
       7.2154726e-05 0.00034508138 0.0016875451 0.00018308414
0000e0 e2 33 19 37 cf 18 9b 38 e9 fc e6 37 c4 80 98 38
       9.131591e-06 7.395597e-05 2.7535907e-05 7.271909e-05
0000f0 7a 8d a3 3a b4 d1 c7 3a 05 60 b1 3b 0b e5 19 3b
       0.0012478076 0.0015244992 0.0054130577 0.0023482468
000100 8a fc 99 37 6f f0 be 36 36 90 52 37 43 00 6a 3a
       1.8356619e-05 5.6904314e-06 1.2550552e-05 0.00089264306
000110 0f 9c 9e 3b 6d c0 d4 3a cf 2b 2d 3c d3 64 27 39
       0.004840381 0.0016231664 0.010569527 0.00015963921
000120 d4 35 32 3b 3b 9d 16 38 73 4a 63 38 2e 01 da 38
       0.0027192729 3.590922e-05 5.4190354e-05 0.0001039527
000130 c9 ac 83 3b 86 25 88 3b 5b f7 f4 37 04 b8 28 37
       0.0040184003 0.004154864 2.920225e-05 1.0056425e-05
000140 00 00 00 00 00 00 00 00 7b 5b b6 3a 25 55 04 38
       0.0 0.0 0.0013912761 3.155055e-05
000150 7b 0f 21 3c b0 0c 02 3b 9a f8 38 3a 33 fb c5 39
       0.009830351 0.0019843988 0.00070560875 0.00037761926
000160 7c f6 8f 39 ae 1e 14 3b 79 7f db 39 32 91 3d 39
       0.0002745873 0.0022601294 0.0004186591 0.00018078534
000170 85 59 2c 3a 95 1c 03 3a 48 b8 c7 36 87 f7 3e 3a
       0.0006574619 0.00050015125 5.9521153e-06 0.0007284809
000180 01 fa d9 3a 69 e3 02 3a c1 4f 91 3b 25 4f c8 39
       0.0016630293 0.0004992993 0.0044345562 0.0003820594
000190 06 29 f3 39 c1 76 24 3b 05 b2 cd 38 6f f8 8b 36
       0.00046379137 0.0025095197 9.8083205e-05 4.1714443e-06
0001a0 80 24 aa 39 1e 8f 0b 39 f6 8d 34 3b 68 ff 37 3a
       0.0003245212 0.00013309388 0.0027550436 0.00070189545
0001b0 a1 ac e1 37 0c 91 b9 38 89 32 02 3a ec 60 7e 39
       2.6902477e-05 8.8485045e-05 0.0004966637 0.00024259434
0001c0 82 a0 d6 3b 77 db 13 3b 4a 74 49 3a 2f 92 47 38
       0.0065498957 0.002256123 0.000768487 4.758144e-05
0001d0 60 95 68 3b c3 d4 77 3b 24 ab e5 39 c8 9e 81 39
       0.0035489425 0.0037816025 0.00043805793 0.000247231
0001e0 c5 a7 61 3c ca 13 2a 3a 76 79 7a 3b 26 e7 a1 39
       0.0137729095 0.0006487934 0.003821937 0.00030880532
0001f0 cc cb 69 3c b9 71 01 38 04 02 41 39 09 0e 03 39
       0.01426978 3.086191e-05 0.00018406665 0.00012498362

exp_avg f4 [64]
000000 58 5f fd 3b 5e 71 80 38 85 26 0e bc 1b bb 0c bb
       0.007732313 6.124632e-05 -0.008676176 -0.0021473828
000010 ea d4 9a 3b 00 00 00 00 45 0e 20 3c 82 91 13 bc
       0.0047250884 0.0 0.009769027 -0.00900686
000020 8f ac 28 bc 04 00 00 00 1a 53 a7 bb 4c b7 ce bb
       -0.010295047 6e-45 -0.005106342 -0.006308472
000030 00 00 00 00 00 00 00 00 d0 13 1b bc b2 d5 5a bc
       0.0 0.0 -0.009465173 -0.013356613
000040 5b d2 4a bc a6 18 3b bc 22 5d 78 bc d4 90 15 bc
       -0.012379254 -0.011419451 -0.015158923 -0.009128768
000050 89 ca da ba 86 05 27 bc 00 00 00 00 66 6a 49 bb
       -0.001669244 -0.010194188 0.0 -0.0030733584
000060 74 8f aa 3b ce d1 0b 3c c1 4a 32 bb 4f 37 d1 bb
       0.005205089 0.008533908 -0.0027205201 -0.006384767
000070 69 6e f8 ba f8 19 ad 3a 0a 2c 0c bc 62 2f 25 bc
       -0.0018953803 0.0013206592 -0.008555422 -0.010082098
000080 c0 2b 69 39 fd 98 ad bb 7c a3 25 bc d2 32 14 bc
       0.0002223691 -0.0052977786 -0.0101097785 -0.00904532
000090 a0 45 ca bb 86 9d 9e 3b 46 c6 66 bc 6e eb a0 3b
       -0.0061728507 0.0048405556 -0.014085358 0.004910878
0000a0 00 00 00 00 fb 1d 06 bc 4d 17 31 bc 44 c0 cb bb
       0.0 -0.008185859 -0.010808778 -0.006217988
0000b0 b8 b8 0c bc 43 af 45 bb da 7e be bb 34 e9 8a bb
       -0.008588962 -0.0030164279 -0.0058134617 -0.0042392258
0000c0 97 89 03 bc 4f 4f 26 bc ce db 1c bc bd 0e eb ba
       -0.008028409 -0.010150745 -0.00957389 -0.001793347
0000d0 45 f4 45 3c 54 83 fc bb 71 8b be 3b 9b 98 37 3c
       0.012082164 -0.007706085 0.0058149626 0.011205818
0000e0 a3 09 16 bc d0 27 88 bb e3 5f 26 bc 95 70 9f bb
       -0.009157571 -0.0041551366 -0.010154697 -0.0048657157
0000f0 00 3a 41 bc 9a 7f 2c bc 6d 76 3e bc 1b 65 f8 3b
       -0.011793613 -0.010528469 -0.011624915 0.007580412

exp_avg_sq f4 [64]
000000 78 97 ab 3b 2b 95 64 38 36 28 25 3c 6b f4 ef 39
       0.0052365623 5.449836e-05 0.010080388 0.00045767738
000010 07 eb f9 3a 00 00 00 00 7a 12 18 3c 70 5f 24 3c
       0.0019067236 0.0 0.009281749 0.01003252
000020 4d e2 3c 3c 27 d9 47 24 c7 b3 cf 3a 3e 37 18 3b
       0.011528564 4.3335182e-17 0.0015846425 0.0023226286
000030 00 00 00 00 00 00 00 00 a4 b7 50 3c 26 97 40 3c
       0.0 0.0 0.012739096 0.011754787
000040 6b ae 5a 3c 13 7c 40 3c ac 5b 65 3c 15 fc 35 3c
       0.013347249 0.011748332 0.013998907 0.011107464
000050 9c 1e 59 3a f0 7e 1f 3c 00 00 00 00 dd 46 81 3a
       0.0008282454 0.009734854 0.0 0.0009863038
000060 4f d2 6a 3b 00 5b e6 3b 37 17 55 3a 2f aa 1f 3b
       0.003583092 0.007029891 0.00081287645 0.0024362912
000070 1c 38 d9 39 ba 82 a2 39 bd bc b6 3b 6b 59 73 3c
       0.0004143127 0.00030996447 0.0055766986 0.014852862
000080 3b f8 86 38 8b 87 3b 3b 5c eb 64 3c 5c 4c 7a 3c
       6.4358544e-05 0.0028614725 0.01397213 0.015276995
000090 37 14 be 3b e8 77 11 3b 30 8c 80 3c 74 71 11 3b
       0.0058007496 0.0022196714 0.015691847 0.0022192867
0000a0 00 00 00 00 a6 c3 92 3b 2c 4b 8d 3c d6 59 b3 3b
       0.0 0.0044788895 0.017247759 0.0054733558
0000b0 04 e3 b9 3b c0 3c fc 3a 33 3a 73 3b 8d 74 f1 3a
       0.0056728143 0.0019244179 0.0037113547 0.0018421576
0000c0 6b 84 63 3b 3e 6e e3 3b c6 eb f0 3b 3f b7 69 39
       0.0034716378 0.006940632 0.007352325 0.00022288876
0000d0 92 c4 6c 3c ae 71 03 3c 8a 28 44 3b 04 24 63 3c
       0.014451163 0.008022709 0.002993139 0.013863567
0000e0 f8 28 61 3c 11 08 17 3b 26 4d 57 3c 85 7c a8 3a
       0.013742678 0.002304558 0.013140952 0.0012854493
0000f0 35 19 9c 3c 4c 1f db 3b 32 14 a9 3c a5 3a d0 3b
       0.019054988 0.0066870805 0.020639513 0.006354647
