model_checkpoints/fourier_sine/checkpoints/epoch=1999-step=2000.ckpt (torch, 173790 bytes, 30 tensors)

B f4 [5, 2]
-0.08609607 -1.194119 -0.008901293 1.8391694 0.058719203 -0.52227116 0.6113327 0.40519172
-1.0991399 1.066746
00000000: 2353 b0bd e4d8 98bf bbd6 11bc e769 eb3f
00000010: 8c83 703d 90b3 05bf 4d80 1c3f 4a75 cf3e
00000020: 9eb0 8cbf 228b 883f

lin1.weight f4 [64, 10]
-0.24083866 -0.003051597 -0.09891637 0.9844163 0.55531865 -0.61215514 -0.017873814 -0.11036374
-0.40529945 0.5428792 -0.14954185 0.3013108 0.22543336 -0.0129996855 0.32984874 0.09107806
-0.09509526 0.30378214 0.13350084 0.42632654 -0.24317661 0.56427616 0.08279286 -0.5629699
-0.08685022 0.13350789 0.17811851 0.22307837 -0.032548178 -0.0725572 -0.18706752 -0.31737417
-0.09978949 -0.2263216 -0.0677417 -0.17096286 0.4096958 0.19258885 -0.085241795 0.18283987
-0.025901418 0.115935676 -0.28468382 0.07254875 0.048820127 -0.40197098 0.3721683 -0.19461204
-0.06592921 -0.2510593 -0.10247898 0.21156059 -0.103701666 0.06489613 0.09283529 0.2133636
-0.07400228 0.47217152 -0.36833516 0.10294662 0.10500119 0.2630673 0.30768338 0.012694092
0.07839503 0.29611638 -0.2368456 -0.31821623 0.30411002 -0.055487923 -0.2925191 -0.3042305
-0.2266778 0.43519267 -0.05239735 0.044445932 0.44166157 0.33457798 0.016213566 -0.47969612
-0.26598337 -0.16008943 0.058659803 0.18788597 0.0039427886 0.40606442 0.12739328 -0.18962963
0.0040772497 0.027918642 0.23418704 0.28881958 -0.14841111 0.041578118 0.2310262 0.28915897
0.065131344 -0.22396602 -0.11874027 -0.40502715 0.18734978 0.4656881 -0.18937285 -0.3057737
-0.45614058 0.373035 -0.23551928 -0.025284212 0.2503523 -0.3951203 0.16230936 -0.3906703
-0.5740987 -0.5113843 0.35683748 -0.30155435 0.36283484 0.5301595 0.15142919 -0.35514873
-0.31685603 0.04482952 -0.5362323 0.15620174 0.036515746 -0.26994947 -0.0050867232 -0.26746458
-0.15103754 -0.525981 -0.18721412 -0.0063768956 0.16768114 -0.4226614 -0.26594573 -0.42114007
-0.13379623 0.44543365 -0.24567887 -0.108200915 -0.18411231 0.346872 0.30430326 0.157489
-0.22596003 0.3089657 -0.4503376 -0.20838119 0.012931415 -0.09263444 0.4954239 0.329032
0.31315237 -0.5155475 0.07180857 -0.13876101 -0.24543746 -0.45865235 -0.4532304 0.24287185
-0.10272185 -0.075258456 0.03768642 -0.08547558 -0.011659115 0.40025356 0.05691586 -0.5020226
-0.24228233 -0.46540293 0.16157645 -0.42159894 -0.16922805 0.47966796 -0.27781555 0.32136595
-0.5417447 0.110340774 -0.21652311 0.4482105 0.062724836 -0.08686839 0.20144922 0.09640914
-0.009142136 0.39288306 -0.2574751 -0.485643 0.16250208 -0.17696492 0.19077335 -0.111694336
0.21761158 -0.37699625 -0.37221774 0.060505074 0.33761415 -0.38395646 0.10191519 -0.49060264
-0.28691578 -0.47921032 -0.19611083 0.31258723 0.21336634 -0.12584664 -0.227883 0.13739596
-0.1932692 0.1332714 0.05716759 -0.2853561 0.2606915 -0.5785638 0.34263015 0.50486565
-0.5180599 0.24260215 0.15435673 0.188464 -0.52588874 0.17772165 0.21440814 -0.60082847
0.05697099 -0.15241377 -0.12690611 0.21517363 0.105176955 -0.36992213 -0.056402363 0.23419873
0.1595511 -0.72703665 0.20859918 -0.5124713 0.17198473 -0.30898744 0.59947526 0.18970047
-0.41266823 -0.32893863 -0.18500462 0.2638829 0.31786457 -0.052645218 -0.31500736 -0.2638933
-0.19757713 0.13518643 -0.22203466 0.4730737 -0.33779418 -0.28253245 -0.20631976 -0.36650938
00000000: 699e 76be 4dfd 47bb aa94 cabd b502 7c3f
00000010: 5d29 0e3f 33b6 1cbf 1b6c 92bc 6206 e2bd
00000020: 6983 cfbe 22fa 0a3f 8021 19be 6945 9a3e
00000030: 01d8 663e a2fc 54bc efe1 a83e 2287 ba3d
00000040: 4ec1 c2bd 5589 9b3e 72b4 083e 7947 da3e
00000050: 4a03 79be 6774 103f 4e8f a93d cc1e 10bf
00000060: 87de b1bd 4bb6 083e b364 363e a86e 643e
00000070: 3d51 05bd df98 94bd a18e 3fbe de7e a2be
00000080: 6f5e ccbd d9c0 67be 29bc 8abd e310 2fbe
00000090: a6c3 d13e 0336 453e 4093 aebd 603a 3b3e
000000a0: 362f d4bc af6f ed3d 14c2 91be 7094 943d
000000b0: 9df7 473d 24cf cdbe d88c be3e 6148 47be
000000c0: e505 87bd d88a 80be 80e0 d1bd 57a3 583e
000000d0: 8a61 d4bd 43e8 843d 6e20 be3d fd7b 5a3e
000000e0: 828e 97bd 77c0 f13e 6d96 bcbe add5 d23d
000000f0: dd0a d73d c2b0 863e ad88 9d3e e1fa 4f3c
00000100: 938d a03d 919c 973e a787 72be 3ded a2be
00000110: 4fb4 9b3e 4e47 63bd 10c5 95be 1ac4 9bbe
00000120: 3a1e 68be 93d1 de3e 9b9e 56bd f00c 363d
00000130: 7721 e23e ce4d ab3e 50d2 843c bb9a f5be
00000140: f92e 88be 7cee 23be 4345 703d 2e65 403e
00000150: 8232 813b ade7 cf3e 6273 023e 452e 42be
00000160: 739a 853b a3b5 e43c bace 6f3e 29e0 933e
00000170: 15f9 17be d14d 2a3d 2292 6c3e a50c 943e
00000180: 9563 853d 5957 65be 192e f3bd b85f cfbe
00000190: 9fd8 3f3e ac6e ee3e f5ea 41be 5f8e 9cbe
000001a0: 428b e9be 72fe be3e f72b 71be d620 cfbc
000001b0: 2d2e 803e 354d cabe 6d34 263e f005 c8be
000001c0: 22f8 12bf 15ea 02bf 67b3 b63e 5565 9abe
000001d0: 7dc5 b93e 88b8 073f 4110 1b3e 0ed6 b5be
000001e0: f43a a2be 299f 373d 8546 09bf 59f3 1f3e
000001f0: 8991 153d d136 8abe 87ae a6bb 1ef1 88be
00000200: 96a9 1abe b1a6 06bf 0fb5 3fbe 47f5 d0bb
00000210: 9bb4 2b3e 1367 d8be 0a2a 88be ac9f d7be
00000220: e101 09be e10f e43e 3e93 7bbe 7198 ddbd
00000230: f087 3cbe 3599 b13e a3cd 9b3e cc44 213e
00000240: 1162 67be c130 9e3e a692 e6be e161 55be
00000250: 49de 533c 20b7 bdbd 34a8 fd3e e276 a83e
00000260: 8255 a03e ecfa 03bf 5f10 933d 5e17 0ebe
00000270: f553 7bbe 7bd4 eabe d10d e8be 66b3 783e
00000280: d55f d2bd 1b21 9abd 135d 1a3d d20d afbd
00000290: df05 3fbc 09ee cc3e 9b20 693d 8e84 00bf
000002a0: dc18 78be 4b49 eebe 4c74 253e d1db d7be
000002b0: 1e4a 2dbe 0a97 f53e d73d 8ebe 148a a43e
000002c0: c8af 0abf 58fa e13d 3cb8 5dbe d97b e53e
000002d0: e175 803d 0ee8 b1bd b448 4e3e 2872 c53d
000002e0: e6c8 15bc f827 c93e c7d3 83be 33a6 f8be
000002f0: f266 263e 4b36 35be 175a 433e 00c0 e4bd
00000300: 92d5 5e3e a705 c1be 5393 bebe 2bd4 773d
00000310: c3db ac3e f195 c4be e9b8 d03d 4530 fbbe
00000320: a0e6 92be 0e5b f5be 47d1 48be 6f0b a03e
00000330: b57c 5a3e f1dd 00be 295a 69be 87b1 0c3e
00000340: 5ce8 45be 4c78 083e 9028 6a3d 321a 92be
00000350: 5b79 853e c21c 14bf 386d af3e e03e 013f
00000360: 939f 04bf b36c 783e b10f 1e3e b5fc 403e
00000370: a5a0 06bf aafc 353e cf8d 5b3e e5cf 19bf
00000380: 6a5a 693d 5b12 1cbe adf3 01be 7a56 5c3e
00000390: 0467 d73d 6f66 bdbe 2a06 67bd cbd1 6f3e
000003a0: 5d61 233e 131f 3abf 069b 553e 5231 03bf
000003b0: c41c 303e 9a33 9ebe 3677 193f d740 423e
000003c0: 4049 d3be a56a a8be da71 3dbe a91b 873e
000003d0: 25bf a23e 83a2 57bd a548 a1be 061d 87be
000003e0: a951 4abe 506e 0a3e 0e5d 63be b736 f23e
000003f0: 5cf3 acbe 18a8 90be 7d45 53be 1ea7 bbbe

lin1.bias f4 [64]
-0.13033023 -0.18176247 -0.1265244 0.2950659 -0.2329615 -0.2339277 0.12492913 -0.10613285
0.14124909 0.14388192 0.24115755 0.09016171 -0.269048 -0.0074230237 0.19650811 -0.27921778
0.36523664 0.19016978 0.15014564 0.08891106 -0.14890356 0.25381333 -0.21929309 0.20093322
0.118715376 -0.01920636 -0.11185354 -0.210445 0.2864704 0.037882797 -0.20615838 -0.2016585
0.32069644 0.0014574712 -0.012467972 0.106772855 -0.18702921 -0.010746855 -0.092045054 -0.3893289
-0.3377152 0.18447606 0.18587726 0.31949413 0.09228122 0.082946055 0.18407187 -0.3362505
-0.04803047 0.039102234 0.25402507 0.15392782 0.15077847 -0.03769137 0.091374256 -0.20719229
0.35253635 -0.14812456 0.019755676 -0.18139666 -0.02306913 -0.12095749 0.22565822 -0.05392287
00000000: 4a75 05be f11f 3abe 9d8f 01be e112 973e
00000010: 768d 6ebe be8a 6fbe d8da ff3d 2e5c d9bd
00000020: 9aa3 103e c855 133e 01f2 763e b4a6 b83d
00000030: a9c0 89be d63c f3bb 6c39 493e a2f5 8ebe
00000040: 4c00 bb3e debb 423e c7bf 193e 0017 b63d
00000050: 2d7a 18be d2f3 813e 5e8e 60be 70c1 4d3e
00000060: 0c21 f33d a856 9dbc 7813 e5bd e57e 57be
00000070: 40ac 923e fe2a 1b3d 2f1b 53be 917f 4ebe
00000080: 5332 a43e 9e08 bf3a 7746 4cbc baab da3d
00000090: 9684 3fbe 9413 30bc 1e82 bcbd 1e56 c7be
000000a0: 02e9 acbe 4be7 3c3e 9c56 3e3e bc94 a33e
000000b0: f0fd bc3d 9fdf a93d 567d 3c3e 0729 acbe
000000c0: 99bb 44bd aa29 203d 930f 823e 419f 1d3e
000000d0: ac65 1a3e 4462 1abd 6d22 bb3d 372a 54be
000000e0: a57f b43e f7ad 17be a8d6 a13c 0cc0 39be
000000f0: 79fb bcbc 8fb8 f7bd f312 673e 3ade 5cbd

lin2.weight f4 [64, 64]
-0.095601134 -0.053274963 -0.14436667 -0.14422788 -0.15479729 -0.20687091 0.11183982 0.1053395
-0.030778112 -0.12248982 0.29566166 0.09172924 0.005664074 -0.09145532 0.19157842 -0.09768447
-0.27085143 0.28568456 0.13660719 -0.02406213 0.14895724 0.06360499 0.07188703 -0.21450312
0.07252283 -0.20886938 -0.3188796 0.2607695 0.14341968 -0.21007843 -0.047742866 0.3795933
-0.20979011 -0.19325559 0.010688884 0.46939346 -0.14558524 0.05056853 0.015028232 -0.087829754
0.13528313 0.08191878 -0.4142982 0.11194064 -0.26306754 0.10601372 0.12645899 0.19477747
0.08791791 0.011800002 -0.011717722 0.17524765 -0.29568347 0.024387171 0.096243784 -0.12862822
-0.120294236 0.34127635 0.08665156 -0.08827792 0.14742208 0.061839648 -0.05799608 0.0064413073
-0.54869366 -0.17322534 -0.11410629 0.0821112 -0.10043123 -0.0053993454 0.16815522 -0.57485837
-0.11662701 0.18479127 0.059465386 0.12433261 -0.15487875 -0.0913611 -0.16641925 0.3137254
-0.053434838 0.06952907 0.057392202 0.038669437 -0.11098263 0.14958942 -0.19121832 0.34315714
-0.17906451 -0.12169941 -0.055195484 0.13813277 0.40118134 -0.5660787 0.18377872 -0.41069195
0.29749173 -0.33668667 -0.17560837 -0.47084332 -0.2632734 -0.37961355 0.05635205 0.17192814
-0.052118875 0.029995192 0.42055097 0.30147886 -0.17512946 -0.3545573 0.43794772 0.22131135
-0.29524064 -0.30268788 0.12652566 -0.18239716 0.125061 0.036457084 0.2854681 -0.29750335
0.105800346 -0.005122939 0.27835634 0.16895656 -0.41669202 0.22885999 -0.02792623 -0.2683698
0.37314212 0.013049354 0.14245285 -0.037706614 0.3203815 0.15513834 -0.09347976 0.26042396
-0.1536014 0.20596196 -0.099225484 0.044320256 0.2361771 -0.2571092 -0.07332863 0.07388206
0.067515105 -0.23681359 -0.12647218 -0.12256999 0.10664742 -0.2914857 0.04350701 -0.20478007
0.17055646 0.09498395 0.32781273 -0.12695535 -0.3126374 0.21682292 0.333394 -0.020632243
0.17607993 0.06026453 0.0062893815 0.1729322 -0.14432767 0.64853644 0.19771564 -0.07096594
0.11376216 0.00042415684 -0.15037394 -0.09974239 0.26203987 -0.07649009 -0.4419522 -0.12692271
0.107082315 0.55941844 -0.0033677795 -0.037016492 -0.12761931 -0.17904821 0.21219303 0.07677465
-0.039537974 -0.16804229 -0.37201384 -0.19082922 -0.14289862 0.03599023 -0.06714261 -0.08837405
0.19062819 -0.1192209 -0.15546061 0.09489924 -0.078820325 -0.059969854 -0.085191056 0.13276601
0.118327394 -0.08422979 0.12500326 -0.169578 0.107917905 -0.20000233 0.09729876 -0.1477489
0.1326478 0.320188 -0.03808142 -0.15218098 0.047682807 0.020244597 -0.09626243 -0.21746215
0.12454481 -0.07285719 0.004160859 0.2084646 0.14196469 -0.08089996 0.120403804 0.019392302
0.057791702 0.036813904 0.0147044435 0.27271134 -0.093854725 0.10730018 -0.05254174 -0.23402014
0.066530846 0.20895328 -0.06086452 0.16285737 -0.043351907 0.0120503 0.22073309 0.03137232
0.32113564 -0.012676548 0.008393422 0.028891172 0.071661964 -0.023327518 0.2128415 -0.014427898
0.011506748 0.08270139 0.05491765 -0.16440429 0.13580212 -0.12564728 0.23162776 0.1062366
00000000: 87ca c3bd d936 5abd dbd4 13be 79b0 13be
00000010: 2e83 1ebe f8d5 53be 470c e53d 3cbc d73d
00000020: 6122 fcbc f1db fabd f760 973e 8adc bb3d
00000030: b299 b93b ed4c bbbd 222d 443e cc0e c8bd
00000040: 0aad 8abe 3f45 923e c1e2 0b3e f21d c5bc
00000050: 3f88 183e 5543 823d 8239 933d b5a6 5bbe
00000060: d986 943d dbe1 55be 3044 a3be 9483 853e
00000070: 9cdc 123e cd1e 57be 068e 43bd 0e5a c23e
00000080: 38d3 56be cbe4 45be 6e20 2f3c 5754 f03e
00000090: 4c14 15be f220 4f3d f938 763c 16e0 b3bd
000000a0: a987 0a3e 09c5 a73d e51e d4be 2241 e53d
000000b0: cab0 86be b91d d93d 777e 013e bf73 473e
000000c0: 4e0e b43d cc54 413c b0fb 3fbc 1f74 333e
000000d0: d363 97be 9bc7 c73c 761b c53d 1eb7 03be
000000e0: d35c f6bd c6bb ae3e 6076 b13d 0ecb b4bd
000000f0: d0f5 163e 924b 7d3d 4c8d 6dbd 9a11 d33b
00000100: 3077 0cbf fc61 31be 8fb0 e9bd eb29 a83d
00000110: e4ae cdbd feec b0bb e230 2c3e eb29 13bf
00000120: 24da eebd ec39 3d3e fa91 733d 18a2 fe3d
00000130: 8998 1ebe 871b bbbd cf69 2abe 9ea0 a03e
00000140: 7dde 5abd 4265 8e3d 1614 6b3d d863 1e3d
00000150: dc4a e3bd f82d 193e bcce 43be 4bb2 af3e
00000160: b05c 37be 8a3d f9bd a914 62bd ad72 0d3e
00000170: a467 cd3e 89ea 10bf 7d30 3c3e 3746 d2be
00000180: d650 983e 3262 acbe aed2 33be 6012 f1be
00000190: c5cb 86be b55c c2be 68d1 663d ee0d 303e
000001a0: 9a7a 55bd 7ab8 f53c 7552 d73e 705b 9a3e
000001b0: 2355 33be 8988 b5be af3a e03e 719f 623e
000001c0: c829 97be e8f9 9abe f18f 013e 52c6 3abe
000001d0: fe0f 003e 0654 153d e028 923e 5c52 98be
000001e0: daad d83d 54de a7bb b984 8e3e f302 2d3e
000001f0: a858 d5be 465a 6a3e 8dc5 e4bc c467 89be
00000200: 7c0c bf3e f5cc 553c 29df 113e 4072 1abd
00000210: 0b09 a43e 96dc 1e3e 5172 bfbd 4a56 853e
00000220: af49 1dbe b1e7 523e bb36 cbbd 2889 353d
00000230: 69d8 713e d1a3 83be 522d 96bd 7a4f 973d
00000240: 5c45 8a3d 437f 72be ec81 01be fa05 fbbd
00000250: f669 da3d 9d3d 95be 6834 323d deb1 51be
00000260: 5aa6 2e3e f286 c23d 12d7 a73e 9500 02be
00000270: 0212 a0be d406 5e3e 9eb2 aa3e f304 a9bc
00000280: 4c4e 343e f1d7 763d 2817 ce3b 2315 313e
00000290: a2ca 13be 7c06 263f f875 4a3e 9756 91bd
000002a0: 23fc e83d 5e61 de39 a0fb 19be bd45 ccbd
000002b0: 172a 863e d6a6 9cbd 8f47 e2be 07f8 01be
000002c0: f94d db3d 0c36 0f3f f7b5 5cbb 9b9e 17bd
000002d0: a3ae 02be 6a58 37be 2149 593e 073c 9d3d
000002e0: 92f2 21bd 4713 2cbe 9978 bebe bc68 43be
000002f0: 0454 12be 7e6a 133d 1182 89bd 74fd b4bd
00000300: 0934 433e 162a f4bd 1131 1fbe 885a c23d
00000310: 8d6c a1bd f3a2 75bd a678 aebd d0f3 073e
00000320: a255 f23d ab80 acbd db00 003e dba5 2dbe
00000330: 1004 dd3d 69cd 4cbe 9344 c73d 7d4b 17be
00000340: d3d4 073e aeef a33e 43fb 1bbd 55d5 1bbe
00000350: 0c4f 433d ffd7 a53c 3d25 c5bd 66ae 5ebe
00000360: 5911 ff3d 2736 95bd d157 883b be77 553e
00000370: 315f 113e e1ae a5bd 4596 f63d 9bdc 9e3c
00000380: feb6 6c3d 2dca 163d e8ea 703c d2a0 8b3e
00000390: e836 c0bd 32c0 db3d 0236 57bd faa2 6fbe
000003a0: 5341 883d d9f7 553e 134d 79bd 15c4 263e
000003b0: c591 31bd 9f6e 453c db07 623e 4380 003d
000003c0: e46b a43e 4cb1 4fbc 9084 093c 2ead ec3c
000003d0: 82c3 923d 5a19 bfbc 1ff3 593e fe62 6cbc
000003e0: cd86 3c3c 595f a93d 54f1 603d 9959 28be
000003f0: b60f 0b3e aea9 00be d42f 6d3e 9392 d93d

lin2.bias f4 [64]
-0.0039202278 -0.0056844493 0.057596512 -0.005444584 -0.057178997 -0.0614775 0.13538532 0.122996636
-0.18542835 -0.0331112 0.118099555 0.14849642 0.057818722 -0.16672814 -0.010594365 -0.02697999
0.15401052 0.045402054 -0.00072632194 0.09230854 0.0065774187 0.0017464474 0.07686651 -0.05260209
-0.12524514 0.14184575 0.070836335 0.071581595 -0.094313174 0.017158326 0.045406625 0.05987486
0.14984393 0.045784887 0.23263101 0.007623082 -0.16126554 -0.078566246 -0.040003374 -0.11174302
0.047906652 -0.0047412356 0.065986164 -0.07770893 0.26921234 -0.017736789 -0.14713497 0.029645296
-0.020883733 0.09142448 0.0684776 0.111137964 -0.0673007 0.018850498 -0.08707816 0.13994756
-0.04125211 0.014562329 -0.14506948 -0.1302494 0.15346088 0.11054846 0.065585315 0.0964177
00000000: 4175 80bb 9e44 babb 52ea 6b3d 7b68 b2bb
00000010: 8634 6abd d5cf 7bbd 73a2 0a3e a9e5 fb3d
00000020: eee0 3dbe 9c9f 07bd 2ede f13d 720f 183e
00000030: 53d3 6c3d c8ba 2abe fd93 2dbc 2405 ddbc
00000040: efb4 1d3e 81f7 393d a466 3eba 430c bd3d
00000050: 6387 d73b 0de9 e43a 306c 9d3d 4a75 57bd
00000060: 4340 00be 0340 113e a412 913d 5f99 923d
00000070: 4427 c1bd 9e8f 8c3c 4cfc 393d 573f 753d
00000080: b070 193e ef88 3b3d d336 6e3e 0ccb f93b
00000090: cb22 25be 57e7 a0bd 94da 23bd 86d9 e4bd
000000a0: c439 443d 5e5c 9bbb c123 873d dc25 9fbd
000000b0: 33d6 893e be4c 91bc 8daa 16be b1da f23c
000000c0: 5d14 abbc c23c bb3d fc3d 8c3d 4d9c e33d
000000d0: f3d4 89bd 5c6c 9a3c 0956 b2bd 6a4e 0f3e
000000e0: f9f7 28bd d696 6e3c 188d 14be 1960 05be
000000f0: d924 1d3e 3b67 e23d 9851 863d a576 c53d

lin3.weight f4 [64, 64]
-0.171791 -0.023904305 -0.20047246 0.05881594 -0.00025357824 -0.009730462 0.075380325 -0.11001891
-0.04571258 0.21832715 -0.1360691 -0.71673447 -0.14193574 -0.14422354 0.09726242 -0.19551815
-0.1877098 -0.18188763 -0.29897332 0.056611292 -0.13549961 0.598896 -0.8040862 -0.18797836
-0.060221806 -0.1665573 -0.55821264 -0.40021527 -0.47118068 -0.1625635 -0.05272887 0.04951682
-0.23141173 -0.17793053 -0.11191303 -0.19591413 0.063659616 -0.020627413 0.28766698 -0.21131998
0.020628775 0.38125923 0.048537616 0.32150847 0.11005367 0.032057572 -0.11312218 0.23976856
0.13279799 -0.16485825 0.06942725 -0.025870949 -0.23973091 0.030748937 0.09672708 0.40974987
0.18047075 0.14134519 0.12242115 0.02563847 0.23046878 -0.04594265 0.14386363 -0.28511214
-0.11914352 -0.030774165 0.027385153 0.08957852 0.121233 0.08642405 -0.025564764 0.32339022
-0.03344179 -0.06251664 -0.083172545 -0.14435884 0.14976227 -0.0043303925 0.064458705 -0.07605987
0.09122465 0.024978397 0.05298738 0.004909588 -0.035007328 0.007031562 0.07294458 -0.13970412
-0.2219266 -0.10889189 0.00032600993 0.04274117 -0.055626333 0.0012631033 -0.04955377 0.111529134
0.032655805 -0.0061708954 -0.07594334 0.038593423 -0.059689283 -0.018336052 -0.13448882 -0.1594425
0.045719065 -0.14430027 0.013140597 0.25745898 0.04496362 -0.27473894 0.011137664 0.05340872
-0.27275437 -0.009351884 -0.035915054 -0.014380065 0.06590741 0.028210564 -0.04451638 0.18097375
-0.036721848 0.027015312 -0.011786887 -0.11239424 0.17165835 0.24362417 0.008017179 0.052195996
-0.11848778 0.024126045 -0.09378616 -0.08440553 0.11069619 0.0833454 -0.03128402 0.14612824
-0.05304784 0.1600868 -0.10044582 -0.34214172 -0.02400671 0.19723953 0.06840682 0.14280026
-0.1296783 0.12664947 0.0007379505 -0.0700309 -0.020546386 -0.2631307 -0.0300815 -0.26002488
0.2346994 -0.096683584 0.028671715 -0.120296896 0.026953585 0.11584332 -0.14040828 0.0025658265
0.17800292 0.10502251 -0.2744947 -0.034002505 0.15987252 0.26521423 -0.044217464 0.32159227
0.21496822 0.12810412 -0.19771072 -0.074745625 -0.06263197 0.172353 0.058069736 0.080958
-0.05609587 0.35162985 0.07578828 -0.19088873 -0.11300736 0.067551225 0.14271681 -0.0726328
-0.20325802 0.2594564 0.04643969 0.14618517 -0.10200234 0.2201858 0.11946726 -0.16224201
0.040950716 -0.18321513 0.048941247 0.07637935 -0.11967152 -0.012351304 0.00031819002 -0.07226372
-0.07620337 -0.14998934 0.09957677 -0.10802416 -0.112666465 -0.03088008 -0.11299003 -0.1314496
0.13943353 0.020850664 0.23690061 0.08256478 0.13891354 -0.043523 0.302299 0.18569022
-0.16203132 -0.067146175 0.066895425 -0.32992175 0.06952917 0.01758034 0.05857769 0.0675851
-0.09860852 0.11210497 -0.021343641 -0.121056646 0.056763127 -0.19246033 -0.121370696 -0.11580275
-0.40063933 -0.18360777 0.2090898 -0.108091645 -0.036808748 0.2132381 -0.116957195 -0.10781636
-0.28019077 -0.06880156 -0.07084679 0.17830127 -0.07073479 -0.15533349 -0.1607717 -0.37285104
-0.11447819 -0.0046283957 -0.0003606229 0.048919443 0.011159477 0.05016348 0.0005561197 0.13867317
00000000: fbe9 2fbe f6d2 c3bc a748 4dbe fce8 703d
00000010: b2f2 84b9 846c 1fbc 0061 9a3d 9851 e1bd
00000020: 1d3d 3bbd 2791 5f3e b355 0bbe e97b 37bf
00000030: 9a57 11be 56af 13be 8531 c73d e935 48be
00000040: ff36 40be c040 3abe 0813 99be 3ee1 673d
00000050: 69c0 0abe 4051 193f 98d8 4dbf 667d 40be
00000060: 24ab 76bd ff8d 2abe 06e7 0ebf 04e9 ccbe
00000070: 983e f1be 0c77 26be 3afa 57bd 26d2 4a3d
00000080: 32f7 6cbe 6c33 36be a932 e5bd b79d 48be
00000090: f95f 823d d2fa a8bc 1649 933e 4464 58be
000000a0: adfd a83c 6934 c33e 61cf 463d c29c a43e
000000b0: d263 e13d cd4e 033d 9aac e7bd e485 753e
000000c0: 32fc 073e 9ad0 28be e02f 8e3d 50ef d3bc
000000d0: 057c 75be 32e5 fb3c d918 c63d bcca d13e
000000e0: 53cd 383e cbbc 103e f1b7 fa3d c507 d23c
000000f0: 0200 6c3e 5c2e 3cbd fd50 133e 38fa 91be
00000100: 8501 f4bd 1a1a fcbc d456 e03c f174 b73d
00000110: 0249 f83d 18ff b03d 326d d1bc 6793 a53e
00000120: 42fa 08bd b908 80bd 5e56 aabd ced2 13be
00000130: 485b 193e f7e5 8dbb ed02 843d 47c5 9bbd
00000140: fdd3 ba3d 7f9f cc3c 4c09 593d 9ce0 a03b
00000150: d863 0fbd 0469 e63b f863 953d 990e 0fbe
00000160: ba40 63be b602 dfbd 50ec aa39 5d11 2f3d
00000170: 70d8 63bd b78e a53a e5f8 4abd 6369 e43d
00000180: 18c2 053d 3935 cabb 2f88 9bbd 2314 1e3d
00000190: c07c 74bd 7d35 96bc 70b7 09be e544 23be
000001a0: ea43 3b3d 73c3 13be a94b 573c aad1 833e
000001b0: c62b 383d 95aa 8cbe c07a 363c 1ac3 5a3d
000001c0: 76a6 8bbe a538 19bc aa1b 13bd 5d9a 6bbc
000001d0: 77fa 863d d719 e73c cf56 36bd 2f51 393e
000001e0: a669 16bd 374f dd3c ca1d 41bc f42e e6bd
000001f0: 35c7 2f3e 9d78 793e 7c5a 033c 78cb 553d
00000200: b9a9 f2bd fca3 c53c f512 c0bd cedc acbd
00000210: afb4 e23d feb0 aa3d ac23 00bd a4a2 153e
00000220: b148 59bd cbed 233e 8ab6 cdbd 332d afbe
00000230: b8a9 c4bc 29f9 493e e018 8c3d 3b3a 123e
00000240: 63ca 04be 66b0 013e 0573 413a 5c6c 8fbd
00000250: e550 a8bc 11b9 86be 7a6d f6bc fb21 85be
00000260: 0a55 703e 0b02 c6bd f2e0 ea3c 385e f6bd
00000270: c4cd dc3c 433f ed3d 30c7 0fbe 6d27 283b
00000280: 6646 363e 0b16 d73d 928a 8cbe 3646 0bbd
00000290: 9fb5 233e 29ca 873e 5f1d 35bd bea7 a43e
000002a0: a120 5c3e ba2d 033e ae74 4abe 3c14 99bd
000002b0: 3145 80bd 4e7d 303e 88da 6d3d 4fcd a53d
000002c0: c8c4 65bd d408 b43e e336 9b3d 5678 43be
000002d0: 6770 e7bd 4c58 8a3d 5b24 123e 81c0 94bd
000002e0: df22 50be 78d7 843e 8b37 3e3d 91b1 153e
000002f0: 9ae6 d0bd 6378 613e 40ab f43d c522 26be
00000300: f0bb 273d bf9c 3bbe 9e76 483d c76c 9c3d
00000310: 5816 f5bd 205d 4abc bed2 a639 00ff 93bd
00000320: 8310 9cbd ce96 19be e8ee cb3d c53b ddbd
00000330: adbd e6bd 39f8 fcbc 5167 e7bd b99a 06be
00000340: aac7 0e3e 03cf aa3c 1396 723e b917 a93d
00000350: 5a3f 0e3e 2c45 32bd efc6 9a3e 9425 3e3e
00000360: 8aeb 25be ef83 89bd 7800 893d 81eb a8be
00000370: 4f65 8e3d a504 903c 29ef 6f3d 0f6a 8a3d
00000380: 44f3 c9bd 4a97 e53d dcd8 aebc 8cec f7bd
00000390: 7480 683d 5214 45be 3391 f8bd fe29 edbd
000003a0: 9920 cdbe ad03 3cbe a31b 563e 275f ddbd
000003b0: c5c4 16bd 175b 5a3e 4187 efbd d3ce dcbd
000003c0: 2a75 8fbe d5e7 8cbd 1f18 91bd 9c94 363e
000003d0: 67dd 90bd be0f 1fbe 56a1 24be 55e6 bebe
000003e0: 8b73 eabd cca9 97bb fc11 bdb9 c15f 483d
000003f0: 3dd6 363c 3978 4d3d 90c8 113a 5700 0e3e

lin3.bias f4 [64]
0.047149815 -0.066673785 -0.18246908 0.026725242 -0.27719212 -0.011522789 -0.24455199 -0.19411287
-0.068683885 -0.087599434 0.17585574 -0.006995857 0.1503506 -0.028970828 -0.03766119 -0.21051507
0.064941965 0.061864868 0.12399198 -0.084701076 0.07398587 -0.051797677 -0.061241843 -0.1168807
0.023788197 -0.10733875 -0.14150888 -0.032383926 0.0056070373 -0.12621574 0.0783892 -0.17027749
-0.1909008 0.06267525 0.14439 0.19066434 -0.15239695 0.07500731 -0.09360195 0.090998255
-0.035600353 -0.09732347 0.2083687 0.16483097 -0.21555558 -0.009257981 0.060460165 -0.14712654
-0.16711992 0.20776564 0.14262924 -0.13190682 0.04058511 -0.17645298 0.094916694 0.19539265
0.13491623 -0.21435867 0.004106577 0.121091425 -0.047053095 -0.17545573 -0.23789482 -0.23550072
00000000: 2a20 413d 448c 88bd 2dd9 3abe e5ee da3c
00000010: 20ec 8dbe 14ca 3cbc d66b 7abe 86c5 46be
00000020: 23aa 8cbd 5567 b3bd 8713 343e 813d e5bb
00000030: 82f5 193e 3b54 edbc 9f42 1abd 4391 57be
00000040: 4b00 853d 0466 7d3d 82ef fd3d c277 adbd
00000050: e785 973d cd29 54bd bad8 7abd 265f efbd
00000060: 77df c23c 6bd4 dbbd b4e7 10be 02a5 04bd
00000070: 3dbb b73b b33e 01be 848a a03d 395d 2ebe
00000080: 807b 43be e25b 803d f9da 133e 833d 433e
00000090: f20d 1cbe 6f9d 993d 61b2 bfbd 4b5d ba3d
000000a0: add1 11bd 8751 c7bd 9b5e 553e 73c9 283e
000000b0: 9aba 5cbe c9ae 17bc 14a5 773d 57a8 16be
000000c0: 7c21 2bbe 84c0 543e 660d 123e 9512 07be
000000d0: 933c 263d 17b0 34be af63 c23d 0315 483e
000000e0: 7b27 0a3e d780 5bbe 7790 863b c8fe f73d
000000f0: bfba 40bd abaa 33be b39a 73be 1a27 71be

lin4.weight f4 [64, 64]
0.054495607 -0.0026478777 -0.110459484 -0.019945981 0.10688605 -0.56055766 -0.16367547 -0.07151725
0.22694755 -0.21340573 0.04188223 -0.08318155 -0.088109426 -0.030697994 -0.2686746 -0.19113357
-0.03746479 -0.15410338 -0.099495806 -0.055650357 -0.187057 -0.08256415 -0.026233165 0.17916162
0.08820086 -0.17905185 -0.13913956 0.040949065 -0.09561711 0.082438394 -0.02213494 0.022116067
0.027195847 -0.13759224 0.3083285 0.049676254 0.062458016 0.099543475 0.21115847 0.10795989
-0.1794285 -0.16560388 0.08990308 0.18703409 0.035007246 -0.17961912 -0.075274035 -0.33364826
0.022298051 0.14530611 0.08069476 -0.07125294 -0.13661072 -0.110899396 0.005055322 -0.26235583
0.030578703 -0.07957 0.048005108 0.099216454 0.13551733 0.21535468 -0.14184858 0.08377212
-0.10761189 -0.07135725 -0.07462397 0.1793114 0.060583193 -0.061593883 -0.10453389 -0.10273118
-0.102610126 -0.09702753 -0.014050594 0.026016174 0.16584171 -0.006882183 -0.121663816 -0.058110066
-0.08784317 -0.054954704 -0.069708526 0.02964486 -0.08745673 -0.082089104 0.060108155 0.049346417
0.14589362 -0.07177806 -0.035626907 -0.16366045 -0.07702776 -0.0028061585 0.10722745 0.055499833
-0.119352244 0.077747226 0.0066431505 0.13395369 -0.17332 -0.0834221 0.06982321 -0.02506197
-0.1563063 0.033756018 0.13237609 -0.017680889 0.102206215 -0.20805587 -0.05396161 -0.07580383
-0.12460214 1.9797953e-05 0.039981436 -0.041477613 0.033366248 0.03284655 0.0018697261 0.028866868
0.15787981 0.053693444 0.018937213 0.0047532376 0.010472879 0.15513751 -0.05532706 -0.0061496766
-0.07636831 -0.0047575766 0.10582057 -0.15163943 -0.04420511 0.1397648 0.030084824 0.11400729
0.04932735 0.017890455 0.03782594 0.097474635 -0.094112985 -0.03355242 -0.0067072865 0.021551464
-0.11506989 0.010657447 0.024980152 0.06244013 0.1400616 0.022540106 0.052266274 -0.090741694
-0.1967255 0.091379166 0.13418381 0.019697802 0.10337891 0.074064136 0.021423545 0.09271402
0.07666198 0.0072568334 -0.012025825 0.017609097 0.0031440463 -0.0023960238 -0.20934053 -0.09868639
0.0494473 -0.023108078 -0.07333016 -0.17693818 -0.07960267 0.08229638 -0.1087549 0.0052006533
-0.04387002 0.029810969 -0.09822677 -0.031130694 -0.07978613 0.006212289 -0.015041612 0.14066392
-0.115213715 -0.035056934 -0.1668553 -0.1198463 0.14531313 -0.19318476 -0.00663988 0.15518838
-0.14553185 -0.0677996 0.0018780463 0.17570812 0.0036478627 0.10762843 -0.10166669 -0.044208415
-0.07997155 0.054684557 0.03330761 -0.025928764 0.18500511 -0.12691785 -0.013980567 -0.06402722
0.03561798 -0.011492535 -0.08529511 0.08304389 -0.19223393 -0.021333015 -0.030370733 0.0440983
0.05453082 -0.08837803 -0.06281897 0.055155944 -0.117105596 -0.09033759 0.021135686 -0.119724646
-0.16727158 -0.13872768 -0.0078003826 0.095526665 -0.06220976 0.095684245 0.024112813 0.020674203
0.054433092 0.093495384 0.09621518 0.10438527 -0.1533572 -0.15441558 -0.03286805 -0.082165785
0.056596763 0.10517157 0.018412678 -0.09872509 -0.010865968 -0.13316087 -0.001094908 0.035592336
0.089021906 -0.06763918 -0.060414713 0.0024680942 -0.01659537 0.15590099 -0.085017435 -0.20302407
00000000: c936 5f3d 0488 2dbb 9538 e2bd c165 a3bc
00000010: 13e7 da3d b580 0fbf 8b9a 27be a377 92bd
00000020: f064 683e 0887 5abe b48c 2b3d 175b aabd
00000030: b772 b4bd 5c7a fbbc b88f 89be 85b8 43be
00000040: ae74 19bd 47cd 1dbe 75c4 cbbd a1f1 63bd
00000050: df8b 3fbe 6517 a9bd efe6 d6bc 2576 373e
00000060: a7a2 b43d 5e59 37be 9a7a 0ebe 35ba 273d
00000070: e7d2 c3bd 76d5 a83d 5554 b5bc c12c b53c
00000080: d3c9 de3c fbe4 0cbe 3cdd 9d3e 5479 4b3d
00000090: fad3 7f3d 73dd cb3d ed39 583e 131a dd3d
000000a0: 1bbc 37be 1094 29be 1b1f b83d dd85 3f3e
000000b0: c263 0f3d 13ee 37be 4629 9abd f2d3 aabe
000000c0: 67aa b63c 20cb 143e 4b43 a53d 10ed 91bd
000000d0: aee3 0bbe 391f e3bd 1da7 a53b 8153 86be
000000e0: 3080 fa3c 99f5 a2bd 01a1 443d ff31 cb3d
000000f0: 0ec5 0a3e f085 5c3e c140 11be b890 ab3d
00000100: 9f63 dcbd c023 92bd 74d4 98bd 689d 373e
00000110: 1526 783d de49 7cbd dd15 d6bd ba64 d2bd
00000120: 4225 d2bd 5fb6 c6bd 7634 66bc df1f d53c
00000130: 69d2 293e ef83 e1bb e12a f9bd d204 6ebd
00000140: 1fe7 b3bd 2f18 61bd 58c3 8ebd c7d9 f23c
00000150: 841c b3bd 551e a8bd f833 763d 781f 4a3d
00000160: 2365 153e 6000 93bd 85ed 11bd 9b96 27be
00000170: bbc0 9dbd 87e7 37bb 119a db3d cb53 633d
00000180: f36e f4bd f039 9f3d c9ae d93b 282b 093e
00000190: cc7a 31be 35d9 aabd 79ff 8e3d c34e cdbc
000001a0: c20e 20be c043 0a3d 998d 073e 83d7 90bc
000001b0: 7e51 d13d 990c 55be d906 5dbd 0a3f 9bbd
000001c0: 682f ffbd c813 a637 93c3 233d 6ee4 29bd
000001d0: 0cab 083d 1b8a 063d 9911 f53a 367a ec3c
000001e0: 3fab 213e a8ed 5b3d 3722 9b3c 0cc1 9b3b
000001f0: 7096 2b3c 5edc 1e3e a19e 62bd 3a83 c9bb
00000200: fd66 9cbd 72e5 9bbb 74b8 d83d 5e47 1bbe
00000210: 6b10 35bd 811e 0f3e 7374 f63c a77c e93d
00000220: 7a0b 4a3d 018f 923c 5fef 1a3d c8a0 c73d
00000230: 4fbe c0bd 436e 09bd ccc8 dbbb b28c b03c
00000240: c3a9 ebbd 939c 2e3c 2da3 cc3c 39c1 7f3d
00000250: 4f6c 0f3e 07a6 b83c 2915 563d c8d6 b9bd
00000260: 6972 49be 0025 bb3d 7b67 093e 495d a13c
00000270: 52b8 d33d f0ae 973d 6e80 af3c d9e0 bd3d
00000280: f500 9d3d bbca ed3b f707 45bc f440 903c
00000290: 580c 4e3b 9c06 1dbb 5d5d 56be 171c cabd
000002a0: 4189 4a3d 274d bdbc 1f2e 96bd 482f 35be
000002b0: ba06 a3bd 018b a83d e4ba debd 3e6a aa3b
000002c0: 0db1 33bd 2236 f43c 1e2b c9bd cc05 ffbc
000002d0: e966 a3bd 7590 cb3b 1871 76bc 340a 103e
000002e0: 2bf5 ebbd dc97 0fbd 1edc 2abe fa71 f5bd
000002f0: f7cc 143e 3ad2 45be 5a93 d9bb b4e9 1e3e
00000300: 4d06 15be 84da 8abd c728 f63a d4ec 333e
00000310: fb10 6f3b 4b6c dc3d a036 d0bd e213 35bd
00000320: 20c8 a3bd eafc 5f3d 8f6d 083d 8f68 d4bc
00000330: fb71 3d3e c1f6 01be c00e 65bc b420 83bd
00000340: 29e4 113d 2f4b 3cbc 34af aebd ea12 aa3d
00000350: f9d8 44be 93c2 aebc 0bcc f8bc 6ba0 343d
00000360: b65b 5f3d 8aff b4bd 3ba7 80bd 33eb 613d
00000370: 0fd5 efbd ea02 b9bd bf24 ad3c 3232 f5bd
00000380: 3e49 2bbe a10e 0ebe 5a9a ffbb 7ca3 c33d
00000390: a9cf 7ebd 1af6 c33d 3c88 c53c f25c a93c
000003a0: 3cf5 5e3d 827a bf3d 770c c53d f2c7 d53d
000003b0: ab09 1dbe 1e1f 1ebe a6a0 06bd 8946 a8bd
000003c0: 02d2 673d 3164 d73d 2fd6 963c 6130 cabd
000003d0: 2c07 32bc 535b 08be 0483 8fba 45c9 113d
000003e0: 1e51 b63d 6986 8abd 6b75 77bd c0bf 213b
000003f0: 03f3 87bc 82a4 1f3e 9f1d aebd 8be5 4fbe

lin4.bias f4 [64]
0.0230495 0.118786775 -0.050411105 0.057529908 -0.05383901 0.14917503 0.058650706 0.06520305
0.09460033 -0.021255363 -0.19919097 0.008681984 -0.10172905 -0.14806266 -0.072344445 -0.010620363
0.06902233 -0.04845096 0.074574895 0.19385906 0.01629355 0.19883554 0.004954716 -0.16808341
0.11567659 -0.12579995 -0.025780143 -0.07460007 0.22173916 0.08470378 -0.040540695 0.15967773
-0.06979739 0.07823916 -0.03510174 0.1735559 -0.032216553 0.047292344 -0.19455276 -0.100080684
0.2616012 0.0747477 0.022414915 0.26750642 -0.07919807 -0.058284637 -0.03131644 -0.17449379
-0.0011141498 -0.15485074 -0.050264187 0.14880711 -0.021080337 0.1720521 -0.22949524 -0.18255374
0.05148378 0.036018863 0.0339079 0.099056624 -0.109154545 0.034906134 -0.1527341 0.1544369
00000000: 4ed2 bc3c 7b46 f33d e07b 4ebd 7ba4 6b3d
00000010: 4b86 5cbd 57c1 183e b93b 703d 2d89 853d
00000020: d1bd c13d ba1f aebc b8f8 4bbe e13e 0e3c
00000030: 5257 d0bd bd9d 17be 5329 94bd 0801 2ebc
00000040: 945b 8d3d 8474 46bd b9ba 983d fd82 463e
00000050: 0d7a 853c 8b9b 4b3e 2c5b a23b 0f1e 2cbe
00000060: d9e7 ec3d b4d1 00be e130 d3bc ecc7 98bd
00000070: 970f 633e 2d79 ad3d 000e 26bd 8f82 233e
00000080: eff1 8ebd da3b a03d d8c6 0fbd a3b8 313e
00000090: 81f5 03bd 9eb5 413d d738 47be 1af7 ccbd
000000a0: 98f0 853e 5215 993d 7c9f b73c 9af6 883e
000000b0: 9932 a2bd dfbb 6ebd ab45 00bd 80ae 32be
000000c0: aa08 92ba 3191 1ebe d2e1 4dbd e460 183e
000000d0: acb0 acbc 6d2e 303e cd00 6bbe 5eef 3abe
000000e0: a8e0 523d 8488 133d 03e3 0a3d 33de ca3d
000000f0: 6b8c dfbd bcf9 0e3d 5466 1cbe b524 1e3e

lin5.weight f4 [1, 64]
-0.12791684 -0.040126774 0.015904061 -0.038410053 0.2370796 -0.076930895 0.0118374545 -0.13717173
0.69585663 0.12286717 0.25411016 0.10415618 0.15135847 0.17671798 -0.16648145 0.5159629
-0.06231327 -0.051359355 -0.101404816 -0.16343026 -0.62352574 -0.077054225 -0.04314475 0.23444444
-0.046681926 0.09950552 0.13800676 0.08055464 -0.15531857 -0.008848237 -0.0038002054 0.6477671
0.1839846 0.11604011 -0.26869795 -0.16541314 0.0014498705 0.09742681 0.16236003 0.13127379
-0.1196437 -0.102533825 0.04034291 -0.103531875 0.006768971 0.09343201 -0.18518373 0.17079446
-0.0398484 0.044234782 0.0054836855 -0.167158 -0.2285242 -0.11715861 0.25667572 0.18937922
-0.45266148 0.08060788 0.02018764 -0.20212226 -0.35473052 0.095536605 0.06531179 -0.22149624
00000000: a2fc 02be f95b 24bd 3c49 823c dc53 1dbd
00000010: ffc4 723e f28d 9dbd e2f1 413c bf76 0cbe
00000020: a923 323f c8a1 fb3d ba1a 823e d64f d53d
00000030: b7fd 1a3e 8ff5 343e 1d7a 2abe 2516 043f
00000040: 333c 7fbd 305e 52bd 54ad cfbd 435a 27be
00000050: 629f 1fbf 9bce 9dbd 8db8 30bd 3412 703e
00000060: 8c35 3fbd 8dc9 cb3d a551 0d3e d5f9 a43d
00000070: d50b 1fbe 32f8 10bc de0c 79bb 11d4 253f
00000080: 7566 3c3e 70a6 ed3d c792 89be 1062 29be
00000090: 9509 be3a b587 c73d b541 263e a36c 063e
000000a0: c207 f5bd 41fd d1bd 9b3e 253d 8508 d4bd
000000b0: 3fce dd3b 4859 bf3d cea0 3dbe bee4 2e3e
000000c0: 1338 23bd 882f 353d 7db0 b33b 772b 2bbe
000000d0: 3f02 6abe daf0 efbd 006b 833e a0ec 413e
000000e0: 3fc3 e7be bf15 a53d 8d60 a53c 23f9 4ebe
000000f0: 3d9f b5be b2a8 c33d 30c2 853d e9cf 62be

exp_avg f4 [5, 2]
0.0078018336 0.005889607 -0.004554969 -0.0045780763 -0.0014557163 0.0067991605 -0.020193992 -0.0076580825
0.011780778 0.0021130422
00000000: 86a6 ff3b 9bfd c03b d941 95bb b003 96bb
00000010: bccd beba 7ecb de3b df6d a5bc a7f0 fabb
00000020: 2a04 413c f77a 0a3b

exp_avg_sq f4 [5, 2]
0.009973653 0.010063667 0.0019203672 0.0062656146 0.020373117 0.044047207 0.068181865 0.0061194557
0.034200236 0.0011305193
00000000: 8868 233c 14e2 243c d5b4 fb3a c94f cd3b
00000010: 86e5 a63c d86a 343d efa2 8b3d b785 c83b
00000020: 8c15 0c3d ef2d 943a

exp_avg f4 [64, 10]
-1.2454101e-05 -1.480327e-06 -0.00013494561 -0.000163846 2.5586141e-05 -0.00011972887 6.586475e-05 -0.00012526255
5.1163915e-05 -5.520917e-05 -9.540285e-05 -5.947368e-07 5.7308884e-05 -4.490027e-05 6.9636495e-05 -8.658055e-05
2.5392255e-05 -2.4332774e-05 -5.1486262e-05 -2.0539965e-05 -9.826269e-05 -6.308479e-05 0.00010014083 -7.153776e-06
-2.6277849e-07 1.8870116e-05 -2.4128218e-05 2.487024e-05 -6.571981e-05 -2.8739196e-05 2.2268572e-05 -2.3474138e-05
-1.5420712e-05 4.882655e-06 -1.4509545e-05 1.3697554e-05 -4.1227986e-06 -2.781177e-06 1.6201893e-05 9.684272e-06
3.405632e-05 4.150288e-06 -5.7079e-05 -1.997609e-05 -1.9142288e-05 4.643179e-05 2.1749005e-05 -8.703161e-05
4.2067873e-05 5.7455327e-07 -8.939265e-06 -9.8243356e-05 -4.2501633e-05 -6.4195534e-05 -1.16527535e-05 -9.649576e-05
-1.9440158e-05 6.145252e-05 -0.00013643083 -7.621161e-05 -2.3004588e-05 6.093878e-05 3.6444326e-05 2.2882585e-05
1.6205762e-05 2.3614066e-05 -3.4922268e-06 -9.81046e-06 8.166181e-05 3.4291712e-05 0.00013159323 -0.00010188785
-0.00021493869 -0.00012379278 -0.00011253733 4.6371286e-05 -3.6313915e-05 -2.4867928e-05 2.373253e-05 -3.134415e-05
4.873277e-05 -2.8121882e-05 -4.166909e-05 -1.0988265e-05 -3.1443007e-05 2.4219957e-05 -5.8929756e-05 -3.7852901e-06
7.000298e-05 -1.5307432e-05 6.2817344e-05 5.318931e-05 6.0145467e-05 9.509455e-05 -0.00010396702 0.00015825749
-0.000101471596 1.2940956e-05 0.00014934613 1.5799014e-06 3.921512e-06 1.3228919e-05 7.3386924e-05 8.373805e-05
-4.2608517e-05 7.977063e-05 -5.5477758e-05 4.1177682e-05 6.6539586e-05 9.565334e-06 -3.9476916e-05 1.3576124e-05
0.00010922406 3.977899e-05 3.797573e-05 2.3924396e-05 6.735497e-05 1.8404618e-05 -0.00015783764 4.8211972e-05
4.87193e-05 -1.8154962e-05 -8.90417e-05 -5.319454e-05 -2.889585e-05 8.066618e-07 1.5493071e-05 -3.7600166e-05
4.0596533e-06 -1.360212e-05 -8.554877e-05 -2.6485735e-05 0.00010809653 2.7968897e-05 9.047149e-06 -1.0503705e-05
7.6297165e-06 6.7262285e-05 -0.0001023679 9.947196e-06 2.9291068e-05 -1.552258e-05 1.0479653e-06 2.1010761e-05
-4.34324e-05 1.4035104e-06 -7.596835e-05 8.058988e-05 4.7246718e-05 -3.587095e-05 -8.8314126e-05 8.471701e-05
0.0002210294 0.00012681267 4.434207e-05 -4.9076076e-05 -1.9205516e-05 0.000116407464 -0.00011292683 3.5132825e-06
0.00010527269 -6.7924357e-06 5.2513766e-05 9.974703e-05 -0.00015503351 0.00019978585 -0.00018301983 5.5579985e-05
0.0002003946 -2.0081206e-05 7.2699775e-05 -2.7772972e-05 -0.00011499604 -3.686072e-05 -2.2789363e-06 -5.237804e-05
-2.5514644e-05 3.4146542e-05 1.552432e-06 -4.0222716e-05 5.3640062e-05 6.530339e-05 2.1250149e-05 5.713512e-05
-2.6449994e-05 5.5503904e-05 -6.324995e-05 3.3236465e-05 8.840132e-05 1.1299049e-05 4.2092768e-05 6.867529e-05
9.91701e-05 0.00014303096 -6.20943e-05 0.00014789312 -5.1503892e-05 2.4949954e-05 5.2473053e-05 7.299306e-05
8.0904785e-05 -3.161127e-05 -8.069677e-05 -4.8813974e-05 -3.7505277e-05 -6.328545e-05 -3.3587487e-05 3.955346e-05
-4.116193e-05 -6.055524e-05 -3.622508e-05 6.9580914e-05 0.00013083172 8.057809e-05 3.1363843e-06 -2.8566214e-05
-5.641068e-07 5.637109e-05 -3.1991058e-05 1.6359396e-05 -9.1167676e-05 -1.167812e-05 9.039137e-05 -2.9384519e-06
2.4284345e-05 -4.29691e-05 4.2505886e-05 2.8526898e-05 -0.00010077424 1.0180527e-05 -0.00010888968 0.00012684763
0.0002069664 0.0001364568 6.243744e-05 9.6523465e-05 4.590806e-05 -6.214253e-05 5.2145737e-05 9.991147e-05
3.8286496e-05 -3.461943e-05 -9.464963e-05 -7.021611e-05 -3.0568037e-05 -3.5347268e-05 -2.520199e-05 -9.856318e-06
6.9272224e-05 -4.6150064e-05 -5.8474296e-05 -6.5513086e-05 1.3790144e-05 -2.7940203e-05 -4.1473786e-06 1.1494658e-05
00000000: f5f1 50b7 a6af c6b5 3080 0db9 13ce 2bb9
00000010: d2a1 d637 f316 fbb8 de20 8a38 e958 03b9
00000020: d698 5638 6590 67b8 0413 c8b8 00a6 1fb5
00000030: f25e 7038 4c53 3cb8 cf09 9238 9492 b5b8
00000040: 7401 d537 3c1e ccb7 f4f2 57b8 3d4d acb7
00000050: 6112 ceb8 644c 84b8 b302 d238 780a f0b6
00000060: 0014 8db4 444b 9e37 f466 cab7 6fa0 d037
00000070: 0ed3 89b8 f414 f1b7 65cd ba37 54ea c4b7
00000080: ba5b 81b7 b0d5 a336 056e 73b7 8cce 6537
00000090: 9256 8ab6 42a4 3ab6 4de9 8737 a279 2237
000000a0: b2d7 0e38 b442 8b36 1c68 6fb8 5492 a7b7
000000b0: c093 a0b7 c1bf 4238 a271 b637 bd84 b6b8
000000c0: 0972 3038 003b 1a35 daf9 15b7 0008 ceb8
000000d0: c843 32b8 b7a0 86b8 3280 43b7 c45d cab8
000000e0: 6c13 a3b7 12e0 8038 df0e 0fb9 ccd3 9fb8
000000f0: faf9 c0b7 8498 7f38 ccdb 1838 faf3 bf37
00000100: 9cf1 8737 d216 c637 005c 6ab6 9b97 24b7
00000110: da41 ab38 72d4 0f38 4afc 0939 9fac d5b8
00000120: 2a61 61b9 5fce 01b9 0502 ecb8 ca7e 4238
00000130: c54f 18b8 789b d0b7 3815 c737 8677 03b8
00000140: 6a66 4c38 48e7 ebb7 d8c5 2eb8 3d5a 38b7
00000150: ace1 03b8 f62b cb37 582b 77b8 ca06 7eb6
00000160: 90ce 9238 7668 80b7 cebc 8338 9617 5f38
00000170: b444 7c38 7f6d c738 de08 dab8 ecf1 2539
00000180: 26cd d4b8 fc1c 5937 cc99 1c39 000d d435
00000190: 8895 8336 c6f1 5d37 4ee7 9938 869c af38
000001a0: 8cb6 32b8 884a a738 cab0 68b8 33b6 2c38
000001b0: 2b8b 8b38 cc7a 2037 0494 25b8 02c5 6337
000001c0: 390f e538 5ed8 2638 2148 1f38 40b1 c837
000001d0: ed40 8d38 9e63 9a37 3881 25b9 3637 4a38
000001e0: f357 4c38 7c4b 98b7 e6bb bab8 341d 5fb8
000001f0: 5e65 f2b7 6089 5835 1ef7 8137 dfb4 1db8
00000200: 2838 8836 a934 64b7 a568 b3b8 af2d deb7
00000210: e2b1 e238 c09e ea37 36c9 1737 1239 30b7
00000220: 6201 0037 2a0f 8d38 59ae d6b8 e2e2 2637
00000230: 17b6 f537 7d36 82b7 d0a7 8c35 4440 b037
00000240: 2f2b 36b8 4060 bc35 3351 9fb8 5d02 a938
00000250: c72a 4638 2474 16b8 4935 b9b8 19aa b138
00000260: 21c4 6739 04f9 0439 effb 3938 09d7 4db8
00000270: 881b a1b7 c81f f438 21d3 ecb8 bcc5 6b36
00000280: d8c5 dc38 94ea e3b6 3a42 5c38 472f d138
00000290: 7e90 22b9 9b7d 5139 03e9 3fb9 8e1e 6938
000002a0: 0421 5239 1074 a8b7 6576 9838 01fa e8b7
000002b0: 072a f1b8 e69a 1ab8 d4ef 18b6 7eb0 5bb8
000002c0: 4808 d6b7 9238 0f38 285d d035 d0b4 28b8
000002d0: 94fb 6038 7ef3 8838 5942 b237 5ea4 6f38
000002e0: eee0 ddb7 ddcc 6838 0fa5 84b8 6267 0b38
000002f0: 1964 b938 0c91 3d37 c48c 3038 c405 9038
00000300: 8bf9 cf38 95fa 1539 a038 82b8 c213 1b39
00000310: e205 58b8 9e4b d137 8316 5c38 da13 9938
00000320: 6dab a938 5896 04b8 c03b a9b8 9bbd 4cb8
00000330: fc4e 1db8 1eb8 84b8 4ae0 0cb8 34e6 2538
00000340: 49a5 2cb8 b2fc 7db8 62f0 17b8 f8eb 9138
00000350: df2f 0939 08fc a838 ac7a 5236 7aa1 efb7
00000360: 206d 17b5 ff6f 6c38 232e 06b8 893b 8937
00000370: 4631 bfb8 25ed 43b7 7f90 bd38 3832 45b6
00000380: 3cb6 cb37 b839 34b8 5948 3238 0c4d ef37
00000390: c256 d3b8 08cd 2a37 b45b e4b8 6702 0539
000003a0: 1f05 5939 d815 0f39 d8f0 8238 a46c ca38
000003b0: 678d 4038 8452 82b8 0fb7 5a38 9087 d138
000003c0: d095 2038 5434 11b8 a27e c6b8 fd40 93b8
000003d0: 2e36 00b8 d741 14b8 dd68 d3b7 905c 25b7
000003e0: 3e46 9138 4191 41b8 4c42 75b8 1264 89b8
000003f0: 385c 6737 2161 eab7 b629 8bb6 2ed9 4037

exp_avg_sq f4 [64, 10]
5.5253404e-06 1.7086934e-06 3.0861142e-06 2.3049768e-06 3.5693727e-06 1.5388867e-06 3.3008141e-06 7.1778395e-06
7.579062e-06 2.2226495e-06 3.1590448e-06 1.9938125e-06 4.465742e-06 2.6317584e-06 2.8654438e-06 3.4332877e-06
2.0139753e-06 2.648088e-06 4.7687913e-06 3.4146722e-06 4.22292e-06 1.5017258e-06 2.2278114e-06 8.0261896e-07
6.4428076e-07 5.579664e-07 5.023429e-07 5.671671e-07 1.4025716e-06 1.064431e-06 3.0211314e-07 5.2263897e-07
2.5859558e-07 2.4912669e-07 1.3443055e-07 1.6755887e-07 5.2975132e-08 2.26453e-07 2.6606673e-07 1.230893e-07
2.7434871e-06 1.9294764e-06 2.8080372e-06 9.3488535e-07 7.783604e-07 1.1645886e-06 5.6188384e-07 2.689677e-06
7.2398683e-07 3.234565e-07 5.195968e-06 5.009401e-06 3.3603505e-06 4.834738e-06 2.683856e-06 3.8654216e-06
1.8718904e-06 2.5235117e-06 8.272717e-06 3.975906e-06 4.743322e-06 3.797869e-06 2.5550275e-06 3.1351735e-06
1.707418e-06 1.1331209e-06 1.6320455e-06 1.7275235e-06 3.8076969e-06 2.7461242e-06 9.221483e-06 4.26114e-06
1.0364406e-05 2.6207613e-06 3.860541e-06 9.751226e-07 7.120371e-07 2.3561358e-06 3.2015666e-06 9.046107e-07
1.5569906e-06 1.8536169e-06 1.3588791e-06 1.6840239e-06 1.2359922e-06 1.3202539e-06 1.3683958e-06 9.1505586e-07
2.685638e-06 1.5304316e-06 1.1596646e-05 7.226996e-06 8.885598e-06 9.74872e-06 1.280299e-05 1.542669e-05
9.5861815e-06 8.240656e-06 1.8526905e-05 1.4167392e-05 4.7518256e-06 2.6824882e-06 2.7258602e-06 3.3237732e-06
4.1525186e-06 3.13445e-06 4.276724e-06 3.9347083e-06 7.227282e-06 6.1530136e-06 5.3450804e-06 6.3695434e-06
5.5219607e-06 6.2668128e-06 3.0969723e-06 4.2652287e-06 3.728247e-06 3.737284e-06 1.0881321e-05 6.960279e-06
2.7970498e-06 1.6410872e-06 2.8721174e-06 8.3540345e-07 9.4026706e-07 3.8281624e-07 6.6729007e-07 1.6808564e-06
1.2496827e-06 4.357139e-07 4.4674384e-06 1.2277148e-06 3.6042181e-06 1.0369646e-06 1.057776e-06 8.2239507e-07
4.922408e-07 1.4016729e-06 3.2319565e-06 1.5680204e-06 4.5621673e-06 3.4335421e-06 2.0797906e-06 4.160989e-06
3.0936203e-06 2.2606864e-06 3.492174e-06 3.7978639e-06 4.9019154e-06 5.006043e-06 4.5423053e-06 9.989262e-07
5.4873167e-06 1.1329984e-06 1.022051e-06 4.4553553e-07 5.0570503e-07 1.8980725e-06 2.0984523e-06 2.4255596e-07
2.0447476e-05 1.3020461e-05 1.4854218e-05 1.711497e-05 2.2846392e-05 2.454605e-05 1.9552464e-05 1.4865808e-05
3.375621e-05 2.5365413e-05 2.140297e-06 5.224101e-07 2.4632698e-06 4.743927e-07 1.959631e-07 1.4212482e-06
3.154556e-07 3.8857797e-07 5.0734894e-07 4.6100698e-07 4.947311e-06 3.3734127e-06 2.4265664e-06 4.386395e-06
3.6291583e-06 2.863467e-06 3.9330826e-06 3.3584934e-06 6.2200593e-06 4.883387e-06 5.632712e-06 3.3823442e-06
3.7036882e-06 4.157409e-06 5.964465e-06 6.1428323e-06 4.5881497e-06 5.1909706e-06 9.6675385e-06 5.2854734e-06
3.3844715e-06 7.871018e-07 1.7829855e-06 6.8455245e-07 8.662443e-07 6.490515e-07 2.2662876e-07 1.0835455e-06
1.9172176e-06 1.07548e-06 2.0635082e-06 1.1707657e-06 4.0976165e-06 7.410289e-07 4.0901827e-07 4.795823e-07
4.962039e-07 1.6055312e-06 9.36639e-07 4.7291314e-07 3.770143e-06 1.4340795e-06 3.287533e-06 1.456401e-06
1.1448315e-06 2.2275292e-06 1.1004649e-06 1.331324e-06 3.5618345e-06 2.234082e-06 1.0902354e-05 3.2046676e-06
9.073819e-06 2.9723165e-06 2.6123132e-06 1.387404e-06 6.3807227e-07 2.4076478e-06 3.9942543e-06 1.931657e-06
1.0022761e-06 9.694902e-07 1.5888903e-06 1.1663903e-06 7.0281726e-07 5.612492e-07 4.5427967e-07 8.956294e-07
2.2346726e-06 9.621094e-07 1.0298597e-06 5.9357365e-07 5.747148e-07 3.5396044e-07 1.6838669e-07 1.9133128e-07
00000000: 5066 b936 4256 e535 0a1b 4f36 33af 1a36
00000010: 5b89 6f36 bf8b ce35 8e83 5d36 2cd9 f036
00000020: a64f fe36 d428 1536 faff 5336 70cd 0536
00000030: 6fd8 9536 449d 3036 f34b 4036 6f67 6636
00000040: d527 0736 ceb5 3136 9b03 a036 9f27 6536
00000050: 9bb2 8d36 e88e c935 8281 1536 8e73 5735
00000060: a3f2 2c35 29c7 1535 bed8 0635 6d3f 1835
00000070: fe3f bc35 92dd 8e35 1d32 a234 7a4b 0c35
00000080: 1bd5 8a34 b6bf 8534 fd57 1034 3bea 3334
00000090: c686 6333 ed26 7334 efd7 8e34 872a 0434
000000a0: c01c 3836 277c 0136 b671 3c36 d5f4 7a35
000000b0: 85f0 5035 f64e 9c35 5dd4 1635 4d80 3436
000000c0: ff57 4235 86a7 ad34 0659 ae36 6d16 a836
000000d0: 6282 6136 153a a236 4c1c 3436 b8b3 8136
000000e0: aa3d fb35 9a59 2936 0dcb 0a37 c668 8536
000000f0: d328 9f36 e5de 7e36 0a77 2b36 df65 5236
00000100: 702a e535 bd15 9835 a80c db35 41dd e735
00000110: bc87 7f36 0e4a 3836 f8b5 1a37 eafa 8e36
00000120: c9e2 2d37 56e0 2f36 cb89 8136 f5e0 8235
00000130: d122 3f35 1b1e 1e36 7fda 5636 60d4 7235
00000140: caf9 d035 cbc9 f835 bb62 b635 9f06 e235
00000150: 5ee4 a535 9433 b135 b9a9 b735 29a2 7535
00000160: e93a 3436 3b69 cd35 378f 4237 6c7f f236
00000170: 5a13 1537 6f8e 2337 6ccc 5637 9168 8137
00000180: 56d4 2037 5941 0a37 3a6a 9b37 7cb0 6d37
00000190: df71 9f36 cc04 3436 eced 3636 fd0d 5f36
000001a0: dd55 8b36 7159 5236 c880 8f36 e306 8436
000001b0: e181 f236 fc75 ce36 e459 b336 f6b9 d536
000001c0: 4849 b936 8347 d236 94d5 4f36 091e 8f36
000001d0: cc32 7a36 0dce 7a36 eb8e 3637 578c e936
000001e0: f3b4 3b36 5443 dc35 9abe 4036 7d40 6035
000001f0: a966 7c35 dd85 cd34 d31f 3335 c999 e135
00000200: c5ba a735 10ec e934 01e7 9536 f6c7 a435
00000210: ffdf 7136 d52d 8b35 e8f8 8d35 8fc2 5c35
00000220: 8822 0435 1d21 bc35 97e4 5836 c574 d235
00000230: b814 9936 ce6b 6636 8892 0b36 a09e 8b36
00000240: fe9b 4f36 4cb6 1736 185b 6a36 cede 7e36
00000250: 227b a436 95f9 a736 1b6a 9836 d812 8635
00000260: b11f b836 8711 9835 682d 8935 f031 ef34
00000270: c9bf 0735 46c1 fe35 23d3 0c36 a338 8234
00000280: 9f86 ab37 7472 5a37 6136 7937 1e92 8f37
00000290: 41a6 bf37 3ee8 cd37 9904 a437 2968 7937
000002a0: 7495 0d38 cfc7 d437 06a2 0f36 c03b 0c35
000002b0: a74e 2536 09b0 fe34 ed69 5234 b7c1 be35
000002c0: e35b a934 c09d d034 c130 0835 5180 f734
000002d0: 1401 a636 ca62 6236 18d8 2236 d92e 9336
000002e0: 778c 7336 fd29 4036 ecf8 8336 7a62 6136
000002f0: e7b5 d036 fadb a336 a100 bd36 3bfc 6236
00000300: e18c 7836 df7f 8b36 5d22 c836 871e ce36
00000310: e8f3 9936 192e ae36 c331 2237 df59 b136
00000320: c720 6336 3949 5335 ea4e ef35 16c2 3735
00000330: db87 6835 7b3a 2e35 3d57 7334 576e 9135
00000340: 8ca9 0036 3659 9035 cd7a 0a36 3423 9d35
00000350: 427e 8936 1eeb 4635 0b97 db34 a5bc 0035
00000360: df32 0535 a27d d735 586d 7b35 b0e4 fd34
00000370: 9002 7d36 997a c035 639f 5c36 8f79 c335
00000380: 1ca8 9935 a97c 1536 b0b3 9335 f2af b235
00000390: da07 6f36 3ded 1536 41e9 3637 c50f 5736
000003a0: c13b 1837 0278 4736 334f 2f36 d736 ba35
000003b0: fe47 2b35 1393 2136 6206 8636 9da1 0136
000003c0: f285 8635 6e1f 8235 db41 d535 de8c 9c35
000003d0: 3ca9 3c35 c0a8 1635 b9e3 f334 2f6b 7035
000003e0: 62f7 1536 d421 8135 b639 8a35 1256 1f35
000003f0: 1a46 1a35 f407 be34 c8cd 3434 be70 4d34

exp_avg f4 [64]
-1.1611658e-05 0.00011901437 8.7225504e-05 -7.5459425e-06 -4.1150186e-05 0.00019983664 -0.0001463749 -5.707799e-05
-0.00010082633 -0.00026800952 -0.00014425894 0.00021303323 -1.3955898e-05 0.00017292412 -9.292943e-05 0.00014306005
-0.0003316762 -1.9644049e-05 -0.00018119445 -0.00013231613 5.4430075e-05 2.4135523e-05 0.00016148586 -7.242119e-05
-7.442736e-05 8.223742e-05 2.2539512e-05 0.0001557302 -0.00011723687 -9.996731e-06 0.00021328763 0.00011019001
-0.00027508475 0.00016478976 -4.694727e-05 -0.0002797769 0.00018610424 -0.00047050507 -1.7445436e-05 0.00014493409
0.0001334905 -2.0202171e-05 -0.00010199702 -7.452397e-05 -0.00014594315 6.962037e-05 0.0001472307 0.00019906473
-0.00012593166 -0.0003008039 -0.00013414692 -0.00010913045 1.4554949e-05 0.00022134691 -1.8501009e-05 0.00014435106
-8.543595e-05 0.00016742476 0.000111109264 0.0002710028 0.00018136165 -3.9741044e-06 -2.012443e-05 9.8370336e-05
00000000: b1cf 42b7 5a97 f938 d6ec b638 2733 fdb6
00000010: ad98 2cb8 3d8b 5139 377c 19b9 0667 6fb8
00000020: b972 d3b8 a183 8cb9 3744 17b9 ac61 5f39
00000030: 2024 6ab7 f752 3539 1ce3 c2b8 6402 1639
00000040: d3e4 adb9 46c9 a4b7 04ff 3db9 57be 0ab9
00000050: d94b 6438 a476 ca37 8854 2939 d5e0 97b8
00000060: e215 9cb8 e176 ac38 3c13 bd37 824b 2339
00000070: 11dd f5b8 a2b7 27b7 f6a5 5f39 d015 e738
00000080: 4039 90b9 6acb 2c39 3fe9 44b8 05af 92b9
00000090: fa24 4339 1fae f6b9 ca57 92b7 73f9 1739
000000a0: 95f9 0b39 d577 a9b7 3ce7 d5b8 c049 9cb8
000000b0: 5108 19b9 2701 9238 f161 1a39 08bc 5039
000000c0: 860c 04b9 37b5 9db9 caa9 0cb9 f7dc e4b8
000000d0: 0831 7437 5c19 6839 9d32 9bb7 f15c 1739
000000e0: 142c b3b8 be8e 2f39 5503 e938 6115 8e39
000000f0: e62b 3e39 4c59 85b6 e2d0 a8b7 2c4c ce38
