model_checkpoints/sine/checkpoints/epoch=1999-step=2000.ckpt (torch, 166570 bytes, 27 tensors)

lin1.weight f4 [64, 2]
-0.24888772 0.71307254 0.6840516 -0.19100879 -0.116130576 -0.5987898 -0.20931104 -0.67455167
-0.6224314 -0.00086105074 -0.5419114 0.54390913 -0.66749585 -0.07011309 -0.48880655 -0.4354614
1.4331379 0.18065727 0.0040690056 0.6168045 -0.37242982 -0.69685996 -0.64355314 -0.70130026
0.40918186 0.3192605 -0.69027704 0.012075119 -0.5665298 -0.4793489 0.008236476 -0.39358217
0.09706489 0.61529523 0.3914832 -0.21774043 0.27724898 0.2882358 -0.60897833 -0.038861208
0.25070274 -0.6273346 0.5579818 0.5458876 0.14571075 0.65265715 -0.40298238 -0.8295424
0.4605748 -0.09270318 0.14107534 0.57347256 0.19750597 0.2629931 -0.17287031 -0.77218384
0.10359376 0.088994645 -0.07924631 0.47063786 -0.03412917 -0.17787227 -0.4112715 0.19908276
0.103171214 0.7413305 0.07381708 -0.8831697 0.5931472 -0.19607422 0.0742975 0.5093212
0.48483557 -0.5867824 0.1762497 -0.6645711 0.64342314 -0.1309427 0.5547038 0.1415563
0.260217 -0.18735853 0.1751789 -0.56867 0.4579946 0.649995 -0.49218252 -0.5603934
0.29389617 -0.46288207 -0.18046816 0.21970919 1.0271127 0.7160672 -0.45390153 0.5112055
-0.2071537 0.22042558 -0.39672962 -0.28846398 -0.13625036 -0.7024002 -0.6546205 0.4750304
-0.27399343 0.28446227 -0.06967668 0.653423 0.5354082 0.5055337 -0.43192858 -0.5414351
0.09928753 -0.6850992 0.07227635 0.20878835 -0.4277705 0.65187097 0.33409628 0.49018982
-0.3888618 -0.50767696 0.45057595 -0.31068623 -0.24236636 -0.4329502 0.57690847 0.53223413
00000000: 6cdc 7ebe ec8b 363f 011e 2f3f cf97 43be
00000010: ded5 edbd 4a4a 19bf a255 56be 6baf 2cbf
00000020: aa57 1fbf 23b8 61ba b5ba 0abf a13d 0b3f
00000030: 02e1 2abf 7497 8fbd da44 fabe ccf4 debe
00000040: 1071 b73f 38fe 383e 4b55 853b e6e6 1d3f
00000050: 1faf bebe 6a65 32bf e6bf 24bf 6a88 33bf
00000060: 4980 d13e 1d76 a33e ffb5 30bf b8d6 453c
00000070: 1908 11bf 386d f5be 49f2 063c 9a83 c9be
00000080: f5c9 c63d fd83 1d3f 7c70 c83e 59f7 5ebe
00000090: 94f3 8d3e a593 933e 01e6 1bbf ee2c 1fbd
000000a0: 1c5c 803e 0099 20bf e5d7 0e3f 4abf 0b3f
000000b0: 3335 153e 8a14 273f b553 cebe e45c 54bf
000000c0: 76d0 eb3e 2adb bdbd 0e76 103e 19cf 123f
000000d0: 013f 4a3e 08a7 863e ea04 31be d7ad 45bf
000000e0: f728 d43d d342 b63d e44b a2bd 72f7 f03e
000000f0: 07cb 0bbd 2624 36be 2e92 d2be 5adc 4b3e
00000100: 6e4b d33d d6c7 3d3f 692d 973d 6917 62bf
00000110: 7fd8 173f aec7 48be 4a29 983d e062 023f
00000120: 5e3c f83e 5f37 16bf cd7a 343e 5521 2abf
00000130: 61b7 243f d815 06be 1101 0e3f 22f4 103e
00000140: 2a3b 853e eada 3fbe 1962 333e 5b94 11bf
00000150: 457e ea3e 1366 263f 59ff fbbe f175 0fbf
00000160: 8f79 963e e1fe ecbe a5cc 38be 72fb 603e
00000170: 6e78 833f 2e50 373f c865 e8be 5dde 023f
00000180: 1920 54be 3eb7 613e 2520 cbbe 8db1 93be
00000190: 3785 0bbe 80d0 33bf 3695 27bf 2f37 f33e
000001a0: de48 8cbe 0aa5 913e a6b2 8ebd bb46 273f
000001b0: 8310 093f a86a 013f be25 ddbe 7e9b 0abf
000001c0: 4357 cb3d a962 2fbf 9f05 943d 9dcc 553e
000001d0: bc04 dbbe 04e1 263f ab0e ab3e 29fa fa3e
000001e0: e518 c7be 1ef7 01bf e4b1 e63e 4412 9fbe
000001f0: e32e 78be a6ab ddbe 46b0 133f 7f40 083f

lin1.bias f4 [64]
-0.025065793 -0.56595767 -0.34715965 -0.110739745 -0.29278648 -0.20557372 -0.12527598 -0.52880085
-0.962651 -0.4691111 0.071107976 -0.6978193 -0.6046727 -0.32767344 -0.4741753 -0.16754699
-0.068350896 -0.25198305 -0.3488826 -0.05383586 0.08045674 0.2739632 -0.5191941 0.33629623
0.05008076 0.14530575 0.3215154 0.55595106 0.053586867 0.13633381 -0.02430744 0.12030398
-0.23620401 -0.5511607 0.091231816 -0.14789832 0.50165653 0.0044790786 0.27705505 0.4005571
-0.22011134 0.036755882 -0.55913633 0.34472167 0.26342878 -0.39107215 -0.80855536 -0.5131802
0.2018693 0.0808922 0.3748771 -0.42156428 -0.043352302 -0.07845446 0.5185512 -0.14043835
0.08598556 -0.09379234 -0.18596031 0.47712964 0.098877 -0.0638498 0.35585052 -0.13118835
00000000: c756 cdbc 9ae2 10bf e9be b1be 85cb e2bd
00000010: 1ce8 95be eb81 52be 5948 00be 7e5f 07bf
00000020: 4c70 76bf 552f f0be 0fa1 913d 49a4 32bf
00000030: d4cb 1abf d0c4 a7be 1bc7 f2be 7091 2bbe
00000040: 8efb 8bbd ec03 81be bda0 b2be fe82 5cbd
00000050: 81c6 a43d e844 8c3e e8e9 04bf 052f ac3e
00000060: 7c21 4d3d 08cb 143e ab9d a43e cf52 0e3f
00000070: e77d 5b3d 179b 0b3e 6520 c7bc ef61 f63d
00000080: 77df 71be de18 0dbf bfd7 ba3d a872 17be
00000090: 906c 003f 3cc5 923b 29da 8d3e d215 cd3e
000000a0: de64 61be 568d 163d 8f23 0fbf 5c7f b03e
000000b0: 23e0 863e 9c3a c8be 7cfd 4ebf c75f 03bf
000000c0: d3b6 4e3e cfaa a53d e4ef bf3e 46d7 d7be
000000d0: 2f92 31bd bbac a0bd c5bf 043f 12cf 0fbe
000000e0: 3319 b03d 3316 c0bd 616c 3ebe 564a f43e
000000f0: 0680 ca3d afc3 82bd 0a32 b63e 3d56 06be

lin2.weight f4 [64, 64]
0.34936953 -0.03633385 0.11285831 0.061033547 0.22793761 0.22877567 0.44537345 0.13668595
-0.0067077177 0.0018547564 -0.013549196 0.20121223 0.05328805 0.24827921 0.20671456 0.11742503
0.0949409 -0.054851003 0.10016424 0.48107845 -0.060000565 -0.1611267 0.12097048 -0.10511599
-0.09785424 -0.04311889 0.032762457 -0.07069923 -0.118014604 0.051151194 0.10378679 -0.0749017
-0.023702977 0.0033119966 -0.3141122 0.07615927 -0.14592148 -0.01172936 -0.26374742 -0.0641813
-0.041660566 -0.007092733 0.0042367075 0.018119093 -0.059225652 0.18430364 0.07266625 0.09313909
-0.013664344 -0.05266678 -0.07783237 0.16210353 0.19874005 0.17877436 -0.13071854 0.16231947
-0.21013744 0.03224028 0.18543455 -0.10378675 -0.022226915 -0.33587393 -0.15304123 -0.08327117
0.648382 0.045682907 -0.09054352 -0.026196847 0.2458957 0.19135815 0.1647708 -0.032261588
0.071490265 0.1913638 -0.033385206 0.022942433 0.082791455 0.21616213 -0.0021435898 0.08563188
0.30480918 -0.049885467 0.072588146 0.28914362 -0.2620264 -0.0019675754 0.14474168 -0.1892071
-0.2796037 0.059737306 -0.03977728 -0.17365374 0.022768373 0.060076524 -0.09937935 0.092785284
0.20440757 -0.03587751 -0.25315008 0.24714543 -0.15132415 -0.12967321 -0.054745525 -0.038512193
0.056726173 -0.35834393 0.113121755 0.009180895 -0.16260526 0.108984634 0.15288423 0.012751935
-0.05068865 0.009557621 -0.07995463 0.23165165 0.12337762 0.15757728 -0.08955124 0.08031484
-0.1693608 0.17751068 0.23864804 -0.028378272 0.056933217 -0.36729756 -0.100049995 -0.01978364
0.0655191 -0.044628207 -0.06361259 -0.18077864 -0.15208447 -0.12968978 0.0021081483 0.026890498
0.020997893 -0.016785419 -0.029276477 -0.09296539 -0.087536044 -0.09223172 -0.101410836 -0.111575976
0.16034369 0.121735595 0.113340534 -0.10391974 -0.14720596 -0.011227775 -0.085926436 -0.04105549
0.05690043 0.021458268 0.06980683 -0.06560309 0.08819036 0.03498442 -0.15151712 0.0006814495
0.04328838 0.097281024 0.092906825 0.10492128 0.017872604 -0.20403875 -7.0001246e-05 0.09209218
-0.059144195 0.008510449 0.07272012 0.041018527 -0.0905934 -0.075091794 -0.021521814 0.12577586
0.072466366 0.023847431 -0.048430514 0.040050335 -0.09113941 0.090291075 -0.0040889233 -0.033587765
-0.16048962 0.044507295 -0.02837979 -0.014596716 -0.031275 0.07957152 -0.12269451 0.029711718
-0.34912044 0.06052603 0.11085881 0.3900194 0.16019633 0.040118758 0.19641379 0.17753237
0.21705109 -0.00030680548 0.067890406 0.063448966 0.032710124 0.11002624 0.13838449 0.21310782
-0.12327666 0.12648469 -0.053425867 0.23845495 0.01172758 -0.29676214 0.0073027746 0.042863175
-0.090776905 -0.2715261 -0.21687154 -0.010519166 -0.1931183 -0.22886777 0.06924887 -0.09384238
-0.09218931 0.1494886 -0.033204816 0.04812676 0.0070657386 0.2342055 -0.12377844 -0.23945531
0.2072398 0.34773958 0.09387532 0.012696637 -0.1292224 0.1488789 0.014862882 0.1747919
-0.1459747 0.00028011735 -0.06959737 0.08229244 0.09372872 -0.16933763 -0.22660625 0.35795516
0.21641597 -0.0025443959 -0.07669982 -0.19912814 0.041858558 0.05868766 0.0029575364 -0.09958341
00000000: 90e0 b23e ced2 14bd 4222 e73d 50fe 793d
00000010: 7a68 693e 2b44 6a3e fd07 e43e 67f7 0b3e
00000020: 6acc dbbb 4c1b f33a 72fd 5dbc 940a 4e3e
00000030: 9244 5a3d e83c 7e3e fbac 533e 897c f03d
00000040: 6070 c23d 72ab 60bd e922 cd3d ea4f f63e
00000050: 27c3 75bd 66fe 24be 5fbf f73d 0d47 d7bd
00000060: ce67 c8bd 6f9d 30bd ed31 063d c2ca 90bd
00000070: a4b1 f1bd ea83 513d 2b8e d43d 1066 99bd
00000080: bf2c c2bc 150e 593b 50d3 a0be 64f9 9b3d
00000090: 716c 15be 802c 40bc e709 87be 7c71 83bd
000000a0: 45a4 2abd 286a e8bb 14d4 8a3b 7e6e 943c
000000b0: 9996 72bd 18ba 3c3e 0bd2 943d b5bf be3d
000000c0: 6ae0 5fbc 1fb9 57bd 9466 9fbd 78fe 253e
000000d0: 8382 4b3e a010 373e 15db 05be 1337 263e
000000e0: 452e 57be 620e 043d 8ee2 3d3e 268e d4bd
000000f0: 3815 b6bc abf7 abbe d7b6 1cbe 138a aabd
00000100: 5dfc 253f 001e 3b3d e26e b9bd c59a d6bc
00000110: 15cc 7b3e 64f3 433e adb9 283e ba24 04bd
00000120: 7d69 923d dff4 433e edbe 08bd c5f1 bb3c
00000130: 918e a93d 9b59 5d3e 787b 0cbb c45f af3d
00000140: f30f 9c3e b454 4cbd 18a9 943d a20a 943e
00000150: 5328 86be 70f2 00bb 2a37 143e 82bf 41be
00000160: 3728 8fbe 1baf 743d 80ed 22bd 49d2 31be
00000170: bd84 ba3c cd12 763d 6787 cbbd 3606 be3d
00000180: 3850 513e 4cf4 12bd e39c 81be b113 7d3e
00000190: b8f4 1abe 0ec9 04be d83c 60bd f6be 1dbd
000001a0: b459 683d db78 b7be 61ac e73d 776b 163c
000001b0: fe81 26be 5633 df3d af8d 1c3e 7eed 503c
000001c0: e79e 4fbd 9197 1c3c 41bf a3bd 1736 6d3e
000001d0: 68ad fc3d f05b 213e a466 b7bd 1b7c a43d
000001e0: eb6c 2dbe 5cc5 353e 2760 743e 8d79 e8bc
000001f0: ce32 693d 6d0e bcbe 03e7 ccbd 4d11 a2bc
00000200: e12e 863d 11cc 36bd 5147 82bd 091e 39be
00000210: 08bc 1bbe 66cd 04be dc28 0a3b 7649 dc3c
00000220: c603 ac3c 9381 89bc 39d5 efbc a364 bebd
00000230: 1946 b3bd fce3 bcbd 7cb0 cfbd f281 e4bd
00000240: 2331 243e 8350 f93d 151f e83d dfd3 d4bd
00000250: 29bd 16be b4f4 37bc 33fa afbd cd29 28bd
00000260: 6d10 693d 40c9 af3c e2f6 8e3d ea5a 86bd
00000270: 269d b43d d34b 0f3d 4e27 1bbe 4da3 323a
00000280: 284f 313d 463b c73d ef45 be3d f8e0 d63d
00000290: 9169 923c 89ef 50be a2cd 92b8 d39a bc3d
000002a0: 2f41 72bd 696f 0b3c 49ee 943d 0b03 283d
000002b0: 0889 b9bd bac9 99bd 844e b0bc 63cb 003e
000002c0: 3f69 943d b05b c33c 135f 46bd d20b 243d
000002d0: 4da7 babd 87ea b83d 60fc 85bb 5393 09bd
000002e0: 6457 24be 484d 363d bc7c e8bc 1027 6fbc
000002f0: 371a 00bd 65f6 a23d 4247 fbbd fd65 f33c
00000300: eabf b2be 24ea 773d f209 e33d 9fb0 c73e
00000310: 820a 243e 9153 243d b220 493e 0ccb 353e
00000320: a442 5e3e bcda a0b9 200a 8b3d 88f1 813d
00000330: 0dfb 053d 7055 e13d aab4 0d3e f038 5a3e
00000340: 7978 fcbd 3485 013e 15d5 5abd 892d 743e
00000350: 0925 403c 35f1 97be 1d4c ef3b 4c91 2f3d
00000360: 3ee9 b9bd 7805 8bbe 9313 5ebe 9458 2cbc
00000370: cec0 45be 505c 6abe 5ad2 8d3d 6f30 c0bd
00000380: c0cd bcbd 8a13 193e c601 08bd 9120 453d
00000390: b687 e73b 91d3 6f3e 8d7f fdbd c633 75be
000003a0: ac36 543e ec0a b23e b441 c03d 8e05 503c
000003b0: e052 04be b673 183e 7283 733c a6fc 323e
000003c0: 647a 15be b7dc 9239 1189 8ebd f088 a83d
000003d0: d8f4 bf3d d866 2dbe 780b 68be e645 b73e
000003e0: 269c 5d3e e1bf 26bb cc14 9dbd 3fe8 4bbe
000003f0: e173 2b3d 7962 703d 3ad3 413b 63f2 cbbd

lin2.bias f4 [64]
-0.04303961 -0.15850586 -0.040263627 -0.048405603 0.1951187 0.12869713 -0.083651885 0.034419127
0.13618071 0.054758094 0.026566068 0.049477294 -0.17464061 -0.0057298713 0.017483726 -0.039470274
-0.005908029 -0.10210563 -0.06689536 -0.124108255 -0.16977994 0.05005739 0.1720855 -0.06900546
-0.13876097 0.16560422 0.1765159 0.14549115 0.04313644 -0.031179296 0.07354562 -0.044746384
-0.10331792 0.21184424 0.058696896 0.02134419 -0.026872357 0.11190768 0.06452261 -0.031742036
-0.065059565 -0.11185298 -0.051044185 0.18582605 -0.14164497 0.20836513 -0.0054991515 -0.05814745
-0.0854157 0.13102616 0.15181601 0.06591122 -0.18135832 0.17446102 0.08828193 0.044057082
0.16996396 0.17678078 -0.0041697086 -0.084822364 0.02227343 -0.060926378 0.05761413 0.17410585
00000000: 4d4a 30bd 5c4f 22be 79eb 24bd f444 46bd
00000010: 32cd 473e 2ec9 033e ae51 abbd 12fb 0c3d
00000020: f572 0b3e 064a 603d 15a1 d93c b4a8 4a3d
00000030: fdd4 32be a5c1 bbbb 083a 8f3c 95ab 21bd
00000040: 2498 c1bb c21c d1bd 6f00 89bd 782c febd
00000050: cbda 2dbe fa08 4d3d 2e37 303e bc52 8dbd
00000060: 5b17 0ebe 2794 293e 96c0 343e a2fb 143e
00000070: d6af 303d b96b ffbc 169f 963d fc47 37bd
00000080: 5898 d3bd b2ed 583e 286c 703d 03da ae3c
00000090: 6b23 dcbc db2f e53d 6e24 843d f003 02bd
000000a0: f33d 85bd 2d13 e5bd b513 51bd 2f49 3e3e
000000b0: 610b 11be ab5d 553e 3a32 b4bb 052c 6ebd
000000c0: 6dee aebd b92b 063e a875 1b3e 76fc 863d
000000d0: ffb5 39be e9a5 323e 28cd b43d 3375 343d
000000e0: 080b 2e3e 0506 353e 0da2 88bb 59b7 adbd
000000f0: c576 b63c f08d 79bd cbfc 6b3d ce48 323e

lin3.weight f4 [64, 64]
0.035773527 -0.22545892 -0.22078298 0.09326149 0.0049920157 0.0098527195 0.13862251 0.037608847
0.05467116 0.12507781 -0.1497637 0.135432 -0.14953083 0.0050943824 0.017506419 -0.021176348
0.06067788 -0.12768881 -0.17214926 0.03276406 0.03759267 0.13316771 0.10831839 -0.083641954
0.037112854 0.011306654 0.20122795 0.02274182 -0.100460425 0.048798133 0.06076541 -0.081832066
0.14691427 0.37666884 0.32880998 -0.09271847 0.012597447 0.31657022 0.07646109 -0.08048318
0.007507451 -0.2046439 0.06826596 0.03615506 -0.04534197 0.044962764 -0.17492497 0.17117731
-0.17072207 -0.13087057 -0.11357369 -0.092762426 -0.052846793 0.12294418 -0.0643917 0.05959713
0.1644276 0.10364921 0.26702106 0.16812582 0.28018492 0.05322305 -0.1712785 0.113802426
-0.04448987 -0.12258428 0.20684417 -0.0834043 0.0698888 0.1794395 -0.15631956 -0.17533
0.1015483 0.12311023 0.16817021 -0.013300445 0.106681906 -0.058902282 -0.121286914 0.059021093
0.036528565 0.060001586 -0.09195358 0.021361157 -0.22974178 0.10755839 0.12947711 0.13655038
0.1403797 -0.009240154 -0.013416563 -0.011674773 0.04295873 0.13079962 0.122574896 -0.11808395
-0.18971312 -0.11542928 -0.13565917 0.026981454 -0.17149545 -0.12159092 0.09032921 0.23160057
0.04308465 0.03643882 0.057859708 -0.056079783 -0.037315007 0.015828015 0.05412995 -0.0030765794
0.155604 0.15597962 -0.06315409 0.14031446 -0.10783938 -0.1850738 0.07392071 -0.004455611
-0.0023487227 0.301563 0.05587211 -0.07662321 0.028825052 0.041369606 0.0117451735 -0.039921403
0.13084634 0.13166696 0.008633874 -0.01815642 -0.16245806 0.034089297 -0.04080379 -0.13388255
-0.0046489397 -0.10374021 -0.10076101 -0.12800837 0.08832827 0.070131116 0.006587368 0.062409196
0.07066892 0.17351645 0.10079945 0.0882946 -0.14345247 0.046903312 -0.07772782 0.09634731
0.09708929 -0.014473623 -0.054704692 -0.064555645 -0.062018767 0.0662305 0.005138871 -0.030237982
-0.059666548 -0.11016034 -0.045448408 0.0109168 -0.011619497 -0.12766923 0.041116137 0.08280168
0.10075594 -0.040659744 0.12909998 -0.065721914 -0.12244003 0.03733851 -0.07281827 -0.13339703
0.026593912 -0.0753856 -0.09408785 0.053398598 -0.043026373 -0.111664474 -0.37051147 0.048444718
-0.16129346 0.10898503 -0.077309795 0.07851484 0.009617288 0.086899385 0.021907961 -0.10060398
0.062439926 0.1223793 0.024517652 -0.0944639 -0.14062177 0.059643075 0.027827535 -0.08209549
0.07676263 -0.18673238 -0.08265343 0.009161493 -0.09558873 -0.0062083057 1.470614e-05 0.2718514
-0.04370043 0.1063542 0.11927909 -0.056541298 -0.0005940088 -0.094677545 0.015788555 0.1431574
-0.053056393 0.23635739 -0.06981739 -0.05277255 -0.072999485 0.060359173 -0.024284542 -0.13191447
0.028322984 0.019338721 0.05014023 0.07374301 0.027760023 -0.20455286 -0.13264833 -0.038958605
0.13635992 0.032228317 0.011104582 0.014136812 -0.09533704 -0.17253281 0.0032097963 -0.17700323
-0.00037827797 -0.054285783 0.03688187 0.031639293 0.025108894 -0.13698977 -0.24849196 0.058196977
-0.04133872 -0.019168396 -0.035664976 -0.03964672 -0.027427968 -0.006707492 -0.010016047 -0.037707973
00000000: 4387 123d b4de 66be ef14 62be e1ff be3d
00000010: 1094 a33b 4d6d 213c 0ff3 0d3e bc0b 1a3d
00000020: deee 5f3d 6614 003e a85b 19be b0ae 0a3e
00000030: 9c1e 19be c7ee a63b 9f69 8f3c 057a adbc
00000040: 5e89 783d dbc0 02be e547 30be 9b33 063d
00000050: c6fa 193d 1e5d 083e 08d6 dd3d 794c abbd
00000060: a603 183d 8b3f 393c b30e 4e3e 0e4d ba3c
00000070: 32be cdbd 8de0 473d 27e5 783d 9297 a7bd
00000080: b270 163e bdda c03e c859 a83e 2ee3 bdbd
00000090: 8665 4e3c 7e15 a23e a297 9c3d 5ed4 a4bd
000000a0: 1001 f63b 2c8e 51be 06cf 8b3d 5417 143d
000000b0: 80b8 39bd e02a 383d 881f 33be 1b49 2f3e
000000c0: c4d1 2ebe ef02 06be 5399 e8bd 3afa bdbd
000000d0: e175 58bd 29ca fb3d ccdf 83bd 1f1c 743d
000000e0: b55f 283e 0946 d43d fcb6 883e 2d29 2c3e
000000f0: 6674 8f3e 6a00 5a3d a263 2fbe 3f11 e93d
00000100: 033b 36bd 780d fbbd f5ce 533e e0cf aabd
00000110: dc21 8f3d fdbe 373e 3c12 20be b589 33be
00000120: 8ef8 cf3d 3721 fc3d d034 2c3e 1cea 59bc
00000130: 0b7c da3d 8543 71bd 4665 f8bd 1ac0 713d
00000140: fa9e 153d 39c4 753d 2952 bcbd 98fd ae3c
00000150: 6e41 6bbe 9347 dc3d a695 043e ddd3 0b3e
00000160: b2bf 0f3e 0464 17bc 25d1 5bbc 8c47 3fbc
00000170: 7ef5 2f3d 56f0 053e 8c08 fb3d ffd5 f1bd
00000180: 2844 42be 3066 ecbd 3dea 0abe 3608 dd3c
00000190: 819c 2fbe a904 f9bd 85fe b83d b328 6d3e
000001a0: 8879 303d df40 153d 4dfe 6c3d eab3 65bd
000001b0: 9fd7 18bd c1a9 813c 5eb7 5d3d 70a0 49bb
000001c0: a856 1f3e 1fb9 1f3e ee56 81bd 98ae 0f3e
000001d0: e5da dcbd fc83 3dbe be63 973d 6000 92bb
000001e0: 07ed 19bb 7766 9a3e 27da 643d a1ec 9cbd
000001f0: 8422 ec3c 2d73 293d d46e 403c a084 23bd
00000200: 95fc 053e b4d3 063e 1875 0d3c c6bc 94bc
00000210: 685b 26be 38a1 0b3d e021 27bd 8218 09be
00000220: 2256 98bb bf75 d4bd ca5b cebd a014 03be
00000230: 74e5 b43d e7a0 8f3d d9da d73b c9a0 7f3d
00000240: deba 903d 4cae 313e f16f ce3d cdd3 b43d
00000250: 34e5 12be b01d 403d c32f 9fbd bd51 c53d
00000260: c0d6 c63d c622 6dbc 0712 60bd c035 84bd
00000270: 6407 7ebd dba3 873d f963 a83b a5b5 f7bc
00000280: e964 74bd bf9b e1bd 1c28 3abd 61dc 323c
00000290: b45f 3ebc b9bb 02be 6569 283d ed93 a93d
000002a0: 2159 ce3d d58a 26bd c932 043e 3699 86bd
000002b0: d7c1 fabd 44f0 183d bf21 95bd 3b99 08be
000002c0: 7adb d93c c463 9abd 21b1 c0bd 7db8 5a3d
000002d0: 6c3c 30bd 58b0 e4bd aeb3 bdbe f86d 463d
000002e0: 1d2a 25be 8b33 df3d 9954 9ebd 63cc a03d
000002f0: d491 1d3c 4ef8 b13d 5378 b33c 7609 cebd
00000300: 02c1 7f3d 00a2 fa3d 3ed9 c83c 4a76 c1bd
00000310: 27ff 0fbe 4c4c 743d 92f6 e33c ae21 a8bd
00000320: ba35 9d3d c636 3fbe 3446 a9bd 161a 163c
00000330: 06c4 c3bd 0b6f cbbb 64ba 7637 1b30 8b3e
00000340: 39ff 32bd 3bd0 d93d 9848 f43d d997 67bd
00000350: 41b7 1bba 4de6 c1bd 0057 813c da97 123e
00000360: a951 59bd ac07 723e 6bfc 8ebd 0828 58bd
00000370: c180 95bd 2e3b 773d 60f0 c6bc 9614 07be
00000380: 9a05 e83c 3d6c 9e3c d85f 4d3d 9306 973d
00000390: fd68 e33c 4e76 51be f7d4 07be 0f93 1fbd
000003a0: efa1 0b3e d701 043d feef 353c 169e 673c
000003b0: 1140 c3bd 71ac 30be 725b 523b 5640 35be
000003c0: 9c53 c6b9 c55a 5ebd 7211 173d 3498 013d
000003d0: 2bb1 cd3c 0c47 0cbe ad74 7ebe f45f 6e3d
000003e0: ca52 29bd 0a07 9dbc 7015 12bd 9964 22bd
000003f0: 9eb0 e0bc 85ca dbbb 591a 24bc ad73 1abd

lin3.bias f4 [64]
0.07528589 0.050429605 0.01646197 -0.0814373 0.20300008 -0.2504062 0.02836582 -0.24537171
-0.24593358 -0.052189413 0.12374443 0.20563251 0.25171396 -0.0906034 0.25352758 0.20915565
-0.104000926 0.15266363 0.10178974 -0.06310709 -0.128391 0.16012411 -0.10128734 0.06903416
-0.03651613 -0.065836914 0.16415885 0.04618669 0.090151615 -0.13705571 0.13169572 0.03802787
0.08710916 -0.16912581 -0.008207396 0.04249819 0.13886069 0.06411192 0.06883082 0.25910068
0.19231458 -0.28651607 0.11435204 0.14134376 -0.21552277 0.022628998 0.060626972 0.017919041
0.093315504 0.017456848 -0.0011765611 -0.03780313 -0.17758949 -0.04636793 0.09011413 -0.14808415
0.07466128 -0.067665614 0.11890358 0.1477906 -0.11977908 0.16119061 -0.13659051 0.15950125
00000000: 7d2f 9a3d 468f 4e3d 41db 863c 99c8 a6bd
00000010: 41df 4f3e 3e35 80be 705f e83c b942 7bbe
00000020: 03d6 7bbe 91c4 55bd b86d fd3d 5491 523e
00000030: a7e0 803e 468e b9bd 5ece 813e e62c 563e
00000040: 70fe d4bd db53 1c3e 2477 d03d 4a3e 81bd
00000050: ee78 03be 93f7 233e bd6f cfbd c861 8d3d
00000060: f091 15bd 81d5 86bd 4219 283e 412e 3d3d
00000070: 69a1 b83d 5558 0cbe 3edb 063e 1dc3 1b3d
00000080: 4a66 b23d 512f 2dbe 5078 06bc 9512 2e3d
00000090: 7f31 0e3e 1c4d 833d 2cf7 8c3d d8a8 843e
000000a0: 1dee 443e 3cb2 92be 6731 ea3d 6bbc 103e
000000b0: 00b2 5cbe 7360 b93c fd53 783d f4ca 923c
000000c0: 331c bf3d aa01 8f3c d736 9aba 74d7 1abd
000000d0: 05da 35be 4cec 3dbd c28d b83d 5fa3 17be
000000e0: 03e8 983d 4594 8abd b883 f33d 6b56 173e
000000f0: bc4e f5bd 270f 253e 62de 0bbe 4c54 233e

lin4.weight f4 [64, 64]
0.027242286 0.017874165 0.06308805 -0.05203961 -0.2228746 0.061880723 -0.06659969 0.061321657
0.11762442 0.21661516 -0.08124518 -0.027585573 -0.21151626 -0.13172853 -0.13104306 -0.072724044
-0.077660225 0.097640246 -0.08287304 -0.076274686 -0.020256951 0.015336751 -0.12467094 -0.17689583
0.1122068 0.052168503 -0.18956046 -0.107411675 -0.13415055 -0.13368604 0.03751636 0.33366486
0.0756053 -0.055364996 -0.22566615 -0.07647928 0.06617553 0.08591884 0.05001112 -0.10389353
-0.19682005 0.0009865087 0.11549192 -0.06362577 0.09139933 -0.413504 0.023295173 -0.04532952
0.19143611 0.014513902 -0.25387505 0.31692654 0.15766743 0.080266595 -0.019216986 0.05148691
-0.086904876 0.14452073 0.1581718 0.20755467 -0.10355229 -0.10221131 -0.098841056 0.06362101
-0.15842491 -0.06707119 -0.11548014 -0.071854636 -0.071542904 0.2241294 0.06647064 -0.02081143
0.3194254 -0.06516941 -0.20799248 -0.20577729 -0.08721617 0.03016855 -0.1298255 -0.05738165
0.16935179 0.04151258 -0.1238892 0.116022535 -0.04417168 -0.07038211 -0.02522408 -0.04898691
0.13690771 0.21087447 -0.056337073 -0.093203634 -0.1754606 0.014320225 -0.1968486 0.14736652
0.03247155 0.1221984 -0.011895814 -0.2040558 -0.08197441 -0.32422906 -0.09252685 -0.044145413
-0.025645578 -0.033256356 0.0001232433 -0.17881884 0.10893197 0.059830874 0.09125612 -0.10720563
-0.30876878 0.031273093 -0.15765077 -0.03463491 0.109728165 0.011223765 -0.08970101 0.09956475
0.084672466 -0.07096226 -0.008411609 -0.17619355 -0.047882907 -0.087203585 0.050272264 -0.12855834
0.1719334 -0.057319548 -0.0014839366 -0.018031923 0.19497377 -0.17252815 -0.07136571 -0.11078285
-0.1564136 -0.13627745 0.13786724 0.0018852326 0.12058455 -0.04837538 0.14206225 0.18682927
-0.112615086 0.08632442 0.1479964 -0.0023067072 -0.14765784 0.1473604 0.10407554 0.059227914
-0.109010674 -0.04854451 0.1454581 -0.030746814 0.10323692 -0.1057945 0.05324848 -0.16457161
0.07305299 0.047652382 -0.120396785 0.16221721 0.11743468 0.27036452 0.07330794 0.013944503
0.18812782 -0.075607106 -0.061066236 0.04182536 0.04067467 -0.08062578 -0.09405983 -0.061419796
0.11678058 0.099964 -0.015025594 0.16912828 -0.18043636 0.05327699 -0.056483652 -0.00829799
-0.021465799 0.077162474 0.10531286 0.100936 0.119105205 0.10873551 -0.09128059 0.15578133
0.08146789 -0.3501138 -0.23739794 -0.02810548 -0.18168789 0.09158157 0.028687656 0.119580865
0.13792555 0.08581203 0.013100836 -0.1902515 -0.32675016 -0.090316445 -0.25252187 -0.1750424
0.21633695 0.0238833 -0.052042563 -0.052998476 0.087308116 -0.1229695 0.11678224 -0.034468155
0.27554142 0.072457805 -0.15651512 -0.10537219 0.009571259 -0.18713674 -0.1592626 0.024499848
0.020037564 0.20402424 0.007770609 -0.011127206 -0.15818162 -0.31403705 0.10181556 -0.22669113
-0.23125021 0.15402411 -0.083331496 -0.15223321 0.12411283 -0.04705948 0.044560105 0.084041946
-0.0021529584 0.004283384 -0.10160333 -0.14982302 0.11276285 -0.13126175 -0.143272 0.03169975
-0.098202586 -0.0824388 0.063777596 -0.2949393 -0.0649184 -0.22575635 -0.070895724 -0.2610429
00000000: 372b df3c d76c 923c 4f34 813d 7c27 55bd
00000010: 3d39 64be a476 7d3d 6b65 88bd 6b2c 7b3d
00000020: 12e5 f03d 5dd0 5d3e df63 a6bd 24fb e1bc
00000030: b897 58be d8e3 06be 2730 06be 58f0 94bd
00000040: 530c 9fbd 9cf7 c73d 57b9 a9bd e735 9cbd
00000050: e8f1 a5bc ff46 7b3c 7a53 ffbd 2e24 35be
00000060: aecc e53d a4ae 553d 231c 42be a7fa dbbd
00000070: c35e 09be fee4 08be c1aa 193d 1fd6 aa3e
00000080: f4d6 9a3d 68c6 62bd 0715 67be 2ba1 9cbd
00000090: 0987 873d 37f6 af3d 76d8 4c3d 22c6 d4bd
000000a0: 328b 49be bd4d 813a 0787 ec3d 3a4e 82bd
000000b0: 922f bb3d ccb6 d3be 85d5 be3c 72ab 39bd
000000c0: d407 443e b8cb 6d3c e9fb 81be 3244 a23e
000000d0: 9273 213e d062 a43d f16c 9dbc f0e3 523d
000000e0: 2ffb b1bd 3efd 133e caf7 213e 3689 543e
000000f0: 3913 d4bd 2a54 d1bd 2e6d cabd bb4b 823d
00000100: 243a 22be 9f5c 89bd da80 ecbd 8628 93bd
00000110: 1685 92bd 2d82 653e c221 883d bb7c aabc
00000120: ba8b a33e 8a77 85bd fbfb 54be 48b7 52be
00000130: 649e b2bd 0924 f73c faf0 04be 0509 6bbd
00000140: 8e6a 2d3e 1809 2a3d 9fb9 fdbd 399d ed3d
00000150: 5ded 34bd 7f24 90bd bba2 cebc 80a6 48bd
00000160: 8931 0c3e 7aef 573e b4c1 66bd 8ce1 bebd
00000170: f2ab 33be 619f 6a3c ae92 49be 40e7 163e
00000180: e300 053d 2843 fa3d a9e6 42bc 01f4 50be
00000190: 33e2 a7bd 5a01 a6be b87e bdbd d2d1 34bd
000001a0: ad16 d2bc d137 08bd df3a 0139 491c 37be
000001b0: ba17 df3d 3811 753d 7de4 ba3d a08e dbbd
000001c0: f116 9ebe 3718 003d 346f 21be 56dd 0dbd
000001d0: 29b9 e03d e2e3 373c 2ab5 b7bd 9be8 cb3d
000001e0: c268 ad3d a954 91bd d8d0 09bc 156c 34be
000001f0: de20 44bd cb97 b2bd 4aea 4d3d cca4 03be
00000200: 4f0f 303e e7c7 6abd a680 c2ba afb7 93bc
00000210: 34a7 473e 38ab 30be 2f28 92bd 1ee2 e2bd
00000220: e32a 20be 518c 0bbe 122d 0d3e e919 f73a
00000230: 08f5 f63d 4325 46bd c478 113e 2c50 3f3e
00000240: bda2 e6bd dcca b03d 5e8c 173e 202c 17bb
00000250: 9e33 17be a5e5 163e 8f25 d53d f898 723d
00000260: fd40 dfbd 9cd6 46bd f8f2 143e bee0 fbbc
00000270: e16d d33d c9aa d8bd 141b 5a3d 7685 28be
00000280: ce9c 953d 252f 433d 9792 f6bd 451c 263e
00000290: 9881 f03d 386d 8a3e 7922 963d 7c77 643c
000002a0: 94a4 403e e6d7 9abd 9720 7abd 1251 2b3d
000002b0: 7c9a 263d 211f a5bd 71a2 c0bd 5393 7bbd
000002c0: a82a ef3d edb9 cc3d e92d 76bc f72f 2d3e
000002d0: 4fc4 38be f938 5a3d 675b 67bd 4bf4 07bc
000002e0: 0bd9 afbc 5c07 9e3d 45ae d73d 89b7 ce3d
000002f0: 6eed f33d b9b0 de3d 51f1 babd 2485 1f3e
00000300: a3d8 a63d 1e42 b3be 7218 73be 773d e6bc
00000310: 640c 3abe 1e8f bb3d 6002 eb3c d0e6 f43d
00000320: 5b3c 0d3e 38be af3d e4a4 563c 4ad1 42be
00000330: cc4b a7be d4f7 b8bd 8c4a 81be 513e 33be
00000340: 6f87 5d3e e9a6 c33c 952a 55bd ee14 59bd
00000350: 99ce b23d 6fd7 fbbd 872b ef3d 7b2e 0dbd
00000360: c413 8d3e c264 943d 8045 20be 60cd d7bd
00000370: c5d0 1c3c c6a0 3fbe bc15 23be e8b3 c83c
00000380: d125 a43c bbeb 503e 98a0 fe3b e24e 36bc
00000390: 5dfa 21be 77c9 a0be ad84 d03d b821 68be
000003a0: dbcc 6cbe 7fb8 1d3e b4a9 aabd 06e3 1bbe
000003b0: de2e fe3d 71c1 40bd a884 363d 2f1e ac3d
000003c0: a618 0dbb a15b 8c3b 6815 d0bd 356b 19be
000003d0: 36f0 e63d 7b69 06be e5b5 12be 99d7 013d
000003e0: 701e c9bd acd5 a8bd d49d 823d 4902 97be
000003f0: f0f3 84bd ac2c 67be c731 91bd 6aa7 85be

lin4.bias f4 [64]
-0.06620182 -0.23423329 0.17285673 -0.28030613 0.11401394 -0.14034908 0.16142513 -0.015124906
0.2844819 0.198641 -0.2097913 0.060337547 -0.10564616 0.0730814 0.14116833 -0.10242782
0.12323758 -0.114168435 -0.030750407 -0.1298418 0.08411468 0.06518503 -0.19039473 -0.021648781
0.14702672 -0.0468508 -0.026370412 0.15825264 0.25374097 0.07547793 0.07498619 -0.17830281
0.1604832 0.0960687 -0.029134817 0.18276241 0.10545776 -0.13080756 0.15004589 -0.006811612
0.20803626 0.10234182 0.02149866 -0.21044126 0.16395113 -0.089517765 -0.06011001 0.03094869
-0.20960899 0.16643462 0.012634885 -0.20986016 0.1505134 0.10979783 -0.022855824 -0.059309985
0.23290613 0.032329567 -0.124130465 0.21010615 -0.00215427 -0.029606484 0.29435086 -0.17979006
00000000: d294 87bd dada 6fbe 5b01 313e 4984 8fbe
00000010: 2480 e93d abb7 0fbe a14c 253e 74ce 77bc
00000020: 9da7 913e 8c68 4b3e 88d3 56be 8124 773d
00000030: 045d d8bd b3ab 953d 6e8e 103e adc5 d1bd
00000040: fc63 fc3d 24d1 e9bd 47e8 fbbc 40f5 04be
00000050: 5144 ac3d bb7f 853d d6f6 42be c958 b1bc
00000060: 2c8e 163e a0e6 3fbd c306 d8bc fb0c 223e
00000070: 56ea 813e 2c94 9a3d 5c92 993d 0395 36be
00000080: b555 243e abbf c43d 24ac eebc 1226 3b3e
00000090: 3dfa d73d 6bf2 05be a1a5 193e f133 dfbb
000000a0: 7507 553e 9798 d13d f51d b03c ea7d 57be
000000b0: cee2 273e 1755 b7bd ea35 76bd 1b88 fd3c
000000c0: bda3 56be d66d 2a3e 8c02 4f3c 95e5 56be
000000d0: 2f20 1a3e afdd e03d 233c bbbc 07ef 72bd
000000e0: f27e 6e3e 026c 043d 1d38 febd 1126 573e
000000f0: a72e 0dbb 4c89 f2bc 28b5 963e e31a 38be

lin5.weight f4 [1, 64]
-0.104380816 0.14280118 -0.19980823 0.17512228 -0.06100015 0.080591284 -0.27833518 -0.120785885
-0.25253227 -0.06683422 0.069143236 -0.11645681 -0.6701501 -0.303666 -0.11761583 0.031468168
-0.10314001 0.075004235 0.1642607 -0.09836227 -0.09768497 -0.15365714 0.2448778 -0.00017982304
0.065985195 -0.5217494 -0.054784536 -0.09513228 -0.20793286 0.31349403 0.33737746 0.1789233
-0.2361596 -0.20148061 -0.4180427 0.2115449 -0.058433753 -0.08899376 -0.37654513 0.05009994
-0.17197412 0.046401396 0.41241887 0.18460816 0.45352006 -0.0054248255 -0.2503738 -0.041860662
0.027564371 -0.09903321 -0.023810014 0.18131846 -0.36658716 -0.14614323 0.1481594 -0.1639656
-0.15257083 0.0388914 0.13166778 -0.33244067 -0.02914172 -0.35060734 -0.15210092 -0.6298281
00000000: 9cc5 d5bd 793a 123e 879a 4cbe 4153 333e
00000010: 4bdb 79bd 0b0d a53d f381 8ebe 975e f7bd
00000020: e94b 81be 61e0 88bd f89a 8d3d e880 eebd
00000030: f58e 2bbf 1c7a 9bbe 91e0 f0bd c4e4 003d
00000040: 123b d3bd d29b 993d f533 283e 2872 c9bd
00000050: 0f0f c8bd 4c58 1dbe 3fc1 7a3e e18e 3cb9
00000060: 3f23 873d 5e91 05bf c065 60bd b6d4 c2bd
00000070: 5aec 54be 4a82 a03e bdbc ac3e ab37 373e
00000080: d2d3 71be ef50 4ebe b109 d6be 3a9f 583e
00000090: 3b58 6fbd 5c42 b6bd 86ca c0be 9835 4d3d
000000a0: fc19 30be 640f 3e3d 9128 d33e ec09 3d3e
000000b0: c833 e83e bcc2 b1bb ff30 80be 1676 2bbd
000000c0: adce e13c ecd1 cabd 380d c3bc 8cab 393e
000000d0: 50b1 bbbe 92a6 15be 19b7 173e 99e6 27be
000000e0: 873b 1cbe 974c 1f3d ebd3 063e aa35 aabe
000000f0: 9eba eebc ce82 b3be 58c0 1bbe 6a3c 21bf

exp_avg f4 [64, 2]
0.003326438 -0.0002187055 -0.0009813741 0.0004651686 -0.00095435476 -0.00055365165 -0.0020944162 -0.00091592694
-0.00068525434 -0.0005300615 -3.645732e-05 -0.000100655365 -0.0006262418 -0.0014116674 -0.0006518776 -0.0005153969
-0.00076768483 0.00050247816 0.00039007957 0.00044721187 -0.0009505254 -0.00087607757 -0.00123255 -0.0006040023
-3.299181e-05 0.0003172747 -0.0010218285 -0.0005010481 -0.001138544 -0.00067603926 -0.0010361895 -0.00015790436
0.0014796583 0.00043767365 -0.00079486024 0.00026474707 9.724058e-05 0.00026711816 -0.00018107437 -0.0017385901
-0.0014709558 -0.00011081295 0.0012029522 0.0007805844 0.00035142258 0.0005147627 -0.00026642822 -0.00051379163
-0.0005200171 0.0013646573 0.0011749226 0.0005030082 0.0005092435 0.0003898706 -0.00024581002 -0.00041689322
0.00030992442 0.00031507097 0.0010948268 0.00023580459 -0.00067978154 -0.00029376912 0.0007927091 -0.00045150495
0.0008681724 0.00071638974 -0.0011558766 0.00015182805 -0.00012383875 0.0009123449 0.0009416974 0.00045867902
0.00069374236 -0.0005669781 -0.0020703385 -8.422966e-05 0.00064114726 0.00043061358 0.00087439344 0.0005870742
-0.00047673075 0.00024248239 -0.0020296671 -3.8057333e-06 0.00011071784 0.00036186737 4.4533575e-05 -0.00056444865
-9.468751e-05 -8.586857e-05 0.00012309969 -0.0001408987 -0.00013449488 0.00029216346 -0.00069419114 0.00034958514
0.000546988 0.00010327394 -0.0003227127 -0.00083429075 -0.00043575972 -0.00050880486 -0.0012418912 0.00014957075
0.00072000746 -0.00039856788 0.001656208 0.00022253073 0.001051525 0.0006016174 -0.0014932335 -0.0014324258
-0.0016864053 -0.00031310075 0.0002869407 0.00018584935 0.00043198862 8.2568644e-05 0.00083394605 0.00037382057
-0.00065434194 -0.0006367363 -0.0026964506 0.0016072481 -0.00038713688 -0.0002591386 3.3459393e-05 0.0010271937
00000000: 5e00 5a3b 5054 65b9 73a1 80ba dfe1 f339
00000010: aa2d 7aba ef22 11ba 7942 09bb d11a 70ba
00000020: a4a2 33ba d3f3 0aba c0e9 18b8 f016 d3b8
00000030: 602a 24ba b307 b9ba c4e2 2aba b31b 07ba
00000040: 753e 49ba bdb8 033a 9883 cc39 c377 ea39
00000050: ae2c 79ba 92a8 65ba 848d a1ba e955 1eba
00000060: b060 0ab8 e457 a639 e0ee 85ba c558 03ba
00000070: 323b 95ba 3a38 31ba c0d0 87ba 2193 25b9
00000080: 18f1 c13a 9077 e539 2b5e 50ba c0cd 8a39
00000090: a4ed cb38 fe0b 8c39 c8de 3db9 67e1 e3ba
000000a0: 16cd c0ba 4064 e8b8 61ac 9d3a 22a0 4c3a
000000b0: 243f b839 24f1 063a 64af 8bb9 f9af 06ba
000000c0: c251 08ba 4dde b23a dcff 993a 4fdc 033a
000000d0: c17e 053a 8c67 cc39 10e0 80b9 7692 dab9
000000e0: 5a7d a239 1c30 a539 4b80 8f3a 5042 7739
000000f0: 5e33 32ba 0605 9ab9 cfcd 4f3a f8b7 ecb9
00000100: 1096 633a 1acc 3b3a c880 97ba 0834 1f39
00000110: b6da 01b9 6e2a 6f3a 3edc 763a db7a f039
00000120: 43dc 353a 42a1 14ba 84ae 07bb 74a4 b0b8
00000130: aa12 283a fac3 e139 8d37 653a e2e5 193a
00000140: b8f1 f9b9 df42 7e39 2a04 05bb 0066 7fb6
00000150: 3031 e838 04b9 bd39 90c9 3a38 82f7 13ba
00000160: f892 c6b8 5614 b4b8 5214 0139 35be 13b9
00000170: 3207 0db9 842d 9939 61fa 35ba 8648 b739
00000180: be63 0f3a c694 d838 c431 a9b9 4eb4 5aba
00000190: ae76 e4b9 5161 05ba f4c6 a2ba 18d6 1c39
000001a0: e2be 3c3a e0f6 d0b9 1e15 d93a 2357 6939
000001b0: 53d3 893a dcb5 1d3a 9ab8 c3ba 3cc0 bbba
000001c0: 5f0a ddba ac27 a4b9 8770 9639 8ee0 4239
000001d0: 887c e239 b428 ad38 2c9d 5a3a 59fd c339
000001e0: 2588 2bba a6ea 26ba efb6 30bb 4caa d23a
000001f0: a2f8 cab9 fedc 87b9 c056 0c38 e7a2 863a

exp_avg_sq f4 [64, 2]
0.0106313005 0.015858848 0.00059584336 5.8244157e-05 0.00093548355 0.0002588867 0.004008449 0.0063610757
0.0043327967 0.00034354467 0.004242998 0.0011076238 0.01599341 0.0002864306 0.0013008466 7.9079684e-05
0.00015980926 2.7057133e-05 0.00026156317 0.0013381166 0.0035611284 0.004116994 0.0011491504 3.3224205e-05
0.00014164399 0.0005167026 0.003732829 0.0001720046 0.0024435637 8.69155e-05 0.00033170395 0.0001619845
0.00050621695 0.005508814 0.0006178588 1.2089268e-05 0.00015990465 0.00052292173 0.023619257 0.00043804778
0.0018275473 0.0034964299 0.0037451468 0.0003133815 0.000115507035 0.0012489561 0.00030132092 0.0011395828
0.012501163 0.0002645786 0.00094749115 0.001234571 0.00080288394 2.1731652e-05 0.000121913705 0.00067459384
0.0006309892 4.8970924e-05 7.785053e-05 0.0005916924 0.00020618402 0.00020261128 0.0017973759 4.4224602e-05
0.00018249243 0.0025710475 9.2368806e-05 0.00020597465 0.008727817 0.00045497375 0.0002001161 0.0030289718
0.0012354596 0.0007128263 0.001405961 0.005237027 0.0039037429 0.00032610848 0.0023423287 0.00010329994
0.00022905803 4.4539458e-05 0.0018692571 0.0048857215 0.00026418708 0.0005872712 0.0011802437 0.00078564184
0.0014143335 0.00092457084 0.000657251 0.0002902458 5.5949426e-05 0.0001275324 0.0013584567 0.00039229105
6.24683e-05 6.4548526e-06 0.0033023956 0.0013767106 0.00018367279 0.0019903136 0.0025537868 0.00036534693
0.002549469 0.0009362592 0.0006063182 0.0044390033 0.0017428834 3.5911566e-05 0.011384907 0.003197383
0.0009136194 0.0053159012 7.559792e-05 0.00060811307 0.004184692 0.0021388044 0.00095127925 1.7516937e-05
0.0016579179 0.0014862678 0.018887771 0.003283824 8.068251e-05 0.00090421556 0.0052949563 0.0016787995
00000000: e82e 2e3c 6aea 813c 5f32 1c3a 304b 7438
00000010: 3d3b 753a 2fbb 8739 4f59 833b 9270 d03b
00000020: 22fa 8d3b c91d b439 d908 8b3b b02d 913a
00000030: 9d04 833c 102c 9639 2b81 aa3a 95d7 a538
00000040: 7992 2739 c0f8 e237 6a22 8939 be63 af3a
00000050: d261 693b d9e7 863b 179f 963a 385a 0b38
00000060: 4586 1439 5373 073a 7aa2 743b 225c 3439
00000070: 3224 203b 6746 b638 8de8 ad39 62da 2939
00000080: a5b3 043a 4883 b43b cdf7 213a 03d3 4a37
00000090: 14ac 2739 af14 093a 2c7d c13c c7a9 e539
000000a0: 508a ef3a 5c24 653b 2371 753b 5a4d a439
000000b0: 5e3c f238 03b4 a33a 9cfa 9d39 0e5e 953a
000000c0: aed1 4c3c 23b7 8a39 0e61 783a 54d1 a13a
000000d0: a178 523a 5e4c b637 ecab ff38 3ad7 303a
000000e0: f868 253a 2166 4d38 af43 a338 ce1b 1b3a
000000f0: 1a33 5839 0d74 5439 ed95 eb3a ce7d 3938
00000100: 705b 3f39 057f 283b 20b6 c138 e6fa 5739
00000110: 1eff 0e3c 8b89 ee39 42d6 5139 b781 463b
00000120: 25ef a13a f7dc 3a3a 3948 b83a 5e9b ab3b
00000130: f0d5 7f3b 8af9 aa39 c181 193b bca2 d838
00000140: 4c2f 7039 e1cf 3a38 dc01 f53a 6718 a03b
00000150: 9782 8a39 1af3 193a 68b2 9a3a 88f3 4d3a
00000160: 2861 b93a e65e 723a 5e4b 2c3a 222c 9839
00000170: 3dab 6a38 38ba 0539 3e0e b23a 6aac cd39
00000180: 6a01 8338 c396 d836 016d 583b be72 b43a
00000190: 4a98 4039 ec6f 023b 6f5d 273b 098c bf39
000001a0: fe14 273b 4b6f 753a 53f1 1e3a 0f75 913b
000001b0: 7671 e43a c09f 1638 c387 3a3c 2f8b 513b
000001c0: f67f 6f3a 0331 ae3b 538a 9e38 c769 1f3a
000001d0: be1f 893b 2f2b 0c3b 455f 793a 56f1 9237
000001e0: 7e4e d93a dfce c23a 87ba 9a3c 6d35 573b
000001f0: 1834 a938 e108 6d3a 5081 ad3b 2a0b dc3a

exp_avg f4 [64]
0.02003864 -0.0017443084 0.0012088815 -0.0017931366 0.0076281754 0.009068379 0.011281252 0.0041030855
-0.0009246395 0.0045974297 -0.0009235543 0.0034883157 0.0013013609 0.006770561 0.0043389555 -0.000101005906
0.005946639 -0.0024858175 0.0010476636 0.013462188 -0.00908461 -0.0042864224 0.003673789 -0.002173494
-0.010671936 0.0007317563 -0.002323872 -0.0032333294 -0.0014309061 0.0021737658 -0.00038142572 0.004201774
0.0045822263 -0.00078430574 -0.010007151 0.00482614 -0.005611832 -0.009233889 -0.0073774233 -0.005240248
-0.0010856938 -0.009740284 0.0013486503 0.0001464326 -0.006046913 0.0037767673 0.0004054586 0.0051252777
0.0008376502 0.0019291654 -0.004440673 0.0064398632 0.0071900995 0.0075919256 -0.003987141 0.004735407
-0.008695567 0.0015696695 0.010112014 -0.002764068 -2.3978588e-05 -0.017009368 -0.0024285212 -0.002590483
00000000: 1328 a43c 47a1 e4ba 5573 9e3a ae07 ebba
00000010: c6f5 f93b 8a93 143c 00d5 383c 2d73 863b
00000020: 8263 72ba 09a6 963b ae1a 72ba 3a9c 643b
00000030: 6d92 aa3a 95db dd3b cc2d 8e3b 22d3 d3b8
00000040: 06dc c23b 19e9 22bb c251 893a 8290 5c3c
00000050: 9ed7 14bc 1e75 8cbb f4c3 703b 2e71 0ebb
00000060: 58d9 2ebc 56d3 3f3a 1a4c 18bb 44e6 53bb
00000070: 3e8d bbba bd75 0e3b 18fa c7b9 09af 893b
00000080: 8026 963b de99 4dba 09f5 23bc 9924 9e3b
00000090: 75e3 b7bb bd49 17bc 50be f1bb 63b6 abbb
000000a0: d74d 8eba b695 1fbc 32c5 b03a b48b 1939
000000b0: 2f25 c6bb a483 773b bb93 d439 f2f1 a73b
000000c0: c195 5b3a 0ddc fc3a 1183 91bb 7d05 d33b
000000d0: ed9a eb3b b0c5 f83b 90a6 82bb 792b 9b3b
000000e0: da77 0ebc 5ebd cd3a dcac 253c 5e25 35bb
000000f0: a025 c9b7 3b57 8bbc d327 1fbb 18c5 29bb

exp_avg_sq f4 [64]
0.029647432 0.0006734373 0.00066161953 0.008586764 0.0028691124 0.004122571 0.00826509 0.00086523534
0.00022442799 0.0019840563 0.006281929 0.0010011323 0.00085977366 0.0022839222 0.0013854585 0.00037757316
0.006985962 0.00054543925 0.0007371725 0.012580253 0.006084811 0.0019741275 0.001790065 0.0018256302
0.007343718 0.0017242942 0.00040681017 0.001120922 0.0003374482 0.00084136927 0.00031344712 0.0013530552
0.003358109 0.0004903147 0.0055982284 0.0038544736 0.0018801463 0.008096234 0.002662397 0.001398168
0.00026528345 0.008059646 0.001128287 0.0018217494 0.0021170531 0.00081574044 0.00029677965 0.0014310891
0.00010849152 0.0030595362 0.0028129057 0.0022333055 0.0030011865 0.006281733 0.0010008442 0.007960281
0.007652007 0.0007858746 0.0055975956 0.00055630953 0.0023957023 0.018198362 0.0012297553 0.0047283233
00000000: 2cdf f23c 9d89 303a 8970 2d3a 80af 0c3c
00000010: b807 3c3b a216 873b 4d6a 073c f6d0 623a
00000020: 6e54 6b39 f106 023b a4d8 cd3b 6d38 833a
00000030: 6f62 613a dbad 153b 4698 b53a 03f5 c539
00000040: 7fea e43b cffb 0e3a cf3e 413a 681d 4e3c
00000050: 1863 c73b 5d60 013b 9da0 ea3a fc49 ef3a
00000060: 92a3 f03b b601 e23a 2349 d539 e7eb 923a
00000070: 88eb b039 568f 5c3a 2956 a439 0059 b13a
00000080: b813 5c3b 7688 003a 5871 b73b 569b 7c3b
00000090: 3e6f f63a 11a6 043c 9c7b 2e3b bc42 b73a
000000a0: be15 8b39 9b0c 043c 08e3 933a c4c7 ee3a
000000b0: 42be 0a3b 6ad7 553a 1799 9b39 6293 bb3a
000000c0: f185 e338 8082 483b ba58 383b a65c 123b
000000d0: 8eaf 443b ffd6 cd3b c22e 833a d76b 023c
000000e0: b0bd fa3b 2703 4e3a 096c b73b 4dd5 113a
000000f0: 3701 1d3b bb14 953c be2f a13a 0df0 9a3b

exp_avg f4 [64, 64]
-0.0004725111 -0.0018480823 -0.0012243182 -0.00022843876 -0.0013102085 -0.0011424588 -0.0006378374 -0.002057651
-0.001996117 -0.002161394 0.0005023517 -0.0024778855 -0.0024453858 -0.0014320416 -0.0018322796 -0.0005443518
-0.00053611456 -0.0008628477 -0.0015287122 -0.0003581448 0.00066444074 0.0010291397 -0.0023281695 0.0015981662
0.00036500135 0.00040524662 0.0013029376 0.0024583281 0.00020766075 0.000361941 -3.985694e-05 0.00031656804
-0.0012762493 -0.001771382 0.0005955933 -0.00083660806 0.0021957872 0.00035174063 0.0012879078 0.0016845037
-0.00079840206 0.00044376907 -0.0023471788 0.0015162189 0.0013508253 -0.0017771074 -0.0025630477 -0.0022446392
0.0007336802 0.00036444908 0.001803308 -0.0018520618 -0.00037064365 -0.00062969077 0.001985509 -0.00046981534
0.00067934114 -0.00047896738 -0.0011025968 0.0018442923 0.00053479767 -1.4117119e-05 0.0016195319 -0.0006123652
-0.0001460163 -0.0012687597 -0.0011139441 -0.00045122195 -0.0010892785 -0.00076083496 -0.0006426157 -0.0017194888
-0.0012692265 -0.001366916 3.5147314e-05 -0.0020876152 -0.0016006745 -0.0011878875 -0.0015942152 -0.0005358265
-0.00014467102 -0.00061234244 -0.00094769034 -0.00041629554 0.00031538893 0.001052063 -0.0014531986 0.0007982971
0.00033964595 0.0005303215 0.0010813086 0.0015133363 0.00021113816 0.00041394948 -0.00010469397 0.00020555774
-0.0006434102 -0.0015281868 0.0004989587 -0.0004056068 0.0015061764 5.8162652e-05 0.0010339018 0.0013875494
-0.00058314425 0.00015815851 -0.0014176087 0.0008069151 0.0008839845 -0.0012544482 -0.0015440322 -0.0015600767
0.0005621075 6.757051e-05 0.0010425551 -0.001329445 -0.00022954756 -0.00023935156 0.0016992814 -0.0006280531
0.0002713801 -0.00025096658 -0.00066706946 0.0015599824 0.00011829083 -1.845567e-05 0.00097371696 -0.00012909525
2.456646e-05 4.2919582e-05 -1.7984888e-05 -3.6930658e-05 -1.1113542e-05 1.3433451e-05 -2.4513874e-05 -1.664871e-05
5.1736475e-05 4.6544006e-05 -5.0174713e-05 -2.9544892e-05 4.8984093e-05 -1.134608e-05 -2.5324614e-05 -1.1216085e-05
3.683361e-05 1.8156226e-05 3.875937e-05 -2.4142308e-05 -2.3271214e-05 3.7519287e-05 5.2136253e-05 -6.0599454e-05
1.228463e-05 2.7629598e-05 5.941488e-06 -5.6507735e-05 6.3067273e-06 1.3325494e-05 -9.414467e-06 -1.3500951e-05
4.816303e-05 -1.1005792e-05 1.0737975e-05 3.4230306e-05 -3.221087e-05 -2.4663535e-05 6.2979616e-06 1.0330571e-05
1.2571064e-05 -2.1779562e-05 5.7072833e-05 -5.3733434e-05 -2.2595787e-05 2.1416543e-05 5.0733943e-05 3.036198e-05
-7.5501544e-06 -3.3359298e-05 -5.0996372e-05 1.7335913e-05 4.448214e-06 3.2098887e-05 2.3135788e-05 -3.7945272e-05
-3.2646036e-05 1.8032559e-05 2.2067665e-05 1.5794265e-05 -4.336281e-05 7.3777937e-06 -4.342956e-05 5.0806902e-05
-3.9897037e-05 -5.4558936e-05 0.00012689276 0.00015875863 0.00021283104 7.22165e-05 0.00021810096 0.00024173778
0.00021264807 -7.234316e-05 0.00019062127 0.00032696422 -5.5969613e-05 0.00023948087 0.00027774475 6.744446e-05
-0.00011518305 -5.146399e-05 -7.830382e-05 0.00018395566 2.573378e-05 -0.00026397398 -9.786927e-05 0.00018258535
-0.00011977436 -0.00012968245 -0.000117931915 0.00012167693 -4.8971135e-05 -5.530573e-05 4.1145755e-05 7.154858e-05
-0.00012997206 6.536922e-05 -0.00014564578 -8.87542e-05 -4.717792e-05 5.1290728e-05 -0.00019478332 -0.00022355243
-2.7558292e-05 3.6419995e-05 -0.00011432996 0.00014935453 -2.0483152e-05 4.3226537e-05 2.8067938e-05 5.9545615e-05
8.611165e-06 0.00014129984 0.00011960932 0.00013081712 3.5282865e-05 -7.7071265e-05 -0.000268252 0.00020950437
7.471511e-05 -4.725105e-05 1.6194073e-05 -0.00019071758 0.00016609984 -7.134182e-05 9.20168e-05 -0.00020391689
00000000: 5ebb f7b9 5a3b f2ba 4d79 a0ba 1089 6fb9
00000010: 4dbb abba 8ebe 95ba 8b34 27ba a8d9 06bb
00000020: 49d1 02bb 2da6 0dbb 40b0 033a 0564 22bb
00000030: c442 20bb 58b3 bbba 1a29 f0ba d5b2 0eba
00000040: 0a8a 0cba bb30 62ba 125f c8ba 62c5 bbb9
00000050: dd2d 2e3a 33e4 863a 3494 18bb 8f79 d13a
00000060: a75d bf39 4877 d439 55c7 aa3a e71b 213b
00000070: 82bf 5939 e6c2 bd39 102c 27b8 0bf9 a539
00000080: d247 a7ba b82d e8ba 9721 1c3a d14f 5bba
00000090: 32e7 0f3b d469 b839 04cf a83a 91ca dc3a
000000a0: db4b 51ba ada9 e839 20d3 19bb ddbb c63a
000000b0: 2d0e b13a d4ed e8ba cef8 27bb cc1a 13bb
000000c0: 7254 403a 8713 bf39 fa5c ec3a e2c0 f2ba
000000d0: f352 c2b9 d511 25ba 501f 023b 8c51 f6b9
000000e0: d015 323a ea1d fbb9 0285 90ba 2ebc f13a
000000f0: aa31 0c3a 90d8 6cb7 7946 d43a 2287 20ba
00000100: f41b 19b9 834c a6ba c301 92ba fc91 ecb9
00000110: 1fc6 8eba c572 47ba 3675 28ba 7860 e1ba
00000120: 2d5c a6ba 172a b3ba 246b 1338 5fd0 08bb
00000130: b9cd d1ba e4b2 9bba fcf4 d0ba b576 0cba
00000140: d5b2 17b9 9b85 20ba 6c6e 78ba 3e42 dab9
00000150: c95a a539 60e5 893a 4179 beba d044 513a
00000160: 8212 b239 4605 0b3a b2ba 8d3a 245b c63a
00000170: f864 5d39 5c07 d939 268f dbb8 fc8a 5739
00000180: 87aa 28ba 714d c8ba 8dcc 023a a0a7 d4b9
00000190: e56a c53a acf3 7338 fd83 873a 6fde b53a
000001a0: 26de 18ba 5ad7 2539 0ecf b9ba 2887 533a
000001b0: 32bb 673a 4c6c a4ba 2061 caba 7d7b ccba
000001c0: 655a 133a a4b4 8d38 58a6 883a c640 aeba
000001d0: b4b2 70b9 72fa 7ab9 6cba de3a eea3 24ba
000001e0: 0548 8e39 2a94 83b9 46de 2eba 5378 cc3a
000001f0: e812 f838 40d1 9ab7 0a41 7f3a be5d 07b9
00000200: 1214 ce37 8d04 3438 41de 96b7 fee5 1ab8
00000210: 4d74 3ab7 3c60 6137 25a3 cdb7 d5a8 8bb7
00000220: 9eff 5838 3f38 4338 b072 52b8 2cd7 f7b7
00000230: 4574 4d38 0b5b 3eb7 3270 d4b7 b82c 3cb7
00000240: ca7d 1a38 334e 9837 8f91 2238 3685 cab7
00000250: 8d36 c3b7 075e 1d38 e0ac 5a38 2b2c 7eb8
00000260: 161a 4e37 1cc6 e737 fe5c c736 b802 6db8
00000270: 609e d336 9090 5f37 d4f2 1db7 2582 62b7
00000280: a902 4a38 84a5 38b7 4027 3437 8392 0f38
00000290: 291a 07b8 8ae4 ceb7 1453 d336 7751 2d37
000002a0: 4fe8 5237 41b3 b6b7 7d61 6f38 d65f 61b8
000002b0: 158c bdb7 ada7 b337 28cb 5438 dbb1 fe37
000002c0: 5557 fdb6 46eb 0bb8 f0e4 55b8 976c 9137
000002d0: de41 9536 eba1 0638 ba13 c237 6d27 1fb8
000002e0: 6aed 08b8 a044 9737 f31d b937 ed7d 8437
000002f0: 76e0 35b8 c48e f736 2328 36b8 7f19 5538
00000300: 1e57 27b8 36d6 64b8 840e 0539 7278 2639
00000310: 662b 5f39 f072 9738 08b2 6439 fe7a 7d39
00000320: 48fa 5e39 f0b6 97b8 82e1 4739 656c ab39
00000330: eac0 6ab8 281d 7b39 459e 9139 f870 8d38
00000340: 6e8e f1b8 0adb 57b8 0b37 a4b8 39e4 4039
00000350: dfde d737 fd65 8ab9 2a3f cdb8 6274 3f39
00000360: 5f2f fbb8 5efb 07b9 3752 f7b8 ce2c ff38
00000370: 5b66 4db8 13f8 67b8 eb93 2c38 5a0c 9638
00000380: 1c49 08b9 d516 8938 7eb8 18b9 8c21 bab8
00000390: e8e0 45b8 0021 5738 c03e 4cb9 6669 6ab9
000003a0: fb2c e7b7 acc1 1838 6ec4 efb8 0d9c 1c39
000003b0: 3cd3 abb7 244e 3538 7073 eb37 9ec0 7938
000003c0: ac78 1037 e329 1439 c4d6 fa38 f42b 0939
000003d0: b0fc 1338 52a1 a1b8 2da4 8cb9 67ae 5b39
000003e0: 5fb0 9c38 6e2f 46b8 82d8 8737 5cfb 47b9
000003f0: 162b 2e39 599d 95b8 25f9 c038 86d2 55b9
